RNN_Closing/Trained Models/model_RNN_CP_4.pth (torch, 68218 bytes, 15 tensors)

attn_vec f4 [64]
000000 0c 9f 23 3f 3a e2 4a bf 11 a0 72 3e 8c 6a e6 be
       0.6391456 -0.79251444 0.23693873 -0.45003164
000010 cc 97 6e 3c 6b 2a c0 bf 67 2d af bf 32 11 67 bf
       0.014562558 -1.5012945 -1.3685731 -0.9026061
000020 88 50 0f 40 cd 96 b9 3d 11 4d a5 bf 58 27 de be
       2.2392902 0.09061966 -1.2914144 -0.43389392
000030 ff 0f 99 bf 23 af 2b bf 54 5d 03 3f 96 96 2b bf
       -1.1958007 -0.6706411 0.5131428 -0.6702665
000040 5d f5 2c bd 79 9f ea bd b4 90 16 3c e9 06 54 bf
       -0.042226184 -0.11456198 0.009189773 -0.82823044
000050 de 16 3d 3f 4b c3 a5 3f b3 25 2a bf 5c 0e be 3f
       0.7386302 1.2950224 -0.66463774 1.4848132
000060 1e 53 de bf dc bc bd 3d fd 7c e9 3f e3 ee 36 3f
       -1.7369115 0.09264538 1.8241268 0.7145826
000070 e2 bf 45 bf 19 3d 81 bc c2 e6 d9 3d de f0 a9 3f
       -0.77245915 -0.015776204 0.10639717 1.3276632
000080 36 09 2d 3c a3 45 39 bf 29 fa 68 3f 52 fc 33 be
       0.010561278 -0.7237188 0.91006714 -0.17576721
000090 ce 7d cf 3f f7 d2 1c bf fc b5 81 3e 4f 20 8a 3d
       1.6210268 -0.61259407 0.25334156 0.067444436
0000a0 6c 51 a6 3f 49 4a c6 bf b8 2a 07 40 c7 68 cd 3e
       1.2993598 -1.549142 2.1119823 0.40119
0000b0 fc 99 da bf 5a 68 da 3e 8b 02 c9 3f d7 32 9d 3e
       -1.7078242 0.4265774 1.5703901 0.3070285
0000c0 3d 5a 9d bf 56 bc c4 bf 79 6c 74 bf 75 01 ec 3c
       -1.2293164 -1.5369976 -0.95478016 0.028809289
0000d0 80 a6 8d 3e 40 b8 25 bf 57 26 3d bf ec 95 a8 3f
       0.27666092 -0.6473427 -0.73886627 1.3170753
0000e0 54 af e0 3e cb b1 a6 3e ad b7 df be 5f ab eb be
       0.43883765 0.3255752 -0.4369482 -0.46029183
0000f0 83 03 90 bf b2 9c ca 3e 2d 6d 1d 3f 1e df b3 bf
       -1.1251072 0.39572674 0.61494714 -1.4052465

weight f4 [32, 1]
000000 8a 4a 02 3f bc 0b 22 bf ea 74 1c 3f d0 4b 9e be
       0.5089499 -0.63299155 0.61115897 -0.30917215
000010 a8 2e 1a be 40 4b ca be 3e 2a 5e bf 80 b2 12 3f
       -0.1505686 -0.39510536 -0.86783206 0.5730362
000020 60 56 36 3d 0c 05 1c 3f 90 28 bd 3d 60 c8 5b 3d
       0.044515967 0.609452 0.09236252 0.05365789
000030 62 ea 2d 3f 70 3e 42 3f c8 a8 5e 3e b0 40 1a 3f
       0.67935765 0.7587652 0.21744072 0.60254955
000040 9e 4c 2e 3f 30 15 0f 3e 44 8d fa be 20 62 22 bd
       0.6808566 0.13972926 -0.48935902 -0.03964436
000050 ec 66 56 bf 94 d1 85 3e 10 fa e4 3e 7e 24 21 3f
       -0.83750796 0.26136458 0.44722033 0.6294631
000060 fc b6 24 bf e0 b9 e1 3e a8 cc 0d bf 78 b4 52 bf
       -0.6434171 0.44087124 -0.55390406 -0.82306623
000070 f0 79 20 3f 3e 63 36 3f 74 5f cc be 1c e1 bb 3e
       0.6268606 0.7124518 -0.39916575 0.36695182

bias f4 [32]
000000 c4 88 8c be 36 f0 55 3f 78 79 e6 3e f0 71 f2 3e
       -0.27448094 0.8356966 0.45014548 0.47352552
000010 10 89 a3 3e 18 8d 3b 3e 50 cf 0c 3f ee 24 63 bf
       0.31940508 0.18315542 0.55003834 -0.88728225
000020 f8 35 6c 3e d8 53 03 3f f0 a0 18 3f d8 c2 7e bf
       0.23067462 0.5129981 0.5962057 -0.9951606
000030 40 65 c2 3d f0 ee 10 bf 00 31 a9 3e c0 1d 41 3f
       0.09491968 -0.5661459 0.33045197 0.7543602
000040 7a be 4e bf 96 32 30 3f 76 f4 29 3f 70 1f 57 be
       -0.80759394 0.6882719 0.6638864 -0.21008086
000050 46 e1 7b 3f 00 b0 46 3a 68 6a 71 bf 42 f0 57 3f
       0.98390615 0.00075793266 -0.9430299 0.8435098
000060 58 2e 95 be 6a 4d 54 bf 34 81 c5 be 3a 1e 67 bf
       -0.2913692 -0.82930624 -0.38575137 -0.902805
000070 38 ee 6c 3f f2 6a 35 bf 20 2b 11 bd e0 cd 12 bf
       0.9255099 -0.7086631 -0.035441518 -0.5734539

weight_ih_l0 f4 [64, 32]
000000 ab 62 c9 3e fa 57 13 be 74 8f d6 bd fb 66 4f bc
       0.3933309 -0.14389029 -0.1047658 -0.01265883
000010 55 91 b7 3c b6 9a 0d bd ce 87 6c 3e 28 52 59 be
       0.022408167 -0.034571372 0.2309868 -0.21222746
000020 08 4f d6 bd 80 ac 90 3d d4 ee 1d 3e 02 14 10 be
       -0.10464293 0.07064152 0.15423137 -0.14070132
000030 48 1f 22 bc 5f 6b 02 be 21 22 64 bc 02 f0 f0 bc
       -0.009895153 -0.12736271 -0.013924153 -0.02941132
000040 7c f4 ee 3e c7 5b d8 bd bb 8d 61 be bc f0 94 3e
       0.46670902 -0.1056438 -0.22026722 0.29089916
000050 76 6f d3 bd bc 76 cc bd 45 05 1c 3e a7 0e 67 be
       -0.10323994 -0.09983584 0.15236385 -0.22564183
000060 dc 91 14 3e bf 54 01 be 2e 19 49 bb 4e 7e 2d 3b
       0.14508766 -0.12629984 -0.0030685174 0.0026472989
000070 5d 74 36 3c 1e e7 87 3e 9b 2a ab 3b 8e d7 e5 bc
       0.011136142 0.26543516 0.005223585 -0.028056886
000080 fd 82 43 3c 2d f5 e7 3d d2 f5 a8 bd 15 b4 39 3e
       0.0119330855 0.113260604 -0.082500115 0.18135102
000090 3e d0 ac 3d 45 f9 ed 3d a4 9d 90 bd 00 1e 96 3d
       0.084381565 0.1161981 -0.070613176 0.07329941
0000a0 24 0f 6e 3d 93 63 42 3e f4 5f 17 3e 98 7f 4b be
       0.058119908 0.18983297 0.14782697 -0.19872892
0000b0 0d be e4 bd f4 96 fa 3d 8a 87 e1 bd fa 6c aa bd
       -0.11169062 0.12235823 -0.1101218 -0.08321567
0000c0 d0 52 0e be 98 cb a9 be ea c6 67 bc 7f 8b 7f 3e
       -0.13898778 -0.33163142 -0.014146546 0.24955557
0000d0 dd 94 d3 3d f5 c9 a9 3d 49 9d 34 3e 11 22 a7 3d
       0.10331128 0.08290473 0.17638125 0.081607945
0000e0 d8 6f 86 be 9f 96 8c bd 76 e5 1c bd 41 bc 83 3e
       -0.26257205 -0.06864666 -0.03830477 0.25729564
0000f0 e1 08 86 bd 94 0c 6c bd 5e 2b 66 be 32 e5 32 be
       -0.06544662 -0.057629183 -0.22477481 -0.17470244
000100 ef e5 03 3e a3 a8 01 be 69 fa 29 be 38 d1 72 3e
       0.12880681 -0.12661986 -0.1659943 0.23712623
000110 78 01 b0 3d d3 22 0b be d8 12 f2 bd 9a 4c e9 bb
       0.0859403 -0.13587503 -0.118200004 -0.0071197273
000120 cd 0d d6 bb a5 04 d8 3d 9f c5 00 3e 26 c8 cc bd
       -0.006532407 0.10547761 0.12575386 -0.09999113
000130 6e 3c 31 bd 4f 5f 60 bd eb f6 09 3e f4 18 b5 be
       -0.04327052 -0.054778393 0.13473098 -0.353706
000140 f5 ea 83 be a0 a6 1c 3e d5 7f 81 bd 89 0f 71 3e
       -0.25765195 0.15297937 -0.0632321 0.23541082
000150 32 e9 cc bd 39 76 1b 3e 2d ab 0d 3e 21 06 cf 3d
       -0.10005416 0.15181817 0.1383483 0.10108591
000160 73 8a 7a be b4 a7 e5 3d 6c 4b 5b be 20 1a 15 bb
       -0.24466877 0.112136275 -0.2141549 -0.0022751167
000170 69 53 ef 3b 43 85 5b bc e7 56 fb bd 85 23 f1 bd
       0.0073036444 -0.013398471 -0.12272435 -0.11774353
000180 4a 80 07 be 66 40 ec 3d 40 71 55 3e 42 d0 67 3d
       -0.13232532 0.115357205 0.20843983 0.056595095
000190 42 87 42 3e 60 4a 16 3d 4a 17 a7 bd 57 ee 1d be
       0.1899691 0.036692023 -0.08158739 -0.1542295
0001a0 2c 4f 80 3e 80 4a 0d 3c cb 41 0c 3c c9 33 f5 3d
       0.25060403 0.008623719 0.008560608 0.11972768
0001b0 7b 21 03 be 39 8f 09 bf 0f 50 e0 bd aa 7b d4 3c
       -0.1280574 -0.53734165 -0.1095277 0.025937874
0001c0 ea ac 21 be ec 90 6f 3d 30 53 e4 3d 4b 74 02 be
       -0.15788618 0.058487818 0.11148679 -0.12739675
0001d0 7e bd 38 3d be 12 ed bd 32 84 0f 3e 11 df 38 be
       0.04510259 -0.115758404 0.14015272 -0.18053843
0001e0 4d b7 99 3d f0 5e 2e 3e 9f 17 b1 3e 11 c9 3b be
       0.07505665 0.17028403 0.34588334 -0.1833842
0001f0 7a 7b fe bd b2 ed d3 bd 6b d5 8e 3e b8 d7 82 3d
       -0.12425895 -0.10348071 0.278972 0.06388801
000200 c6 ed 5e be c3 a1 33 3e 1d b9 24 be 9f a0 68 3d
       -0.21770391 0.17542176 -0.1608624 0.056793805
000210 a3 df 58 be f0 b5 4c bb 4e fc 2d 3e 66 e6 72 3d
       -0.2117906 -0.0031236373 0.16990778 0.059301756
000220 0a 31 79 3c 58 0e 18 be 44 85 5f 3e 22 85 c6 3c
       0.015209446 -0.14849222 0.2182818 0.024233405
000230 76 a6 14 be 6b af 36 3e e1 5b 5f be 4b 54 3f 3e
       -0.14516625 0.17840354 -0.21812393 0.18684499
000240 23 d0 f3 bd 84 c2 80 be ec 7e a4 be 2a 9c 05 be
       -0.11904933 -0.25148404 -0.32128084 -0.13047853
000250 79 2c 90 be e1 d3 28 3e 62 8e 8a be 95 55 82 3e
       -0.2815893 0.16487075 -0.27061754 0.2545592
000260 ea 4e cf bd 99 f7 47 be af 4b 2c 3e 1e 0d 62 bc
       -0.101224735 -0.19528045 0.16825746 -0.013797073
000270 54 a1 88 be cb ca f7 bd 2d 58 0a 3e d9 d8 80 be
       -0.26685584 -0.120992266 0.13510199 -0.25165442
000280 f4 c7 31 be 41 db 55 3e 76 a6 ef 3b 5b 57 ba 3d
       -0.17361432 0.2088442 0.007313545 0.09098693
000290 95 63 be be 5f 01 66 3e 43 f0 8d 3e 4f b1 80 be
       -0.3718535 0.2246146 0.27722368 -0.25135276
0002a0 01 e8 d0 3d 41 09 4c be ae bd df 3d dc 1a 91 3d
       0.10200501 -0.19925405 0.109248504 0.07085201
0002b0 14 14 c1 3d 01 8d bf be 8d a1 10 3d 73 a2 54 bc
       0.09427658 -0.37412265 0.035310317 -0.012978184
0002c0 d5 05 0d be 47 dd 88 bc c1 69 1e 3d 71 ef 20 3d
       -0.13771756 -0.016707076 0.038675074 0.03929085
0002d0 e4 ba 97 bd 4f d8 8e 3c 02 7a ae bd ad 7d 11 be
       -0.074086934 0.017437128 -0.08519365 -0.14208098
0002e0 9b 17 92 be 8b 93 8a bd 9e 9d a4 be a8 d3 36 3e
       -0.28533635 -0.06766423 -0.32151502 0.17854178
0002f0 22 ec aa 3e 03 e7 f0 bd 62 d7 5b be 6f e4 b2 3d
       0.3338328 -0.11762812 -0.21468881 0.087349765
000300 ec 95 20 3e cf 31 2c 3d cf 34 e8 3d 85 6c ad bd
       0.1568219 0.04203969 0.113381974 -0.08467964
000310 a8 2e c6 bd f9 65 31 3d bb 1d 5c be a5 c0 1c be
       -0.09676868 0.04331014 -0.21495716 -0.15307863
000320 37 5b bd bd 4e d0 cb 3c 0f f1 54 be 55 20 0d 3d
       -0.092459135 0.0248796 -0.20795082 0.034454662
000330 58 28 e0 bd fe e1 f6 bd 85 38 04 3e 1e 0d 54 3e
       -0.10945195 -0.12054823 0.12912185 0.20708129
000340 52 c7 b0 3e 51 68 cb bb 92 91 c7 3d 54 e5 e1 3c
       0.3452707 -0.006207504 0.09744562 0.027575172
000350 ad ac 18 3c 0a d6 bd 3e 03 ed 35 bc 89 43 4b 3e
       0.009318513 0.3707736 -0.011103871 0.19849981
000360 7c 75 11 be 17 79 81 be 17 30 2c 3e 8e a7 0a 3d
       -0.14204973 -0.25287697 0.1681522 0.0338512
000370 44 bd fc 3d a8 a3 9c bd 06 fb 74 3e e3 b6 33 3e
       0.12340787 -0.076484025 0.23923883 0.17550234
000380 06 32 15 3e bd 3c 56 bd 49 9f 8e 3e 00 76 85 3d
       0.14569864 -0.05230402 0.278559 0.06516647
000390 8d b0 9d bd 94 18 01 be 6d 48 94 3d bb e0 47 be
       -0.0769969 -0.12607032 0.072403766 -0.19519322
0003a0 11 71 76 3e 0a 3d 83 bd 95 aa 57 bd 8e 41 a0 bd
       0.24066569 -0.06408127 -0.052652914 -0.078250036
0003b0 20 64 18 be c1 98 0e be ad 9c bc 3e 6d 8f 9c 3e
       -0.14881945 -0.13925458 0.36838284 0.30578175
0003c0 70 7c 84 bd 77 5a a1 3c dc 39 e9 3d f6 2d 48 3e
       -0.06469047 0.019696457 0.11387989 0.19548783
0003d0 8c be f1 3c 4b 53 09 3d 20 98 49 3e 18 fe 12 3f
       0.029509805 0.0335267 0.19686937 0.57418966
0003e0 d6 e7 85 be 4e 6f 10 be 02 b4 89 3d b5 7c b0 bd
       -0.2615344 -0.1410496 0.06723787 -0.08617536
0003f0 7e 64 48 3d c3 43 4c be 7d 04 b1 bc e6 6d b8 3d
       0.04892396 -0.19947724 -0.021608585 0.090053365

weight_hh_l0 f4 [64, 64]
000000 d9 0b ef 3c 24 54 5f be 4a b3 b4 3b 36 52 a1 3d
       0.029180454 -0.21809441 0.005514537 0.078770086
000010 c7 fe 33 3c 84 64 63 be f2 4a 23 be d4 c6 26 3e
       0.010986037 -0.22206312 -0.15946558 0.16286784
000020 20 23 d5 bc 69 7b 45 3e 22 c4 b2 bd eb 8e e4 bd
       -0.026017725 0.19285358 -0.087288156 -0.11160072
000030 da 9a 5e 3e b3 3d 03 bb bf 48 94 bd 8c 9f 19 3d
       0.21738759 -0.002002579 -0.07240438 0.03750567
000040 bc f7 fc be b0 b3 8e bd 7f 22 88 bd 55 cb dd 3c
       -0.49407756 -0.069678664 -0.066472046 0.027074495
000050 79 e2 5f 3e 52 37 96 bd d1 e6 4f 3e eb c4 b2 3d
       0.21863736 -0.0733477 0.20302893 0.08728965
000060 6d c8 4d bd 53 8f e8 bd 04 96 c5 3d 1b 3a 90 3e
       -0.05023997 -0.11355462 0.09647754 0.2816933
000070 49 c7 6a be 49 75 af 3d 68 ce 87 3e e1 70 d2 bc
       -0.22927584 0.08567292 0.26524663 -0.02568859
000080 1a d4 0e bc 30 4d 5a be 26 a1 19 bd cb 92 d7 bd
       -0.008717561 -0.21318507 -0.0375072 -0.105260454
000090 d1 48 0c be 93 64 49 3e c2 55 8f bc ef 41 9d 3e
       -0.13699652 0.19667272 -0.017496947 0.30714366
0000a0 35 38 6b be 3e 8c 90 3e 62 86 37 3e 3b ab 89 be
       -0.2297066 0.28231996 0.17922357 -0.2688845
0000b0 7a 3f 8e bc 38 c3 07 be d1 08 9d 3d d6 a9 fa bc
       -0.017364252 -0.13258064 0.07667697 -0.030598562
0000c0 d3 77 e6 3d 5a 21 cd 3e 33 8b 57 be 86 34 54 bd
       0.112533234 0.40064508 -0.21049194 -0.051807903
0000d0 3e ee 87 bd 58 8c ed 3d b8 64 fb be 4f 21 8b 3e
       -0.06637238 0.11599034 -0.4910028 0.2717385
0000e0 a9 e8 51 bd 7b 4a 7c bd b6 c7 aa 3d 59 d6 9e 3c
       -0.051247273 -0.061594468 0.08338873 0.019389318
0000f0 f3 80 17 3e 1e ae d5 3d 83 a0 68 3d 31 1a 84 be
       0.14795284 0.10433601 0.0567937 -0.25801232
000100 88 5f 4b be c5 1a ce be 68 b3 4a 3d d9 0f c6 bd
       -0.19860661 -0.402548 0.0494875 -0.096709915
000110 10 71 01 3d 63 5f 5c 3e 7d bd 5f be ac 83 36 be
       0.031601965 0.21520762 -0.21849628 -0.17823666
000120 f2 d1 4b be 8d 53 2c be 8a c1 a6 3d 4f 74 81 3d
       -0.19904307 -0.16828747 0.081423834 0.06321012
000130 f3 6c 8a 3d 65 83 4e be 28 1b 87 be e3 60 bb 3d
       0.06759062 -0.2016731 -0.26387906 0.09149339
000140 bd 20 73 be 3a f1 a1 3d 4c 26 31 bd fa 69 ea bd
       -0.23742957 0.079073384 -0.043249413 -0.11445995
000150 83 4d 71 3e 91 4f 76 bd ef 58 4a be 35 9c e4 3e
       0.23564725 -0.060134474 -0.19760488 0.44650427
000160 0d 4b 6c 3e bc da 00 3e bf 29 60 be 48 fc 19 3e
       0.23075505 0.1258344 -0.21890925 0.15037644
000170 92 d0 0e 3d c7 4f e5 bc f1 e4 7f 3e 9c 8e da 3d
       0.034866877 -0.027992142 0.24989678 0.10671732
000180 51 89 34 3e 6f 55 38 3e c2 32 8d 3d df 03 32 3e
       0.17630507 0.1800134 0.06894447 0.17384289
000190 41 6d bf 3c 29 e9 ba 3d 02 79 85 bd 5c ed 44 be
       0.023367526 0.09126503 -0.06517221 -0.1923117
0001a0 2b 99 b0 3d 99 c4 4d 3d c7 6c a2 be 46 45 1c bb
       0.086229645 0.05023632 -0.31723616 -0.0023845
0001b0 21 7c 4a be 17 fa 5b be 3d bf 85 be 9d 18 d3 3c
       -0.19773914 -0.2148212 -0.26122466 0.025768572
0001c0 c5 92 21 be 2d 9e 8c 3e 8f 67 14 3e 3d 78 da 3d
       -0.15778644 0.2746443 0.1449263 0.10667465
0001d0 b3 6c 29 3d 15 5d 8f be 4b 7e 3e 3e b5 3d 88 be
       0.04136343 -0.28000703 0.18602864 -0.2660958
0001e0 e7 2f 8b bd 7f 9d a6 bd 43 e6 56 3e 1b e3 67 3e
       -0.06796246 -0.08135509 0.20986275 0.22645228
0001f0 cf 3d 46 3d 6a fa 25 3e dc 56 cd 3c ed c7 26 3c
       0.04839879 0.16208807 0.025065832 0.010179502
000200 8a d4 37 3d db c5 01 3d 79 d6 7d be 0f 19 b7 3d
       0.044880427 0.03168283 -0.24788846 0.089403264
000210 09 69 cd 3d 7d 2f 26 3d 06 a3 64 be 01 17 d2 bd
       0.100297995 0.040572632 -0.22327814 -0.10258294
000220 a4 de 2c 3e ce 36 b7 3e cf 60 55 be 4f e5 69 be
       0.16881806 0.35784 -0.20837711 -0.2284138
000230 58 b2 db bd 8c 7c f5 3a 72 1b 70 bd c4 b5 70 3d
       -0.10727376 0.0018729134 -0.058619924 0.058767095
000240 8a c5 e9 bd 0d f3 cc bd c2 e2 e9 bd 14 c4 6e be
       -0.11414631 -0.10007296 -0.11420204 -0.23316985
000250 b6 b7 2e 3d 93 83 c3 be 4c 7a 83 3d e3 5b c3 3e
       0.04265567 -0.3818632 0.06419811 0.38156042
000260 87 58 83 3d f6 d0 80 bc fb 01 d6 bd 95 2c 3b bd
       0.064133696 -0.01572464 -0.104495965 -0.045696814
000270 f2 cd f3 bc 8b 56 85 be de 6f 29 be cf c4 2f be
       -0.029761288 -0.2604259 -0.1654658 -0.1716492
000280 0f 70 c2 bd 7b 1b 7d 3e fc 33 26 be 23 aa 46 3e
       -0.0949403 0.24717514 -0.16230768 0.1940084
000290 0f 07 80 3e 99 81 f2 be ba 3a a2 3d 74 3d 72 3e
       0.25005385 -0.473645 0.079213575 0.23656255
0002a0 73 a1 4d 3e e5 25 c6 3b d4 00 ac 3e e0 43 7b 3e
       0.20081119 0.006046998 0.33594382 0.24537611
0002b0 ca 48 97 bd 94 8a 25 be d9 cf 16 3e 5d 64 6d bd
       -0.0738693 -0.16166145 0.14727725 -0.057957042
0002c0 2b ff 96 3d ae 0d 64 3e ac 62 42 3d b0 b6 76 ba
       0.07372888 0.22270843 0.047457382 -0.0009411378
0002d0 91 60 90 bd 31 c8 5a 3e 4f 23 08 3e 79 8e 28 be
       -0.070496686 0.2136543 0.13294719 -0.16460599
0002e0 bf a1 bd 3c c7 44 48 be 24 65 42 bd f7 3e 5b be
       0.023148416 -0.19557486 -0.047459736 -0.21410738
0002f0 cd dc a9 bd c4 fa 6c be 45 a9 cf bb 83 1e f5 3c
       -0.082940675 -0.23142534 -0.006337317 0.029921776
000300 7c fa a7 3e f7 2c 96 3e 28 f8 77 3e ac aa 9b 3d
       0.32808292 0.2933118 0.24215758 0.076009125
000310 6b 9c af bd 3e a4 db bd 6d 30 35 3e 68 b0 5c 3e
       -0.08574756 -0.10724686 0.17694254 0.21551669
000320 ed 8c 57 3e 90 4e 65 be bc fe 9a 3d 69 94 24 3e
       0.21049853 -0.2239325 0.07568118 0.16072239
000330 13 9d 9a 3e 8d 90 11 3e ab 2c 20 3e 9c 07 79 be
       0.30197963 0.14215298 0.1564204 -0.24319309
000340 00 62 06 3e c9 fe 9c be 56 59 31 be 83 3a 2d be
       0.13123322 -0.30663136 -0.17319235 -0.16916852
000350 98 63 19 be a6 05 4e 3d 19 9f 5b 3d b9 a0 ca 3e
       -0.14979398 0.050298356 0.053618524 0.39575747
000360 3f a6 7e bc d6 81 88 be d1 e7 2b 3e e5 bb 56 3b
       -0.015542566 -0.26661557 0.1678765 0.0032765802
000370 aa ae 08 3d cf 0f 3e be 79 90 41 3e 9d 42 7c 3e
       0.033369698 -0.18560718 0.18902768 0.24634786
000380 48 55 c7 3d 85 15 fb 3e 75 b1 c8 bd ea 9f 46 3d
       0.09733063 0.49039856 -0.09799472 0.04849235
000390 05 d6 ff bb 25 32 36 3e 0c f4 bc bd 88 37 05 3e
       -0.0078074955 0.17792566 -0.09226236 0.13009465
0003a0 78 7d 74 bd b9 da f9 3c 66 b4 0c 3e 50 d9 ca 3c
       -0.05968997 0.030499803 0.13740692 0.024761826
0003b0 e6 fb ff 3d 63 93 dc bd 68 6d 01 bd c3 7d 55 bd
       0.12499218 -0.10770299 -0.03159848 -0.05212189
0003c0 3d 58 5f be ab d9 8d 3d 3e 45 82 3e 69 43 48 3e
       -0.21811004 0.069262825 0.25443453 0.19556965
0003d0 e9 a1 ac 3d f7 1d 35 bc e9 6c 19 bd 44 ca 1e bd
       0.084293194 -0.011054507 -0.03745738 -0.038767114
0003e0 3a a6 ad 3c 90 2f 19 be fc 86 f6 bd e1 27 91 3e
       0.021197427 -0.1495955 -0.12037465 0.28350738
0003f0 d3 d7 2d be dc 74 82 3d 64 2e be 3d 17 34 4c be
       -0.16976862 0.063699454 0.09286192 -0.19941746

bias_ih_l0 f4 [64]
000000 00 00 00 00 00 00 00 00 00 00 00 00 00 00 00 00
       0.0 0.0 0.0 0.0
000010 00 00 00 00 00 00 00 00 00 00 00 00 00 00 00 00
       0.0 0.0 0.0 0.0
000020 00 00 00 00 00 00 00 00 00 00 00 00 00 00 00 00
       0.0 0.0 0.0 0.0
000030 00 00 00 00 00 00 00 00 00 00 00 00 00 00 00 00
       0.0 0.0 0.0 0.0
000040 00 00 00 00 00 00 00 00 00 00 00 00 00 00 00 00
       0.0 0.0 0.0 0.0
000050 00 00 00 00 00 00 00 00 00 00 00 00 00 00 00 00
       0.0 0.0 0.0 0.0
000060 00 00 00 00 00 00 00 00 00 00 00 00 00 00 00 00
       0.0 0.0 0.0 0.0
000070 00 00 00 00 00 00 00 00 00 00 00 00 00 00 00 00
       0.0 0.0 0.0 0.0
000080 00 00 00 00 00 00 00 00 00 00 00 00 00 00 00 00
       0.0 0.0 0.0 0.0
000090 00 00 00 00 00 00 00 00 00 00 00 00 00 00 00 00
       0.0 0.0 0.0 0.0
0000a0 00 00 00 00 00 00 00 00 00 00 00 00 00 00 00 00
       0.0 0.0 0.0 0.0
0000b0 00 00 00 00 00 00 00 00 00 00 00 00 00 00 00 00
       0.0 0.0 0.0 0.0
0000c0 00 00 00 00 00 00 00 00 00 00 00 00 00 00 00 00
       0.0 0.0 0.0 0.0
0000d0 00 00 00 00 00 00 00 00 00 00 00 00 00 00 00 00
       0.0 0.0 0.0 0.0
0000e0 00 00 00 00 00 00 00 00 00 00 00 00 00 00 00 00
       0.0 0.0 0.0 0.0
0000f0 00 00 00 00 00 00 00 00 00 00 00 00 00 00 00 00
       0.0 0.0 0.0 0.0

bias_hh_l0 f4 [64]
000000 00 00 00 00 00 00 00 00 00 00 00 00 00 00 00 00
       0.0 0.0 0.0 0.0
000010 00 00 00 00 00 00 00 00 00 00 00 00 00 00 00 00
       0.0 0.0 0.0 0.0
000020 00 00 00 00 00 00 00 00 00 00 00 00 00 00 00 00
       0.0 0.0 0.0 0.0
000030 00 00 00 00 00 00 00 00 00 00 00 00 00 00 00 00
       0.0 0.0 0.0 0.0
000040 00 00 00 00 00 00 00 00 00 00 00 00 00 00 00 00
       0.0 0.0 0.0 0.0
000050 00 00 00 00 00 00 00 00 00 00 00 00 00 00 00 00
       0.0 0.0 0.0 0.0
000060 00 00 00 00 00 00 00 00 00 00 00 00 00 00 00 00
       0.0 0.0 0.0 0.0
000070 00 00 00 00 00 00 00 00 00 00 00 00 00 00 00 00
       0.0 0.0 0.0 0.0
000080 00 00 00 00 00 00 00 00 00 00 00 00 00 00 00 00
       0.0 0.0 0.0 0.0
000090 00 00 00 00 00 00 00 00 00 00 00 00 00 00 00 00
       0.0 0.0 0.0 0.0
0000a0 00 00 00 00 00 00 00 00 00 00 00 00 00 00 00 00
       0.0 0.0 0.0 0.0
0000b0 00 00 00 00 00 00 00 00 00 00 00 00 00 00 00 00
       0.0 0.0 0.0 0.0
0000c0 00 00 00 00 00 00 00 00 00 00 00 00 00 00 00 00
       0.0 0.0 0.0 0.0
0000d0 00 00 00 00 00 00 00 00 00 00 00 00 00 00 00 00
       0.0 0.0 0.0 0.0
0000e0 00 00 00 00 00 00 00 00 00 00 00 00 00 00 00 00
       0.0 0.0 0.0 0.0
0000f0 00 00 00 00 00 00 00 00 00 00 00 00 00 00 00 00
       0.0 0.0 0.0 0.0

weight_ih_l1 f4 [64, 64]
000000 f2 8e 87 3d 68 ce 1c be 12 23 13 bd 17 3e a3 bd
       0.066190615 -0.15313113 -0.035922118 -0.07970827
000010 41 1a 81 3c 94 6f 18 be 33 cd 6f be a7 e1 3b 3d
       0.01575959 -0.14886314 -0.23418121 0.045869496
000020 ff 07 3f be ad a1 68 3e bd a3 5c be 22 9d ca 3d
       -0.18655394 0.22717924 -0.21546836 0.09893252
000030 9d a0 0c be ed 89 07 3e c4 04 a2 be 04 9d 10 be
       -0.13733144 0.13236208 -0.3164426 -0.14122397
000040 53 7c 85 3d a8 49 36 be 4c 5c 6d ba 69 39 7e 3c
       0.065178536 -0.17801535 -0.0009054586 0.015516617
000050 da 83 92 be dd 0f da 3c 25 cb a5 3e 66 52 83 bd
       -0.2861622 0.026618892 0.3238155 -0.06412201
000060 a6 7a 28 3c 91 e0 08 3e ff 95 b5 bd 20 a9 e2 bd
       0.010283148 0.13366915 -0.088665 -0.11067414
000070 f5 b6 86 be 12 8a b8 be 56 11 69 be 78 78 85 3c
       -0.2631146 -0.3604284 -0.2276052 0.016292796
000080 2b a4 85 3e 60 bc 8e be 6f e0 d7 bd 5e 68 3c 3e
       0.26101813 -0.27878094 -0.10540854 0.18399188
000090 16 d7 0c 3e b4 7d 0f bd 86 05 9b 3d 1c 42 02 be
       0.13753924 -0.03503199 0.07569413 -0.12720531
0000a0 bd 27 5a 3e ac 44 cc 3d 37 85 a5 be a9 06 5a be
       0.21304221 0.099740356 -0.32328197 -0.21291603
0000b0 29 af a4 bd 47 50 68 be 4e 08 4f be a9 96 3c be
       -0.08041222 -0.22686873 -0.20218012 -0.18416847
0000c0 1d ed 1c bd 32 b8 b7 be 17 70 b2 3b d4 23 7b bd
       -0.038312066 -0.35882717 0.005445491 -0.061313465
0000d0 9e 20 b9 bd dd c7 02 be b1 59 1a bd 12 7c b5 be
       -0.09039424 -0.12771554 -0.037683193 -0.3544622
0000e0 d6 53 98 3e 7b 32 94 3c 8f 59 b7 3d 42 bb 8f bc
       0.29751462 0.018090477 0.08952629 -0.017545346
0000f0 e3 2e 92 bd 3c aa 81 3e 26 56 51 be 06 bf 89 3d
       -0.07137849 0.2532519 -0.2044302 0.06725888
000100 20 a2 9e 3d a4 24 13 be 67 2e 0d be dd 25 0c bd
       0.07745767 -0.14369446 -0.13787232 -0.034215797
000110 c5 9d 4e bd 6c f1 66 bd b1 5e 48 be 1a db ef bd
       -0.05044343 -0.05638258 -0.19567372 -0.11711712
000120 e4 30 1e 3d 3b f5 19 be 79 d0 6c bc 9a 4e 6b be
       0.038620844 -0.15034954 -0.014454001 -0.22979203
000130 da 2f 2d 3e 24 ac 0f be d6 8e 34 3e b0 8d ac 3d
       0.16912785 -0.1403051 0.17632613 0.08425462
000140 1e fb 39 bc b6 dd c6 be b9 0a ed 3c 7b 5e a6 3d
       -0.011351375 -0.38841027 0.028935777 0.081234895
000150 e7 fe 85 be 3b 1e 4c be 99 a2 b0 3e db 7d 52 3e
       -0.26171038 -0.19933407 0.34499052 0.20555823
000160 d4 40 f3 be 19 d1 44 be bc 6e c7 bd 1c fe 7e bd
       -0.47510397 -0.1922039 -0.09737918 -0.062254056
000170 6d 31 46 3e 50 50 3a 3d 9d 11 04 3e e0 14 4b bd
       0.19354792 0.04548675 0.12897344 -0.049580455
000180 97 a0 5c be 0f 07 a7 3c bb ef 5b 3e bd 76 0e 3e
       -0.21545635 0.020389108 0.21478169 0.13912483
000190 9a e4 8e be 22 5a 44 3d b1 1b db bd c5 c6 e6 bb
       -0.27908784 0.04793752 -0.10698641 -0.007042738
0001a0 d7 3c 1d 3e 77 4d 95 3c ec b2 24 3e 94 2d 9e bc
       0.1535524 0.018225415 0.16083878 -0.019308843
0001b0 72 7a 8e be 38 0e 9f bd b4 5f 71 be d9 0e 49 be
       -0.27827793 -0.07766384 -0.23571664 -0.1963457
0001c0 b9 e6 bb 3e fc 2a 5a 3e 1d 97 8d 3b 6f 23 1d 3e
       0.36699465 0.2130546 0.0043209926 0.15345548
0001d0 0c 25 ac bb 5c 88 ed 3d bc b1 28 be ba 35 5d 3e
       -0.00525344 0.11598274 -0.1647405 0.21602526
0001e0 f7 8c 11 3e 92 6e 51 be 13 a5 59 3c 29 09 df bc
       0.1421393 -0.20452335 0.013283986 -0.027226048
0001f0 5a 52 85 3d 3a 2a b3 3e 04 02 1b be a8 f5 3c be
       0.06509848 0.34993154 -0.15137488 -0.18453085
000200 32 fe bc bd d8 67 44 3d 74 38 15 3e 1b 06 51 bd
       -0.092281714 0.047950596 0.14572316 -0.051031213
000210 34 a9 60 be 9c b8 39 3e a6 82 dc 3d de 97 16 3e
       -0.21939546 0.18136829 0.10767107 0.1470637
000220 33 27 31 be e2 82 30 3d f6 13 eb bd 6f e8 21 3d
       -0.1730011 0.04309357 -0.114784166 0.039528307
000230 53 2c d1 3d 32 4e b5 bd 80 19 27 be 5f b9 6a 3c
       0.10213532 -0.08852805 -0.16318321 0.0143264225
000240 7c 84 98 3d 8d ab ca 3e ea 5d 99 3c 94 87 cf bd
       0.074471444 0.39584008 0.01872154 -0.10133281
000250 96 20 32 be bd be 13 bd 6a b0 11 3e 3b 66 58 3d
       -0.17395243 -0.036070574 0.14227453 0.05283187
000260 60 82 0f be d0 d7 a7 bd 0a cc 7b 3d 62 9b 4c be
       -0.14014578 -0.0819546 0.061473884 -0.19981149
000270 88 ba 38 bd 6f 2c cb bd 91 f0 22 be 14 a7 77 3e
       -0.045099765 -0.099205844 -0.15912081 0.24184829
000280 54 b3 eb bd cc a0 b1 3d de e8 9d 3e ba be f5 be
       -0.115088135 0.08673248 0.30841726 -0.47997075
000290 d8 ad 21 be 47 43 80 be 60 83 20 3e 7e 3d a3 bc
       -0.15788972 -0.2505133 0.15675116 -0.019926783
0002a0 81 d7 05 be a2 c7 2a be 5c 33 5c 3c 28 21 9e 3e
       -0.1307049 -0.16677716 0.013439979 0.3088467
0002b0 95 b7 36 3e 55 b8 9c be 12 57 77 3e 5f 88 e0 be
       0.17843468 -0.30609384 0.24154308 -0.43854043
0002c0 a0 f4 ec 3c ef dd 9a 3d b6 06 60 be a1 b8 7b be
       0.02892524 0.07561862 -0.2187756 -0.24582149
0002d0 ff c0 19 be 83 ad b6 3d f1 f1 26 be cd 76 d2 bd
       -0.15015028 0.089198135 -0.16303231 -0.10276566
0002e0 3a b3 34 be 43 21 80 be 8d bf 85 bd 84 75 3f be
       -0.17646495 -0.25025377 -0.06530676 -0.18697172
0002f0 43 cd 20 bd 4c 4b 24 3e 85 81 0c be 7a b7 2e 3e
       -0.039258253 0.16044348 -0.13721283 0.17062178
000300 56 08 5b be 8a 82 ba bd 03 d4 10 bd 68 4f 77 bd
       -0.21389899 -0.091069296 -0.03535844 -0.060378462
000310 3d f2 94 bd 36 ad c5 3d 22 23 0c 3d d9 22 7c bd
       -0.07272766 0.09652178 0.034213193 -0.06155667
000320 2b e1 36 3e ee 2d 63 3d 37 0e 28 bd 19 02 4a be
       0.17859332 0.055463724 -0.04102918 -0.19727363
000330 a0 df fc bd 3e 2d 35 3e 62 f4 9a 3e a7 b9 56 3d
       -0.123473406 0.1769304 0.30264574 0.052423146
000340 63 33 22 be 18 be db bd 60 f2 7c 3e c2 a4 25 3d
       -0.15839915 -0.10729617 0.24701834 0.04044033
000350 24 3c 20 3e ef e3 93 3d 75 2e b2 bc d9 c4 a3 bd
       0.15647942 0.07221209 -0.021750668 -0.0799653
000360 9e 85 86 be 7c a7 43 3e a0 05 d0 3d 89 29 29 be
       -0.26273817 0.19106859 0.10157323 -0.1651975
000370 6f 8a 4c 3e 05 20 9d be 90 1a 4f be 91 dc 72 3d
       0.19974683 -0.3068849 -0.20224977 0.05929238
000380 2f 62 80 be b6 da 77 be a6 e7 07 3d 2e 8b bb 3c
       -0.25074908 -0.24204525 0.0331799 0.022893514
000390 c2 9f b6 3e 0c 41 c5 3e c0 70 65 bd 61 df 47 3d
       0.3566876 0.3852619 -0.05601573 0.048797015
0003a0 52 1d 8f 3e f5 77 fc bd d7 b4 21 3e e9 c5 65 3e
       0.27952057 -0.123275675 0.15791641 0.22438778
0003b0 90 6e 9e 3d 19 af 3d bd 30 da 68 3e 25 b4 80 3d
       0.07735932 -0.046309564 0.22739482 0.0628436
0003c0 bb 51 f4 bd 40 d2 85 bd 8d 7d 00 3f e4 ae 33 be
       -0.11929651 -0.06534243 0.50191575 -0.17547184
0003d0 20 a3 c7 3d 0e ca ff 3d 3f a2 6e 3e 67 dd 13 be
       0.097479105 0.12489711 0.2330408 -0.14439927
0003e0 5a 24 68 be c6 27 41 bd 81 4d c5 bd 62 b0 1f be
       -0.22670117 -0.04715707 -0.09633923 -0.15594628
0003f0 d9 5e 5f bd a9 f0 93 3e e5 d8 a5 bd 5a f2 2e 3e
       -0.054533813 0.28894547 -0.0809801 0.17084637

weight_hh_l1 f4 [64, 64]
000000 51 4b 89 be 2c 23 26 3e f5 6a a5 3c ee 79 7b be
       -0.26815274 0.16224355 0.020192603 -0.24558231
000010 12 37 cd be ce 32 dd 3d 89 9c a8 be b4 5e 8a 3e
       -0.40081078 0.10800706 -0.32931927 0.27025378
000020 eb 01 84 3d 10 f3 37 3e 82 78 68 bd 20 bb 7c bc
       0.06445678 0.17963815 -0.05675555 -0.015425473
000030 99 a7 ec 3d ff 08 45 be 42 a6 d8 3e 3c 88 31 3e
       0.11555404 -0.19241713 0.42314345 0.17337126
000040 dd 60 b8 3d bf d2 13 bd 9e 36 ec bd d7 b7 b4 3d
       0.0900285 -0.036089655 -0.11533855 0.08824127
000050 01 28 2c 3e 73 c0 85 3d ba dc b9 3d d5 b5 e9 3c
       0.16812135 0.065308474 0.090753034 0.028529087
000060 11 8e 41 3d 0a fa b9 bd dd 14 b6 bd 5c 97 ca ba
       0.047254626 -0.09080894 -0.08890698 -0.0015456486
000070 d7 92 26 be d2 6f 2b be d3 a6 43 be 2d 61 82 bd
       -0.16266952 -0.16741875 -0.19106607 -0.06366191
000080 30 1c 15 bd 04 d9 1d 3e 6d 78 88 bd 37 38 c9 3e
       -0.036403835 0.15414816 -0.066635944 0.393007
000090 62 a5 92 be 30 ae cc bd c7 5b 09 3e 33 29 63 bc
       -0.28641802 -0.09994161 0.13413917 -0.013864803
0000a0 0d 2e 02 bd fd 81 b8 bd a5 3c 88 3d 17 50 0c 3e
       -0.0317822 -0.09009168 0.06652192 0.13702427
0000b0 94 23 c1 3d 87 1c 1a be 2b 80 6b be 90 bd e3 3c
       0.09430614 -0.15049945 -0.22998111 0.027800351
0000c0 28 3b 33 bd 6a 7b b0 3e 7c 81 d6 bd 78 e3 e3 bc
       -0.043757588 0.34469157 -0.10473916 -0.027818426
0000d0 64 72 0e 3e 61 71 0f bc 56 65 98 bd 27 91 81 3e
       0.13910824 -0.008755059 -0.07441203 0.25306055
0000e0 85 36 36 be ff 9f 4f 3e 88 d2 f7 bc d6 31 af bc
       -0.17794235 0.20275877 -0.030251756 -0.021386068
0000f0 33 e3 d6 3e a5 1c 1a be ef e4 8b 3e db 5e 16 be
       0.41970214 -0.1504999 0.273231 -0.14684622
000100 c9 be 19 be ff 97 01 bd a1 3b 9f bc 3c 5a 04 bd
       -0.15014185 -0.031639095 -0.019437613 -0.032312617
000110 d5 b6 34 3e a0 45 7a bc d2 ac ee 3d 81 2a b2 bd
       0.1764787 -0.015275389 0.116540566 -0.08699513
000120 30 ca ef be 51 56 8e 3b a5 73 5b 3c 91 2a 4d be
       -0.46833944 0.004343786 0.013394271 -0.20035769
000130 a5 16 d4 bd 87 28 e9 3d 36 72 64 3d 0b c9 3f bd
       -0.103558816 0.11384683 0.055772983 -0.04682259
000140 6c eb ee 3d bb 70 b0 3d da 70 ec bd ad 80 8c bd
       0.11665997 0.08615252 -0.11544962 -0.068604805
000150 e1 9f 1f 3c 15 22 13 be fc 28 af bd 1c 7f 82 be
       0.009742708 -0.1436847 -0.08552739 -0.25487602
000160 d4 9a 9b 3e d7 2d e4 bd 2c e2 67 3d 3e 76 31 3c
       0.30391562 -0.11141556 0.05661218 0.010831414
000170 4e a5 07 3e 6c 2f 62 bd 5a 32 14 3e ac be e7 bd
       0.13246652 -0.055221006 0.14472333 -0.11315665
000180 91 8f 86 3d a7 e2 88 3d 05 28 51 be 1d 7b 4a bd
       0.06570352 0.066838555 -0.20425422 -0.049433816
000190 42 ee bb 3c 4f ea 06 be 36 a5 19 be c7 68 d8 bd
       0.022940759 -0.13175319 -0.15004429 -0.1056686
0001a0 00 ce 9c 3e 40 90 83 be 09 e9 89 3d 18 26 de 3d
       0.30625916 -0.25695992 0.06733901 0.108471096
0001b0 de 15 90 3c bb 70 91 bc a7 be b5 be 65 83 b7 be
       0.017588552 -0.01775395 -0.3549702 -0.35842434
0001c0 97 e2 ab 3e b4 83 6c be f1 fc 0b 3e 05 b9 f5 3d
       0.33571312 -0.23097116 0.13670708 0.1199818
0001d0 ee 2a 66 be c9 41 1e be 8b 6c 2c be 58 ad fa bd
       -0.22477314 -0.15454783 -0.16838281 -0.12240094
0001e0 8e c9 04 bd 34 ba 9f 3c 7a a2 ae 3e a1 df 3f 3d
       -0.03241878 0.019497968 0.34108335 0.04684413
0001f0 56 98 8d 3e d2 9d 3e 3e d6 34 01 3f ed a3 f0 3c
       0.27655286 0.18614891 0.50471246 0.02937504
000200 8d 26 4e 3e 0c 1b 9f be 11 e2 cd bc 23 65 f5 bd
       0.20131893 -0.31075323 -0.02513221 -0.11982181
000210 dc 90 87 3e 16 fe b2 be 1a 9c c1 3c 9b 88 57 3d
       0.26477706 -0.34959477 0.023634005 0.05262051
000220 06 65 75 be 75 ae 2a 3d 76 7b 0f 3e f5 81 cb 3d
       -0.23964319 0.04167028 0.1401194 0.09936897
000230 4b 0c e1 bd c2 34 24 3e bb 72 d7 3e fd b1 50 be
       -0.10988673 0.1603575 0.4207972 -0.20380397
000240 b0 67 b1 3d 45 76 68 bd 25 70 02 3d 10 a7 1d be
       0.08662355 -0.056753416 0.03184523 -0.1539576
000250 93 d1 ef 3a 29 d8 84 be f9 99 f6 3c 42 a6 af 3e
       0.0018296711 -0.25946167 0.030102717 0.34306532
000260 80 ed 52 3e c2 5e b9 bd c2 67 52 3d ae 14 2a be
       0.20598412 -0.09051277 0.051368482 -0.16609451
000270 ed bb b2 be 26 60 0c be ff a9 72 be 18 ae 98 bd
       -0.34909 -0.13708553 -0.23697661 -0.07455081
000280 36 26 4f be ce e5 8c bb 94 e6 8a 3e 7f 1f 99 bd
       -0.2022942 -0.004299856 0.27129042 -0.074767105
000290 b7 1c 96 3c 56 a4 71 be 54 b7 5c 3e 6e 44 61 bd
       0.01832424 -0.23597845 0.21554309 -0.0549969
0002a0 25 a9 91 bc b5 6b 29 be e4 30 48 3e 62 11 f1 3d
       -0.01778085 -0.16544993 0.195499 0.11770894
0002b0 20 f4 d5 3d 70 82 2f bd 4b 14 25 3e dc c5 c2 3c
       0.10446954 -0.042849004 0.16121022 0.023775987
0002c0 ba 3f d4 3d 9c f9 00 3e 19 67 54 3e 44 4c c6 bd
       0.103637174 0.12595218 0.20742454 -0.09682515
0002d0 b6 01 40 3d fd 5e 8e 3d 1c 81 74 be 24 9a 4e 3e
       0.04687663 0.06951711 -0.23877376 0.20175987
0002e0 98 18 32 be eb 11 d1 bd b8 93 ee bd c4 db 1d bd
       -0.17392194 -0.10208496 -0.11649269 -0.038539663
0002f0 8b 88 12 3c 76 e5 2f 3e d3 fd 79 be e2 0f b8 3e
       0.008943687 0.17177376 -0.24413233 0.35949618
000300 67 b5 8b 3e c8 0f 4b 3d 65 47 06 3e 60 5f 61 be
       0.27286837 0.049575597 0.13113172 -0.22009039
000310 69 93 d1 3d 54 87 3d be 4a a3 80 be 60 59 11 3e
       0.102331944 -0.18508655 -0.2512458 0.1419425
000320 88 49 f2 bd c8 d2 b0 bd 64 39 0f 3e b0 97 a0 3d
       -0.11830431 -0.08633953 0.13986737 0.07841432
000330 d0 ff 30 bd 28 38 29 be 64 e7 99 be 05 8a 4e 3e
       -0.04321271 -0.16525328 -0.3005935 0.20169838
000340 d2 60 ce be 99 77 c2 bd 57 b4 7b 3e d1 a7 9c 3d
       -0.40308243 -0.09495468 0.24580513 0.07649196
000350 72 cd fd bd 78 89 26 be 29 f5 9b 3d 5d 06 4f bd
       -0.12392701 -0.16263378 0.0761512 -0.050543178
000360 a2 61 ba 3d aa aa 67 be d2 3a 2b 3e 11 64 b6 3d
       0.09100653 -0.22623697 0.16721657 0.08905805
000370 bc 9a 70 bd 8b a8 30 be 5c ea c2 3d a0 3d af 3e
       -0.058741316 -0.17251794 0.09517357 0.34226704
000380 32 c3 81 be cd 6d 76 3e 84 0a 23 be 47 ae 9b 3d
       -0.25344235 0.24065323 -0.1592198 0.076016
000390 1b 47 55 3e 66 a1 b8 bc a8 2f cb bd 54 ca 6a be
       0.20827906 -0.022537898 -0.09921199 -0.22928745
0003a0 e4 a7 22 be 1c 07 10 be 4b 7e 66 39 27 b2 0c be
       -0.15884358 -0.14065212 0.00021981557 -0.13739835
0003b0 66 64 e6 bd 3e 25 b5 be c5 6a 54 3e b5 37 dd 3d
       -0.11249618 -0.35379976 0.20743854 0.10801641
0003c0 1e 22 6c bc 8f b6 00 3d 7b c5 8e be cf 1a 3b bb
       -0.014412431 0.0314241 -0.2788504 -0.0028549915
0003d0 e1 b3 b1 be da 49 56 bd 92 dc 16 be 90 f3 f9 3d
       -0.3470755 -0.052316524 -0.14732578 0.12204659
0003e0 09 d7 c8 bd 46 85 9c 3e 65 ae 86 3e 68 f2 92 3c
       -0.0980664 0.3057043 0.26304927 0.017937854
0003f0 ee 11 af 3b 11 aa 00 3e 99 66 52 bd 89 9c 3b be
       0.0053427136 0.12564875 -0.051367376 -0.18321432

bias_ih_l1 f4 [64]
000000 00 00 00 00 00 00 00 00 00 00 00 00 00 00 00 00
       0.0 0.0 0.0 0.0
000010 00 00 00 00 00 00 00 00 00 00 00 00 00 00 00 00
       0.0 0.0 0.0 0.0
000020 00 00 00 00 00 00 00 00 00 00 00 00 00 00 00 00
       0.0 0.0 0.0 0.0
000030 00 00 00 00 00 00 00 00 00 00 00 00 00 00 00 00
       0.0 0.0 0.0 0.0
000040 00 00 00 00 00 00 00 00 00 00 00 00 00 00 00 00
       0.0 0.0 0.0 0.0
000050 00 00 00 00 00 00 00 00 00 00 00 00 00 00 00 00
       0.0 0.0 0.0 0.0
000060 00 00 00 00 00 00 00 00 00 00 00 00 00 00 00 00
       0.0 0.0 0.0 0.0
000070 00 00 00 00 00 00 00 00 00 00 00 00 00 00 00 00
       0.0 0.0 0.0 0.0
000080 00 00 00 00 00 00 00 00 00 00 00 00 00 00 00 00
       0.0 0.0 0.0 0.0
000090 00 00 00 00 00 00 00 00 00 00 00 00 00 00 00 00
       0.0 0.0 0.0 0.0
0000a0 00 00 00 00 00 00 00 00 00 00 00 00 00 00 00 00
       0.0 0.0 0.0 0.0
0000b0 00 00 00 00 00 00 00 00 00 00 00 00 00 00 00 00
       0.0 0.0 0.0 0.0
0000c0 00 00 00 00 00 00 00 00 00 00 00 00 00 00 00 00
       0.0 0.0 0.0 0.0
0000d0 00 00 00 00 00 00 00 00 00 00 00 00 00 00 00 00
       0.0 0.0 0.0 0.0
0000e0 00 00 00 00 00 00 00 00 00 00 00 00 00 00 00 00
       0.0 0.0 0.0 0.0
0000f0 00 00 00 00 00 00 00 00 00 00 00 00 00 00 00 00
       0.0 0.0 0.0 0.0

bias_hh_l1 f4 [64]
000000 00 00 00 00 00 00 00 00 00 00 00 00 00 00 00 00
       0.0 0.0 0.0 0.0
000010 00 00 00 00 00 00 00 00 00 00 00 00 00 00 00 00
       0.0 0.0 0.0 0.0
000020 00 00 00 00 00 00 00 00 00 00 00 00 00 00 00 00
       0.0 0.0 0.0 0.0
000030 00 00 00 00 00 00 00 00 00 00 00 00 00 00 00 00
       0.0 0.0 0.0 0.0
000040 00 00 00 00 00 00 00 00 00 00 00 00 00 00 00 00
       0.0 0.0 0.0 0.0
000050 00 00 00 00 00 00 00 00 00 00 00 00 00 00 00 00
       0.0 0.0 0.0 0.0
000060 00 00 00 00 00 00 00 00 00 00 00 00 00 00 00 00
       0.0 0.0 0.0 0.0
000070 00 00 00 00 00 00 00 00 00 00 00 00 00 00 00 00
       0.0 0.0 0.0 0.0
000080 00 00 00 00 00 00 00 00 00 00 00 00 00 00 00 00
       0.0 0.0 0.0 0.0
000090 00 00 00 00 00 00 00 00 00 00 00 00 00 00 00 00
       0.0 0.0 0.0 0.0
0000a0 00 00 00 00 00 00 00 00 00 00 00 00 00 00 00 00
       0.0 0.0 0.0 0.0
0000b0 00 00 00 00 00 00 00 00 00 00 00 00 00 00 00 00
       0.0 0.0 0.0 0.0
0000c0 00 00 00 00 00 00 00 00 00 00 00 00 00 00 00 00
       0.0 0.0 0.0 0.0
0000d0 00 00 00 00 00 00 00 00 00 00 00 00 00 00 00 00
       0.0 0.0 0.0 0.0
0000e0 00 00 00 00 00 00 00 00 00 00 00 00 00 00 00 00
       0.0 0.0 0.0 0.0
0000f0 00 00 00 00 00 00 00 00 00 00 00 00 00 00 00 00
       0.0 0.0 0.0 0.0

weight f4 [64]
000000 00 00 80 3f 00 00 80 3f 00 00 80 3f 00 00 80 3f
       1.0 1.0 1.0 1.0
000010 00 00 80 3f 00 00 80 3f 00 00 80 3f 00 00 80 3f
       1.0 1.0 1.0 1.0
000020 00 00 80 3f 00 00 80 3f 00 00 80 3f 00 00 80 3f
       1.0 1.0 1.0 1.0
000030 00 00 80 3f 00 00 80 3f 00 00 80 3f 00 00 80 3f
       1.0 1.0 1.0 1.0
000040 00 00 80 3f 00 00 80 3f 00 00 80 3f 00 00 80 3f
       1.0 1.0 1.0 1.0
000050 00 00 80 3f 00 00 80 3f 00 00 80 3f 00 00 80 3f
       1.0 1.0 1.0 1.0
000060 00 00 80 3f 00 00 80 3f 00 00 80 3f 00 00 80 3f
       1.0 1.0 1.0 1.0
000070 00 00 80 3f 00 00 80 3f 00 00 80 3f 00 00 80 3f
       1.0 1.0 1.0 1.0
000080 00 00 80 3f 00 00 80 3f 00 00 80 3f 00 00 80 3f
       1.0 1.0 1.0 1.0
000090 00 00 80 3f 00 00 80 3f 00 00 80 3f 00 00 80 3f
       1.0 1.0 1.0 1.0
0000a0 00 00 80 3f 00 00 80 3f 00 00 80 3f 00 00 80 3f
       1.0 1.0 1.0 1.0
0000b0 00 00 80 3f 00 00 80 3f 00 00 80 3f 00 00 80 3f
       1.0 1.0 1.0 1.0
0000c0 00 00 80 3f 00 00 80 3f 00 00 80 3f 00 00 80 3f
       1.0 1.0 1.0 1.0
0000d0 00 00 80 3f 00 00 80 3f 00 00 80 3f 00 00 80 3f
       1.0 1.0 1.0 1.0
0000e0 00 00 80 3f 00 00 80 3f 00 00 80 3f 00 00 80 3f
       1.0 1.0 1.0 1.0
0000f0 00 00 80 3f 00 00 80 3f 00 00 80 3f 00 00 80 3f
       1.0 1.0 1.0 1.0

bias f4 [64]
000000 00 00 00 00 00 00 00 00 00 00 00 00 00 00 00 00
       0.0 0.0 0.0 0.0
000010 00 00 00 00 00 00 00 00 00 00 00 00 00 00 00 00
       0.0 0.0 0.0 0.0
000020 00 00 00 00 00 00 00 00 00 00 00 00 00 00 00 00
       0.0 0.0 0.0 0.0
000030 00 00 00 00 00 00 00 00 00 00 00 00 00 00 00 00
       0.0 0.0 0.0 0.0
000040 00 00 00 00 00 00 00 00 00 00 00 00 00 00 00 00
       0.0 0.0 0.0 0.0
000050 00 00 00 00 00 00 00 00 00 00 00 00 00 00 00 00
       0.0 0.0 0.0 0.0
000060 00 00 00 00 00 00 00 00 00 00 00 00 00 00 00 00
       0.0 0.0 0.0 0.0
000070 00 00 00 00 00 00 00 00 00 00 00 00 00 00 00 00
       0.0 0.0 0.0 0.0
000080 00 00 00 00 00 00 00 00 00 00 00 00 00 00 00 00
       0.0 0.0 0.0 0.0
000090 00 00 00 00 00 00 00 00 00 00 00 00 00 00 00 00
       0.0 0.0 0.0 0.0
0000a0 00 00 00 00 00 00 00 00 00 00 00 00 00 00 00 00
       0.0 0.0 0.0 0.0
0000b0 00 00 00 00 00 00 00 00 00 00 00 00 00 00 00 00
       0.0 0.0 0.0 0.0
0000c0 00 00 00 00 00 00 00 00 00 00 00 00 00 00 00 00
       0.0 0.0 0.0 0.0
0000d0 00 00 00 00 00 00 00 00 00 00 00 00 00 00 00 00
       0.0 0.0 0.0 0.0
0000e0 00 00 00 00 00 00 00 00 00 00 00 00 00 00 00 00
       0.0 0.0 0.0 0.0
0000f0 00 00 00 00 00 00 00 00 00 00 00 00 00 00 00 00
       0.0 0.0 0.0 0.0

weight f4 [1, 64]
000000 1c 4d cb 3d 14 1b e8 bd 60 49 ac 3c 20 01 2c bc
       0.09926817 -0.1133329 0.021031082 -0.010498315
000010 5c e7 91 bd 7e 72 a2 bd a4 0c fe 3d 80 b8 a8 3a
       -0.071242064 -0.07931994 0.12404755 0.0012872368
000020 30 51 be 3d 0c 7f c9 3d 50 7f 35 bc 42 b6 ea bd
       0.09292829 0.098386854 -0.011077717 -0.11460544
000030 58 32 d3 3d 30 fd a2 bc b4 80 9f 3d 6c 2b 02 bd
       0.10312337 -0.01989612 0.0778822 -0.03177969
000040 02 62 c6 bd c4 a8 4e bd d4 85 68 bd b0 f7 be 3d
       -0.09686662 -0.050453916 -0.056768253 0.093245864
000050 c2 ee d7 bd 7e f1 bc bd e8 33 cf bc 2c b7 87 3d
       -0.10543586 -0.092257485 -0.025293306 0.06626734
000060 bc aa 2e bd 36 2c ab 3d 20 34 e2 3b b8 d4 2b bd
       -0.042643294 0.08358042 0.0069031864 -0.04195091
000070 14 10 bb bd cc 5b 24 3d 60 e2 d5 3b 90 1b 19 3d
       -0.09133926 0.040126607 0.00652723 0.0373798
000080 a4 13 98 3d ae 05 9d bd 26 92 c8 bd 8a ad c1 bd
       0.07425621 -0.07667099 -0.097935006 -0.09456928
000090 b0 4d 80 bc 8a 3b 8c 3d a4 54 7c bd 4c 9b 2d 3d
       -0.015662044 0.06847294 -0.061604157 0.04238443
0000a0 bc 66 28 3d dc 1b f9 3d 58 51 1d bd 06 4a e7 bd
       0.0411136 0.12163517 -0.038407654 -0.11293416
0000b0 f6 db dd bd 1a d3 c5 3d 30 39 43 bd 40 c5 d4 3d
       -0.1083297 0.09659405 -0.04766196 0.10389185
0000c0 50 3a cb bc 1e d1 ac 3d c8 93 7e bd 50 9a 56 3c
       -0.024808079 0.084383234 -0.062152654 0.013098314
0000d0 58 52 a6 bc 20 73 5a bc 0c 9a bd 3d 9e b7 84 bd
       -0.020302936 -0.013333112 0.09257898 -0.06480335
0000e0 1a 93 f2 3d 20 a6 83 3d 06 9d fe bd 4c 26 10 bd
       0.11844464 0.0642817 -0.124322936 -0.035192773
0000f0 96 93 a0 bd 80 70 dd 3c 58 21 13 3d 9c 31 69 bd
       -0.0784065 0.027031183 0.03592047 -0.056932077

weight f4 [1, 64]
000000 80 59 ec ba b8 48 e2 3c 88 d1 97 3d d0 21 77 3d
       -0.0018032044 0.027622566 0.07413012 0.06033498
000010 48 bc ee 3c 54 38 a2 3d 00 5a 88 3b 3c 11 45 bd
       0.029142514 0.079209 0.0041611195 -0.04811214
000020 b0 98 59 3c 98 91 35 bd 40 28 58 3d 80 3f 3f 3d
       0.013281032 -0.044328302 0.05277276 0.046691418
000030 f4 3a 00 3d 80 5e bb 3c c0 8d 38 bb 80 59 de 3d
       0.031306222 0.02287221 -0.0028160661 0.108569145
000040 74 6d 1b bd a8 a0 ed 3d e0 fe 28 bd 60 fc de bd
       -0.03794618 0.116029084 -0.041258693 -0.108879805
000050 80 cc 5b bb c0 c7 ae bd 40 a9 07 bc 90 69 a7 bd
       -0.003353864 -0.08534193 -0.008280098 -0.08174431
000060 c0 11 e5 bc b2 92 94 bd 6e 9e c9 bd 64 61 64 bd
       -0.027962565 -0.072545424 -0.09844671 -0.05575694
000070 72 2f d9 bd 86 8a bd bd 5a 32 9b bd 92 b9 9f bd
       -0.106047526 -0.09254937 -0.07577963 -0.077990666
000080 d8 d6 e9 3d 48 e6 5c bd 20 ca 6d bc 0c a7 f9 3d
       0.11417931 -0.05393055 -0.014513522 0.12190065
000090 30 4a fb 3d 80 b7 f0 bb 04 b1 70 bd 80 08 9a bd
       0.122700095 -0.0073460937 -0.058762565 -0.075211525
0000a0 26 e5 c0 bd 32 84 b9 3d 04 ac 97 bd 80 6c 2b bd
       -0.094187066 0.090584174 -0.07405856 -0.04185152
0000b0 20 bd ca bd 34 88 ba 3d b6 06 b7 3d 60 1d c5 3c
       -0.09899354 0.0910801 0.08936827 0.024061859
0000c0 ec 3e 6d bd 80 69 ea 3a 74 8a d9 3d 1e 6c a3 bd
       -0.057921335 0.0017884225 0.10622111 -0.07979606
0000d0 1c 15 6f 3d f0 9d f6 3d dc 89 f7 bd c8 02 d8 bc
       0.05836974 0.12041843 -0.120868415 -0.026368514
0000e0 f6 d5 aa bd 06 90 b0 bd b0 81 a9 bc 28 4a c1 bc
       -0.08341591 -0.0862122 -0.020691723 -0.02359493
0000f0 c0 b4 aa 3d c0 c1 66 bd b8 d1 a4 3d 68 eb a6 3d
       0.083352566 -0.05633712 0.08047813 0.08150369
