RNN_Closing/Trained Models/model_RNN_CP_3.pth (torch, 15178 bytes, 19 tensors)

attn_vec f4 [16]
000000 d4 5d df 3f 66 83 f0 bf 0d ed cd bf f0 4d bd 3f
       1.7450509 -1.87901 -1.6087967 1.478941
000010 2e da 0a c0 49 b8 1b 40 b4 e0 0d 40 d3 d9 e7 3f
       -2.1695666 2.4331229 2.2168398 1.811335
000020 6b 64 45 3f 8c 88 07 3f 57 d2 80 3d 9a 35 b9 3d
       0.7710635 0.5294273 0.06290119 0.09043427
000030 59 a3 fa 3e 01 1a d7 bf bc bc 41 bf 95 21 07 3e
       0.4895275 -1.6804811 -0.7567861 0.13196404

input_fc.weight f4 [32, 1]
000000 03 41 15 3f 03 f1 61 3d a6 3a 2d bf e4 67 32 bf
       0.58302325 0.055161487 -0.67667615 -0.69689775
000010 af 46 5e 3f 4c 1f 17 bf 5b 92 39 3f d5 57 cf be
       0.86826605 -0.5903213 0.72488946 -0.40496698
000020 86 c4 36 3f bd 61 bf be 2f 06 a6 bd 3e 46 0b 3f
       0.7139362 -0.37379256 -0.08106648 0.54404056
000030 c9 71 02 3f 81 2a 62 bf a6 cd 66 bf 6f 59 74 bf
       0.5095487 -0.88346106 -0.90157545 -0.95448965
000040 b9 31 52 bf ca 4d 0e 3b df d5 4e bf 65 7f 15 3f
       -0.8210712 0.0021713846 -0.8079509 0.58397514
000050 9f 85 b8 bd 50 79 1e 3e 27 34 fa be f6 69 f2 be
       -0.09009861 0.15475965 -0.48867914 -0.47346467
000060 dc fe b8 3e b8 9b 0b bf 18 0d 25 3f 36 d1 13 bf
       0.36131942 -0.5453448 0.64473104 -0.57741106
000070 cc 3a e6 3e 5f 62 09 3f c8 0a 67 bf 0d 7c 79 bf
       0.44966733 0.5366573 -0.90250826 -0.9745491

input_fc.bias f4 [32]
000000 8e c5 78 be 13 aa 69 3f b0 37 2c 3f 7b 16 4f 3f
       -0.24294111 0.9127514 0.6727247 0.8089368
000010 2e 45 b6 be f9 b4 29 3e e0 1f cb be e4 1c 92 3e
       -0.35599655 0.16572942 -0.39672756 0.28537667
000020 fc 67 15 bf ef fb df be 5c 68 73 3d ee d3 8d be
       -0.5836179 -0.43746898 0.059425697 -0.27700752
000030 ab 29 fd 3d 41 0d c7 3e fd a4 7b 3e cf 30 7b 3e
       0.12361463 0.388773 0.24574657 0.24530338
000040 30 a1 11 bf 48 48 07 bc b1 91 7a 3d b3 81 66 bd
       -0.5688658 -0.008256979 0.0611741 -0.056276035
000050 b8 ae 46 3f 0f bd 8c bc ad d0 1c bf cc a3 3d 3e
       0.7761035 -0.017179994 -0.61255914 0.18519515
000060 c7 22 2c 3f 7a a3 d2 3d e7 4d 90 3e 29 13 ea bc
       0.67240566 0.10285087 0.28184435 -0.02857359
000070 44 29 01 bf 4f 04 d6 3e 97 39 65 bf 97 68 1b 3e
       -0.5045359 0.41800162 -0.89541 0.15176617

rnn.weight_ih_l0 f4 [16, 32]
000000 7f eb bc 3d 57 1f 43 3e 1b c8 7b 3e e2 9c dc 3e
       0.09224605 0.19054924 0.24588053 0.43088442
000010 a1 39 fb bc d5 b0 a1 bd 58 18 39 3c 57 81 bb be
       -0.030667128 -0.07895056 0.011297308 -0.36622116
000020 f7 1a 53 3e 45 32 3e be 28 5d 1d bd 6b f6 12 be
       0.20615755 -0.18573864 -0.03841892 -0.14351813
000030 2d 66 2c be 77 b2 86 3b ea ba 7a 3b c8 24 89 be
       -0.16835852 0.00411063 0.0038258382 -0.26785874
000040 54 6b 98 be 57 27 ae 3b 01 45 88 3e 13 1b 67 be
       -0.29769385 0.0053147483 0.26615146 -0.22568922
000050 cc 8d 6b 3e 6a d8 35 3d fe 75 5c be b4 90 eb be
       0.2300331 0.04439584 -0.21529385 -0.46008837
000060 cf cf 2c bf 52 17 7c 3d 7f f8 5e 3e 21 09 36 bd
       -0.6750459 0.061545677 0.21774481 -0.0444423
000070 32 6a a1 be c4 2d 66 be eb 70 d5 bc 78 b6 77 be
       -0.31526333 -0.22478396 -0.02605482 -0.241907
000080 6b e0 bd bc 6b fd 18 3c b0 ff 0d bf ce 0b 8c 3e
       -0.0231783 0.009337763 -0.55468273 0.27352756
000090 a5 dd 9a 3d ac cd c6 3d 34 80 74 3c a0 8a 01 bf
       0.075618066 0.097071975 0.014923144 -0.5060215
0000a0 19 0f 22 be 60 56 c9 3e a6 b1 a6 3d 29 5e 9c be
       -0.15826072 0.3932371 0.081393525 -0.30540588
0000b0 d4 0b d1 3d 94 7d 9a 3e b4 72 99 3d e0 11 0d 3e
       0.10207334 0.30173934 0.07492581 0.1377635
0000c0 8b 6a ff 3d f8 cd a9 bb 43 86 32 be 5f 22 3c 3e
       0.12471493 -0.005182024 -0.1743403 0.18372487
0000d0 0d e7 12 3d 3a c1 89 bd 99 3f a4 3e 85 03 8f 3e
       0.03586488 -0.06726308 0.3207977 0.27932373
0000e0 e0 fa 17 3e 58 f4 96 3e be ae 04 3f 12 13 4b bd
       0.14841795 0.29483294 0.51829135 -0.049578734
0000f0 b3 75 28 3e b3 19 82 3e 2b 80 08 3d d5 96 a5 bd
       0.16451149 0.25410232 0.033325355 -0.080854096
000100 6c 5a 16 3e ee 72 c7 3d bf 22 64 be 4c 86 b3 3e
       0.1468293 0.09738718 -0.2227888 0.35063398
000110 68 e2 d7 3e 60 f5 02 3e 14 5c 5b bd f9 a4 c0 bc
       0.42164922 0.12788916 -0.05355461 -0.023516165
000120 e0 71 86 be 4a bd 5f 3d 6f aa ba bd 5f 86 35 3f
       -0.26258755 0.05462388 -0.09114539 0.7090816
000130 18 12 a3 bd 28 44 a7 bd 1c e3 1b 3f 6c 93 9b bc
       -0.079624355 -0.08167297 0.60893416 -0.018991195
000140 aa ce 0d 3e 45 f2 6e 3a e4 1f 3c 3d 4e dc a6 3e
       0.13848367 0.00091150805 0.04592885 0.32589954
000150 c8 c4 b4 bd e3 f6 da 3d 55 91 39 be 52 34 6d bd
       -0.088265955 0.10691621 -0.18121846 -0.057911225
000160 e0 ab 7f be 02 9f 2f be df af 1e 3e 1e 3a ab 3e
       -0.24967909 -0.171505 0.15496777 0.33442777
000170 02 22 2d be ed 92 cd bd e4 c9 9b bd bf 40 97 3d
       -0.16907504 -0.100377895 -0.07606867 0.07385396
000180 03 06 b9 bc c4 73 8e be 05 8e 7b 3e 8e bf 47 3f
       -0.022585874 -0.27822697 0.24565895 0.78026664
000190 c1 99 8a be 0d 4f 9b 3d 37 3e fd 3d 15 d3 a7 3e
       -0.2707043 0.07583437 0.12365382 0.3277823
0001a0 5b 4f 02 bd 61 7e 7f be 59 a8 82 bd 6b 5e 65 be
       -0.03181396 -0.24950553 -0.06379766 -0.22399299
0001b0 2d dd 2e 3d ac 5d 2f 3e 16 d5 48 3e 45 a6 9a be
       0.0426914 0.17125577 0.19612536 -0.3020498
0001c0 dd 82 10 bd ee 67 d2 bb 50 58 18 be 76 ab a3 3d
       -0.03528105 -0.006421081 -0.14877439 0.07991688
0001d0 b6 6e 97 be 96 0a 71 be 1f 38 10 3e a4 e5 90 3d
       -0.29576653 -0.23539194 0.14083908 0.070750505
0001e0 48 2f 24 3e 4f b5 50 3e 50 34 18 3e 81 67 0e be
       0.16033661 0.20381664 0.14863706 -0.13906671
0001f0 bb b8 06 be 52 18 af bd ae c6 dd be fb 67 59 3e
       -0.13156407 -0.085495606 -0.43315643 0.21231072
000200 de 0e 09 be 0e 60 4e be 2b b2 5b 3e dd b9 a8 bd
       -0.13384578 -0.2015383 0.21454684 -0.082385756
000210 eb 50 19 be 2f c0 3d be 59 b2 25 be 7d dc 13 be
       -0.14972274 -0.18530343 -0.16181315 -0.14439578
000220 fe ec 81 3d 7c 4c 5a be ea de 99 bd 56 29 76 bd
       0.06344031 -0.21318239 -0.075132206 -0.060098015
000230 be e6 81 bd 51 2e 84 bb 8e ff b9 be 79 7a 0b 3f
       -0.06342839 -0.0040338417 -0.36327785 0.54483753
000240 9b 67 34 3f c4 53 5d ba 3f 32 ae 3d fa 83 6e 3e
       0.7047059 -0.0008442963 0.085056774 0.23292533
000250 6d 49 0e 3e 33 b4 42 3e a2 0c 2b 3e 38 1d cd bd
       0.13895197 0.19014053 0.16704038 -0.10015339
000260 9b b1 97 be 83 80 17 3d c5 e6 99 3e 14 48 a3 3e
       -0.2962769 0.036987793 0.30058876 0.3189093
000270 99 e1 02 be 3a e5 33 3e 8c 00 10 be 7e 25 3f 3d
       -0.12781371 0.17567912 -0.14062709 0.046666615
000280 a0 cd f4 bd ae f5 16 be 6e 9d 2b 3e f2 a5 c2 be
       -0.11953282 -0.14742157 0.16759273 -0.3801723
000290 21 87 ff 3d a4 5d ca be 79 12 2b be bc 59 ff bd
       0.12476946 -0.39524567 -0.16706266 -0.12468287
0002a0 bf d1 f0 bd 76 67 15 3e be 61 2d bd 17 ba b6 be
       -0.11758756 0.14590248 -0.042329542 -0.3568885
0002b0 d3 28 24 bd 13 25 af bd ae b1 c4 3e 02 01 9f bd
       -0.040077996 -0.08551993 0.3841681 -0.07763864
0002c0 81 13 ce bd 17 e7 3e 3b 2d 51 53 bd 6c 60 04 3d
       -0.10062314 0.002912944 -0.051591087 0.032318518
0002d0 b0 bf 15 be ab 89 9b be dd 0d 69 be c3 55 5c 3b
       -0.14623904 -0.3037847 -0.22759195 0.0033620454
0002e0 8d a5 da be f2 d4 32 3d 34 f7 61 3e 02 4e 8c 3e
       -0.4270443 0.04366011 0.22066957 0.27403265
0002f0 29 9e b0 3e d3 0f 74 3b e8 65 bf be 7c 00 0f 3e
       0.34495667 0.0037240877 -0.37382436 0.13965029
000300 3f e4 32 bf ac b7 f2 3d 8c 85 a9 bc 8b f8 d5 3d
       -0.69879526 0.11851439 -0.020693563 0.104477964
000310 c9 8a 00 3e 69 a7 eb bd ee a3 bf 3d 22 1b e8 bb
       0.12552942 -0.1150654 0.09357439 -0.0070833126
000320 d4 4d 36 3e 13 1b 2d 3e 5a d2 40 3c ba f6 d3 3d
       0.17803127 0.16904859 0.011768902 0.10349794
000330 a0 0d e3 3e 95 59 36 3d 05 e9 4e be a3 3b 2d 3e
       0.44346333 0.044519026 -0.20206077 0.16917281
000340 2a 6e d8 be 94 49 1f bb d5 61 79 3d 53 b4 10 3f
       -0.42271549 -0.002430533 0.060884316 0.5652515
000350 00 eb 8e bd cc 28 3b 3e ae 89 59 3e 7c 7f eb bd
       -0.069784164 0.18277282 0.21243927 -0.11498925
000360 d4 ba 98 be 3c 3e a2 3d 6e c6 7f bc 2d 37 a5 be
       -0.2983004 0.079220265 -0.015611274 -0.32268658
000370 b9 f9 91 bb e7 ae ec bc 22 da 68 3e c7 df 0d 3f
       -0.004454818 -0.028891994 0.22739461 0.5541958
000380 10 db ab be d3 d1 d2 bb 38 d1 f9 3e 42 04 90 3d
       -0.3356557 -0.0064337044 0.48792434 0.07032062
000390 fb d7 60 3e 00 22 b1 3e 4a 76 05 3e 80 50 54 3e
       0.2195739 0.34596252 0.13033405 0.20733833
0003a0 b3 88 d3 3d 8e 83 9d bb 3d 5b aa 3b e8 06 af 3e
       0.10328808 -0.0048069423 0.0051988647 0.34184957
0003b0 2e 85 8e be 36 e7 a7 3e b0 27 43 3e 7a e6 b4 3e
       -0.27835983 0.32793587 0.19058108 0.3533209
0003c0 f9 b1 49 be de 69 b5 3b bf f6 3d bd 9c 7b 89 be
       -0.19696797 0.005536302 -0.046377894 -0.2685212
0003d0 10 d6 05 3f a4 ca 1d be db 71 05 bc 7d 50 1d 3d
       0.5227976 -0.15409333 -0.008144821 0.038406838
0003e0 30 c9 c1 3d 2a 8c b9 3b 42 86 f0 3d a7 da a9 bb
       0.094622016 0.005662461 0.11744358 -0.005183536
0003f0 3d 36 fa 3e 10 11 b6 3e ff 5c 49 bd 6f 78 f1 bd
       0.48869506 0.35559893 -0.049160954 -0.11790549

rnn.weight_hh_l0 f4 [16, 16]
000000 94 94 8c be 47 f8 1a 3d be e1 a3 3e fc 2a f3 bd
       -0.27457106 0.037834432 0.32008165 -0.11873433
000010 65 96 21 bf ff 43 da 3e 53 ed 69 3e a6 c9 bf 3e
       -0.6312011 0.42630002 0.22844438 0.37458533
000020 ff aa 59 be c5 bb d3 be b1 92 e9 be ce a6 a8 3d
       -0.21256636 -0.41354194 -0.4561973 0.082349405
000030 e1 44 b0 bd 2f 4f ad 3e 75 29 25 bf ed 20 82 be
       -0.086068876 0.33849475 -0.64516383 -0.25415745
000040 3c 95 34 bf 3d d0 53 bb 65 1d 9d 3e 40 5a 0b bf
       -0.70540214 -0.0032320165 0.3068649 -0.54434586
000050 48 3a 17 3e c7 ee 8d bd b2 24 39 bf 55 e6 e3 bd
       0.14768326 -0.06930309 -0.7232162 -0.11127917
000060 b1 34 eb 3e 2d a2 10 be f0 c2 79 3e 75 32 8b 3e
       0.45938638 -0.14124365 0.24390769 0.27186933
000070 92 41 b5 be d6 da 28 3e ab 67 5a bc 4b 85 a7 3d
       -0.3540159 0.1648973 -0.01333038 0.081797205
000080 e4 79 0a 3e 3d 9b a9 be ac 50 a7 3d df af cd bd
       0.1352306 -0.3312625 0.08169684 -0.100433104
000090 90 75 df 3e 1c 82 f4 3e 69 cc f0 3e 19 cc 19 bf
       0.4364438 0.47755516 0.47030953 -0.60077053
0000a0 3e 2f 21 bd f6 9c 0c bf c9 95 6c 3e ed 2b 1d be
       -0.039351694 -0.54927003 0.23104014 -0.15348788
0000b0 c7 d9 e2 be e9 f9 aa 3e ed ed 6f bc 5d ee a7 3e
       -0.44306776 0.3339379 -0.014644128 0.32799044
0000c0 3b 52 eb 3e 02 88 9b 3e 21 74 0b 3f f9 50 be be
       0.45961174 0.30377203 0.54474074 -0.37171152
0000d0 b2 d5 01 bf 0d 17 76 be ed 32 80 bd 47 d1 a9 be
       -0.507167 -0.2403223 -0.06259713 -0.33167478
0000e0 c4 d1 a9 3d 5b b3 ba be 25 73 43 3e 44 45 c8 be
       0.08291963 -0.36464962 0.19086893 -0.39115345
0000f0 a4 49 d5 3e 5f ae 65 3e 68 c8 e7 3e 0b fe 43 bd
       0.41657746 0.22429799 0.45270085 -0.047849696
000100 01 b6 d2 be a6 a6 d6 be 23 2b a6 bd d5 a8 1c 3e
       -0.41154483 -0.41924018 -0.081136964 0.1529878
000110 19 ed 8a be 75 95 59 3e 46 7f db be 38 52 b6 be
       -0.27134016 0.2124842 -0.4287054 -0.35609603
000120 a9 0f 64 bf b8 d9 c5 bc 90 5a 84 3e 6d 6d df bd
       -0.89086396 -0.024151668 0.25850344 -0.10909543
000130 c0 90 af 3e 1e 51 a7 be 7f d9 46 3d ac 4e aa 3d
       0.34290123 -0.32679075 0.048547264 0.08315787
000140 f9 5a 24 3e b3 98 1f bd 3e 9b 63 3f 37 f7 9d 3e
       0.16050328 -0.038963985 0.88908756 0.30852672
000150 f7 10 e0 3d 8a 2e b6 3e 30 7a d0 3d 67 bf 7a 3b
       0.10940736 0.3558238 0.101795554 0.0038261057
000160 e3 78 c1 3d bc 08 90 3e 3c f7 e1 3e 36 34 26 3f
       0.094468854 0.28131664 0.44133937 0.6492342
000170 3b 38 2b 3e 74 f3 73 be 18 58 11 bd b0 ae b6 be
       0.16720669 -0.23823339 -0.035484403 -0.3568015
000180 1a 53 e6 bd 2e 4f bf bd 53 aa 8c 3e c3 7d 9a bd
       -0.11246319 -0.09341274 0.27473697 -0.075435184
000190 63 e8 bc 3e c8 5f 37 bf 92 ae 29 3e 54 06 42 3d
       0.36896047 -0.71630526 0.165705 0.047369316
0001a0 43 a5 07 be 2f b7 11 be 1f ae a7 3e e6 62 08 bf
       -0.13246636 -0.14230035 0.3275003 -0.5327591
0001b0 3c ea d1 bd 40 f6 4d be 0d 2d 17 bf ed f1 1a bf
       -0.10249755 -0.20113468 -0.5905312 -0.605254
0001c0 b3 5e 92 3e 06 5c 0a be 05 f4 e6 3c 49 17 11 bf
       0.28587875 -0.13511667 0.02819253 -0.56676155
0001d0 31 b0 81 3e e0 d1 fd 3e 5f 2c 2a be 0a c1 1c 3d
       0.25329736 0.49574184 -0.16618489 0.038270034
0001e0 48 c3 f3 3d 54 89 3a 3f c5 ee 98 3b 02 e3 f4 be
       0.11902481 0.72865796 0.0046671354 -0.47829443
0001f0 21 32 bf 3e ab 44 56 3e de b0 f0 be c5 cc 5a 3d
       0.37342933 0.20924632 -0.4700994 0.05341794
000200 3c f0 1f 3f 33 49 4e bf e2 12 ca 3d 4b 21 83 3d
       0.62475944 -0.80580443 0.09866883 0.064028345
000210 9b 77 14 be 6c fe 7f be 53 23 02 bf 55 84 0d be
       -0.14498751 -0.24999398 -0.5083515 -0.13820012
000220 98 8f e7 3d e4 f0 bd bd ca 0d 13 bf f5 f2 61 3e
       0.11306685 -0.09274462 -0.57442915 0.22065337
000230 b9 13 b9 be b9 50 01 be 53 1d 19 be c7 a5 db bd
       -0.3614786 -0.1262845 -0.14952593 -0.10724979
000240 7e 37 e5 bd ef 64 73 be 73 b5 e7 be e6 16 fb 3c
       -0.11192225 -0.23768972 -0.45255622 0.030650567
000250 f1 70 66 3e 51 43 b6 3e 8a f4 e2 bd 40 00 01 be
       0.22504021 0.35598233 -0.110817984 -0.12597752
000260 f8 99 fe 3e 98 ef ff be 2a 3d ab bd fd a4 d5 3c
       0.49726844 -0.49987483 -0.083612755 0.02607965
000270 fd b7 24 3f 89 b5 81 bd 32 45 d6 3d 6a f6 3a bf
       0.64343244 -0.06333453 0.10462417 -0.7303225
000280 bd 90 62 3e cc 50 ef be 45 66 dc bd 3b ce cd be
       0.22125526 -0.4674133 -0.10761694 -0.40196404
000290 8d cc 12 3e 56 ec 17 bc b4 85 0c 3d 73 03 5a 3f
       0.14335842 -0.0092726555 0.034307197 0.85161513
0002a0 51 96 db be af 96 fb bd ff d3 bc 3e 6f bc 27 3e
       -0.4288812 -0.122846 0.3688049 0.16380475
0002b0 d2 1b 28 bc 0c 73 c2 3e c7 3b be 3e 93 81 2d be
       -0.010260539 0.379784 0.37154981 -0.1694396
0002c0 15 aa b2 bc ab b1 50 3e 53 50 a9 bd cf fa e4 be
       -0.021809617 0.20380275 -0.08267274 -0.44722602
0002d0 f3 c2 05 be cb 3f ad 3e 03 b5 30 3e f0 49 68 be
       -0.13062648 0.33837733 0.1725655 -0.22684455
0002e0 b4 b7 52 be 0c 9a 9f 3e 61 44 8c be ab 7b d1 bd
       -0.2057789 0.31172216 -0.2739592 -0.10228666
0002f0 d3 d2 28 bf 25 ba d3 be aa d7 ed 3e f3 a3 32 bf
       -0.6594669 -0.41352955 0.464536 -0.69781417
000300 9c 38 72 be e2 91 dd be 64 a1 8c be 87 30 16 bf
       -0.23654407 -0.43275362 -0.2746688 -0.58667797
000310 f5 c0 bc be 37 f3 d2 be 05 3b 24 3f e2 a0 a5 be
       -0.36865965 -0.41201183 0.64152557 -0.32349306
000320 9c 03 c0 3d af 5d 5e 3e 80 65 c3 3d 50 5d f5 3e
       0.093756884 0.21715425 0.09540844 0.47922754
000330 0f 53 b1 3e eb 42 29 be aa e3 06 be cf 48 19 3e
       0.3463368 -0.16529433 -0.13172784 0.1496918
000340 7d c7 71 be 61 a3 75 be 51 d6 c7 3e 61 db 3f be
       -0.23611255 -0.23988105 0.39030698 -0.1873603
000350 e9 ae 4a 3e e0 ef 35 3e 52 92 53 3e c3 ce d1 3e
       0.19793285 0.17767286 0.20661286 0.4097806
000360 d3 7f 1e 3e 4a 28 87 be 55 39 c5 be f2 da b1 be
       0.15478449 -0.26397926 -0.38520303 -0.34737355
000370 0f 26 2e 3e df ed 45 bf 3f bf 7c 3e 00 e7 fa 3e
       0.17006706 -0.7731609 0.2468233 0.49004364
000380 50 63 eb 3e 45 bb be 3e 9b 40 c2 be 4d ce a5 be
       0.45974207 0.3725225 -0.37939915 -0.32383958
000390 e3 e5 56 be 83 38 5b 3e d1 a7 50 be ce 5a 1c 3e
       -0.20986132 0.21408276 -0.20376517 0.15269014
0003a0 25 72 e1 3d 50 cc e4 be 32 14 04 3f 59 73 3e 3e
       0.110080995 -0.44687128 0.51593316 0.18598689
0003b0 f8 80 31 be 23 ba 25 bf 4f 7c da be d5 b6 64 3e
       -0.17334354 -0.6473715 -0.42672965 0.2233537
0003c0 e6 9e e2 3d 7e b2 ca 3e 2b 81 08 3d dc 37 a8 be
       0.11065464 0.39589304 0.03332631 -0.32855117
0003d0 0b 7b 1a 3f 9c 02 4b be 61 e4 a3 bd e2 e6 66 be
       0.60344 -0.19825214 -0.08002544 -0.22549012
0003e0 2b a0 21 bf 97 eb 38 be af 13 fd be b4 6b 02 3f
       -0.6313502 -0.1805862 -0.4942908 0.5094559
0003f0 a2 d3 b9 3e 04 76 a4 bc fa 6e 8b bd 2b 84 14 bc
       0.36294276 -0.020075805 -0.068082765 -0.009064714

rnn.bias_ih_l0 f4 [16]
000000 a9 2e c9 3c 80 bc 92 bc 44 e8 02 3c 30 37 21 3d
       0.024558382 -0.01791215 0.007989947 0.03935927
000010 cc cb 4f 3c c9 f3 8f 3a d6 24 40 bb 2b 03 ac 3b
       0.012682866 0.0010982688 -0.002931883 0.005249401
000020 42 42 40 bc 97 20 10 bb f3 e5 84 bb 1f 40 19 bc
       -0.011734547 -0.0021992081 -0.0040557324 -0.009353667
000030 40 96 56 3c 60 b2 af 3b dc ab ad 3b 29 8a dc bb
       0.013097346 0.00536184 0.0053000282 -0.006730337

rnn.bias_hh_l0 f4 [16]
000000 a3 2e c9 3c 80 bc 92 bc 44 e8 02 3c 35 37 21 3d
       0.024558371 -0.01791215 0.007989947 0.03935929
000010 d0 cb 4f 3c ff f3 8f 3a d5 24 40 bb 2c 03 ac 3b
       0.01268287 0.0010982751 -0.0029318829 0.0052494016
000020 3d 42 40 bc 92 20 10 bb f1 e5 84 bb 21 40 19 bc
       -0.011734542 -0.002199207 -0.0040557315 -0.009353668
000030 4a 96 56 3c 66 b2 af 3b fa ab ad 3b 36 8a dc bb
       0.013097355 0.005361843 0.005300042 -0.006730343

rnn.weight_ih_l1 f4 [16, 16]
000000 8d ae e5 be 4d 07 87 be 7d bb 12 bf 43 e8 16 bd
       -0.44859734 -0.26372758 -0.57317334 -0.036842596
000010 91 b5 f5 be 37 26 5c be df a8 26 bf 63 cb 05 3f
       -0.47990087 -0.21498953 -0.65101427 0.5226347
000020 9a ec 2e 3e 8f a3 56 bd f3 2c d3 be 87 19 ec 3d
       0.17082444 -0.052402075 -0.4124523 0.115283065
000030 bf 38 ea 3d a8 e1 72 be 67 f9 c1 3c b7 36 88 3e
       0.11436605 -0.23718894 0.023678495 0.26604244
000040 b1 8e c1 be 4d f9 f7 be 4b 78 bb 3d b7 47 1b bc
       -0.37804177 -0.4843239 0.091538034 -0.009477547
000050 8c f8 fe bd 6c 55 49 3f 48 48 34 be 40 0b 17 bf
       -0.1244975 0.7864597 -0.17605698 -0.5900154
000060 ab 27 9e be bb 79 42 be 4a 4c 39 bb c0 3e c6 bd
       -0.3088964 -0.18991749 -0.0028274232 -0.09679937
000070 e4 bd 53 bd 23 2e 80 be 1c 59 0e 3f 69 cc 1c 3e
       -0.051694766 -0.250352 0.5560472 0.15312351
000080 a0 23 25 3e 6e 0c 34 3d ff 33 8f be e8 c3 0f 3e
       0.16126871 0.043957166 -0.27969357 0.14039576
000090 7d 66 0d 3e c4 cb b1 3e 7a 31 8a be 66 be 54 3e
       0.13808627 0.34725773 -0.26990873 0.20775756
0000a0 55 96 64 bf 4b 3d 43 3f 46 a2 ce 3c c9 c4 09 bd
       -0.8929189 0.762654 0.025223862 -0.033634935
0000b0 1d 81 97 3e 37 4f 18 be 0e 1f 95 be 63 6a 8a be
       0.29590693 -0.14873968 -0.29125255 -0.27034292
0000c0 da d2 f8 be e8 9d aa bd 52 2c 7a be 08 ae d1 be
       -0.48598367 -0.083308995 -0.2443097 -0.40953088
0000d0 23 51 19 3f 48 0d 2c 3e bf b6 bc bd 09 d3 03 be
       0.5988943 0.16801941 -0.092145436 -0.12873472
0000e0 34 2e 58 3e 52 95 bf 3d 63 08 79 be 07 63 ca 3d
       0.21111375 0.093546525 -0.24319606 0.09882169
0000f0 91 6b f4 3e 86 ef 52 3f 11 bb 92 bd b3 cf 8d bd
       0.47738317 0.82396734 -0.07164586 -0.06924381
000100 0d 8e 97 be be d2 1e 3f 5b 3e ed be 34 5e 46 bd
       -0.29600564 0.6204032 -0.46336636 -0.048429683
000110 fa 56 ed 3e e7 1a 16 be e4 31 12 3e b8 52 82 3d
       0.4635542 -0.146587 0.14276844 0.063634336
000120 b6 59 7f 3c 6b 64 44 3e 28 e5 72 3e 5b 8e 0a bf
       0.015585354 0.19178931 0.23720229 -0.5412347
000130 25 59 10 be e9 6d 94 be 43 04 3b 3f f7 0e bb 3e
       -0.14096506 -0.28990105 0.7305338 0.36534855
000140 ee e2 cd bd bb ba 2d 3d 55 66 e7 bd 9d c7 d7 be
       -0.10053049 0.04241441 -0.11298815 -0.4214448
000150 41 7a 40 bc aa 21 69 be f1 c3 a0 3c 7c 2e b7 be
       -0.011747898 -0.22766748 0.019624682 -0.35777652
000160 6b 0b 9a bd ef bb a0 3e eb 1e 02 3f 9e ce 87 3f
       -0.07521709 0.31393382 0.5082843 1.060993
000170 6a dc ad 3c 27 1d 67 be d7 57 8f 3d c6 55 9c 3e
       0.021223266 -0.22569714 0.06999176 0.3053419
000180 c9 6c a4 be 2b 68 23 bf c9 0d 9d be d4 31 90 bd
       -0.32114246 -0.6383082 -0.3067458 -0.07040754
000190 bb 75 0f 3e d0 b2 11 3e 0a 73 30 3f cb 06 2d 3f
       0.14009754 0.14228368 0.68925536 0.6758849
0001a0 af 91 23 be 2b 3e 47 bd ff 61 ca 3e b3 2c 31 3d
       -0.15973543 -0.048643272 0.3952789 0.04325552
0001b0 c9 7b e5 be 9a 6e 0a 3d ab da 82 bd 3e cb 23 be
       -0.44821003 0.033796884 -0.06389364 -0.159955
0001c0 96 e5 c0 be f2 3f 48 be 26 e4 9c 3e 1f ea f2 3e
       -0.3767516 -0.19555643 0.30642813 0.47444245
0001d0 f5 42 a9 b9 ae 02 2c be cd 73 b6 be 0d f9 0b be
       -0.0003228408 -0.16797897 -0.35635224 -0.13669224
0001e0 c5 89 3f 3c 87 31 e3 3e 2b 81 de 3e b1 e9 91 be
       0.011690562 0.44373724 0.43457922 -0.28498605
0001f0 85 2f be be 84 11 de 3e a7 dc 95 be c0 62 24 3f
       -0.3714563 0.43372738 -0.29269907 0.6421318
000200 ea 30 bf 3e 94 fe 5d 3e a0 7d b3 3e 2f e4 e9 be
       0.37342006 0.21679145 0.35056782 -0.45681903
000210 f1 81 b1 be ba c1 05 3e 96 85 04 be 14 f2 09 3f
       -0.3466945 0.13062182 -0.12941584 0.53885007
000220 c1 71 d5 be 87 75 af bc 51 e0 12 be 3b 19 c9 3d
       -0.4168835 -0.021418346 -0.14343382 0.098192655
000230 9d 59 54 be d9 43 22 3f 8f c6 03 3f d7 a7 aa 3e
       -0.2073731 0.6338478 0.5147485 0.33331177
000240 d1 f9 e5 3d 23 a5 b0 bd 11 35 dc 3e d3 f9 be 3d
       0.11229289 -0.08625247 0.43009236 0.09324994
000250 43 4d 32 3f f1 5a f4 3d be 1a b8 3d 0f ca a3 3e
       0.6964914 0.11931408 0.08989476 0.31990096
000260 4f 39 cd 3d 40 23 3e 3e 84 5b 28 bf 2b f5 af 3e
       0.10020696 0.18568134 -0.6576464 0.34366736
000270 51 b4 f2 bd d4 09 df be 00 05 86 bd 7c e4 0b 3f
       -0.11850799 -0.43562186 -0.065439224 0.54645514
000280 46 9b f2 3e 61 7d eb be 59 58 fc be 97 e9 08 be
       0.4738409 -0.45994094 -0.49286154 -0.13370357
000290 f4 59 96 bd d1 02 e1 be 9c b7 cd 3e 25 ae d3 be
       -0.07341376 -0.4394746 0.40179145 -0.413438
0002a0 cf 63 c3 be d9 6c d2 bd b2 8e 87 be e8 0b 70 be
       -0.38162085 -0.10274667 -0.26476055 -0.23442042
0002b0 22 2a 67 3e 8e 31 f2 3d 25 78 e3 bd b4 7d 13 3f
       0.22574666 0.11825858 -0.111069 0.5761368
0002c0 8a 39 d6 bd 6a a1 ca bd ed 4c d8 bd 32 33 bb 3e
       -0.104601935 -0.098940685 -0.105615474 0.36562496
0002d0 37 69 a6 3c 0c 3f fe be af 95 0b bd cc 5b 96 be
       0.020313842 -0.49657476 -0.034078296 -0.2936691
0002e0 ad 30 56 be 55 e2 a3 3e 63 c6 10 bf 22 27 97 3e
       -0.20917006 0.32008615 -0.56552714 0.29522043
0002f0 f9 4d 21 bf 6c e5 83 3e 41 93 e0 3e d3 c8 06 bf
       -0.630096 0.25760972 0.43862346 -0.52650183
000300 13 64 42 bc 86 fc de 3e fe 22 dd be 88 33 4f 3f
       -0.01186468 0.43552035 -0.4319076 0.80938005
000310 85 64 fc 3a 6b 5f b2 3e 2a b2 22 3e a5 e2 2a 3d
       0.0019256031 0.34838423 0.15888277 0.04172005
000320 77 b1 81 be 2e cc 02 bf e6 fd e0 bc da 10 04 3f
       -0.25330707 -0.51092803 -0.027464818 0.51588213
000330 cc de af 3d d5 28 b7 3e 06 2b 9b bd 05 5a 90 3e
       0.08587417 0.3577334 -0.075765654 0.2819368
000340 b5 26 54 be b7 2a 72 3e fa 19 82 bd a6 f3 f1 be
       -0.2071789 0.23649107 -0.06352611 -0.47256202
000350 b2 42 ba 3e 3c 4b 38 be b2 2a c4 be a3 21 1d be
       0.3637901 -0.1799745 -0.38313824 -0.15344863
000360 34 18 14 bf 67 0d 20 bf 33 c1 bf 3c 7f bf a8 bd
       -0.5784943 -0.6252045 0.023407554 -0.0823965
000370 30 21 0c bf 2c 13 1e be 08 b5 07 bf 29 ab 72 bc
       -0.5473814 -0.15437001 -0.53010607 -0.014811316
000380 7a 40 26 3f e4 34 cd bc f4 81 12 bf 98 d6 3a be
       0.64942133 -0.025049634 -0.5722954 -0.18245924
000390 79 c8 80 3d 49 0f 0d 3f 37 90 82 be 07 7f 15 be
       0.06288237 0.5510145 -0.25500652 -0.14599238
0003a0 fc c5 12 3f be 41 86 3e 36 98 21 bd fe c0 0d 3d
       0.5733335 0.26222032 -0.0394518 0.03460788
0003b0 2a 68 1c bf 7d 05 fe 3d e8 c0 3e be ec 13 5b 3d
       -0.6109644 0.124033906 -0.18628275 0.053485796
0003c0 30 9c 07 3f d5 0e fc be 00 a6 14 bd 36 27 8c 3e
       0.529727 -0.49230066 -0.036291122 0.27373666
0003d0 cb c0 11 3f a1 80 9b be 4e 2e 17 bf b1 c0 2e 3e
       0.56934804 -0.30371574 -0.5905503 0.17065693
0003e0 a6 21 13 3c 69 f9 a5 be 6d 2d ec 3e bd 5a 27 3e
       0.00898019 -0.32416847 0.46128407 0.16343208
0003f0 5c 40 72 3e 6f af b6 3d 9d 9d d7 3e 2f e1 2a be
       0.23657364 0.0892018 0.42112437 -0.16687463

rnn.weight_hh_l1 f4 [16, 16]
000000 35 6e 71 bd 76 9a 2e 3e d0 bf 1a 3f c9 e6 1b bf
       -0.058942992 0.1705111 0.6044893 -0.60899025
000010 d8 46 a3 3d 19 38 07 3e 85 7d 9f bc 38 98 cd be
       0.07972497 0.13204993 -0.019469032 -0.40155196
000020 4b fc 99 bd ae 75 8c 3e 33 d3 51 be b8 a8 0f 3e
       -0.07518824 0.27433532 -0.20490722 0.14029205
000030 e2 8e 48 be 92 04 05 3f e5 cd cf be 6e dd 20 bf
       -0.19585755 0.519601 -0.40586773 -0.62837875
000040 4f 9c 75 be 54 fe a4 3d 3c 4f 2d 3d 06 e6 52 bf
       -0.23985408 0.08056322 0.042311892 -0.8238224
000050 5b 29 81 3d bb 26 8c be 34 8e 89 3e d8 f1 17 3d
       0.06306716 -0.273733 0.26866305 0.037095875
000060 e5 2b eb 3e 10 bc 4d be da 6e 5d 3d 3f eb b6 be
       0.45931926 -0.20091271 0.054060794 -0.35726354
000070 ce e6 68 3e 01 0b 1c bf 4d 83 81 be b2 76 3e 3e
       0.22744295 -0.6095429 -0.25295487 0.18599966
000080 61 db 53 be 8d 44 97 3e c3 d6 30 be 52 62 82 3e
       -0.20689155 0.29544488 -0.17269425 0.25465637
000090 78 07 cc 3e db dc e7 3d 44 ee 42 bf 76 29 17 bd
       0.39849448 0.11321422 -0.76144814 -0.036904775
0000a0 4b 8e 97 3e ab 93 51 be f3 fe c8 3c 8f 75 83 3c
       0.29600748 -0.20466487 0.024535632 0.016047267
0000b0 9c 48 09 bf ea ea 19 bf 8e c1 ce be 10 6f 7a be
       -0.5362642 -0.60124075 -0.40382046 -0.2445643
0000c0 db 06 a7 3e e6 ab a2 3d fd 7c c6 be f2 c0 95 be
       0.32622418 0.07942943 -0.38767233 -0.29248768
0000d0 9b 27 76 3e 3f b3 37 3e ee f7 23 3e 82 d3 6c be
       0.24038546 0.1793947 0.16012546 -0.23127559
0000e0 b1 39 8d 3e 74 54 9b bc 85 36 6e 3f 29 25 ee bb
       0.27583078 -0.018961169 0.9305194 -0.0072676134
0000f0 b1 9b 11 bf 36 99 d7 3e 59 f7 84 3e b2 33 88 3e
       -0.5687819 0.42109078 0.2596996 0.2660194
000100 0d 0d f4 3d b2 a9 c1 bd 9d 51 8d bb e2 38 74 bd
       0.11916552 -0.09456195 -0.0043127076 -0.05962456
000110 c8 d5 4f 3f b6 1f 05 bf e5 18 06 3d 22 85 15 3f
       0.8118558 -0.5200151 0.032738585 0.5840627
000120 c2 be ed 3d a7 87 fd 3e 53 03 1b be af ae e3 3e
       0.1160865 0.49517557 -0.15137987 0.4446921
000130 44 cc 04 3d f2 72 3b 3e 3c b7 65 be 59 e1 22 3e
       0.032421365 0.18305567 -0.2243318 0.15906276
000140 a1 8e 30 be ba 67 16 3f 34 cc fc bc 95 18 cc 3d
       -0.17241909 0.58752024 -0.03085909 0.09965626
000150 b7 be 01 bf d5 f8 15 bf ae e4 92 3e a7 54 54 3e
       -0.5068163 -0.5858281 0.28690094 0.20735417
000160 4f f3 e1 3e af 1a 21 be 6c be 83 be e9 71 50 3e
       0.44130942 -0.15732835 -0.25731218 0.20355953
000170 10 1d 0f bf e5 0d 09 3e 35 93 d3 3e e4 6f 9f be
       -0.5590372 0.13384207 0.41323248 -0.31140053
000180 b2 ac c0 be b7 78 b6 3e 9c 63 b8 be c5 de f0 3d
       -0.37631756 0.35638973 -0.36013496 0.1176124
000190 bb 55 28 be ad f6 29 3c 4e db f3 3d 1f 08 e0 be
       -0.16438954 0.0103737535 0.119070634 -0.43756196
0001a0 ba eb a7 bd a4 ea 51 3f f5 ab 83 be b2 9a c5 bd
       -0.08199258 0.8199866 -0.2571713 -0.096486464
0001b0 fe 40 91 be ae 90 e2 bd 4c 7e a5 be 4b 7c 16 3f
       -0.28369898 -0.11062752 -0.3232292 0.58783406
0001c0 3f 00 aa be 2d 3f a9 be ce 3e f8 be 91 e4 b6 ba
       -0.33203313 -0.33056012 -0.48485416 -0.0013953616
0001d0 69 e9 26 bb dd 8b b4 3e 7a 87 53 3e 8b 92 0c 3f
       -0.0025468713 0.35262957 0.20657149 0.54911107
0001e0 a9 ce 61 bc 5a 79 d7 3d fa 41 58 be bb de 44 bf
       -0.013782182 0.10521193 -0.21118918 -0.7690236
0001f0 c3 df a9 be c6 3d 92 3e 88 48 03 be d1 47 ca be
       -0.3317853 0.28562754 -0.12820637 -0.39507917
000200 d2 1a 48 3f 1c f6 0c 3f a3 21 94 3e 8a d2 4a 3e
       0.78165925 0.55063033 0.28931913 0.19806877
000210 9d a8 19 3e 47 da ad bd b8 de a0 3e 0f be 51 3e
       0.15005727 -0.08488899 0.3141992 0.20482658
000220 70 b4 d3 be c4 b8 26 3e c7 5e 64 3c fe 7a 13 bf
       -0.413486 0.1628142 0.013938612 -0.57609546
000230 39 d4 32 be e4 83 a4 be ac 79 8a bc 9b 50 ea bd
       -0.17463769 -0.32131875 -0.01690372 -0.114411555
000240 02 91 ae bd c7 44 15 3e 4d 63 26 3f 42 93 c8 bd
       -0.08523752 0.14577018 0.6499527 -0.09793712
000250 e3 53 94 be 78 a4 48 3e 7a b2 eb be 8e 35 de 3e
       -0.2897025 0.1959399 -0.46034604 0.43400234
000260 d5 c9 f4 3d e5 fa 4d be d4 3f ab bd 27 b2 66 be
       0.11952559 -0.2011524 -0.083617836 -0.22528897
000270 30 0a 80 be be 04 bd 3e e4 c8 52 3c 0f 66 48 3f
       -0.25007772 0.3691768 0.012865279 0.7828073
000280 fb 16 84 bd 5c d7 17 3f 27 e4 4c be 7e 0b b6 3e
       -0.06449696 0.5931299 -0.20008908 0.35555643
000290 9d 1a 89 bd 63 d3 e6 bd 9e 20 22 bd f6 98 ea 3d
       -0.06694529 -0.112707876 -0.039581887 0.11454956
0002a0 78 5e 99 3e aa f8 1c be c1 8e b8 3e 32 5d 31 be
       0.29954886 -0.15329233 0.36046413 -0.17320707
0002b0 74 60 1a 3f 2c cd 06 3f dc c3 1c bf 61 c6 c9 bd
       0.60303426 0.5265682 -0.6123636 -0.09852291
0002c0 3d 8c 14 bf 00 17 9d 3e 6b 55 87 3e db f0 84 3e
       -0.58026487 0.3068161 0.26432356 0.25965008
0002d0 22 1f 44 3f a5 a1 b7 3c 13 59 8f 3e af bf ab be
       0.76610005 0.022415945 0.27997646 -0.3354468
0002e0 36 9f 02 be 7a c0 6c be dd da f8 bd 18 ad 98 be
       -0.12756047 -0.23120299 -0.1215112 -0.2981956
0002f0 a0 f7 fc 3d 07 bd 4a 3e 45 84 12 3f 38 c3 b7 3d
       0.12351918 0.1979867 0.5723308 0.08972782
000300 e5 60 c7 be bc 9a d8 3e 06 12 99 3d 1a e9 1c be
       -0.38941112 0.42305553 0.07474141 -0.15323296
000310 e2 ee 89 bd 14 e9 13 3f a2 01 ee 3e d4 50 16 3f
       -0.067350164 0.57777524 0.4648562 0.58717084
000320 79 64 e6 be 2d 97 ac bd 6e fe 93 3e 6d 47 2b 3f
       -0.4499853 -0.08427272 0.28905052 0.6690586
000330 c1 7a 15 bd d1 54 86 be 12 7f 00 be 53 57 e7 bc
       -0.03649402 -0.26236585 -0.12548473 -0.028239882
000340 e6 48 9f be ba ab 3b be 48 05 29 3d 7e 86 45 bd
       -0.31110305 -0.18327227 0.041264802 -0.048223965
000350 f2 11 d2 bd fc b0 4e bf 86 ee 7a bd fc 7c 85 bd
       -0.10257329 -0.80738807 -0.06126263 -0.065179795
000360 85 36 62 bf 59 ea ac be 3d 28 a1 3e f9 64 83 bd
       -0.8836444 -0.33772543 0.31476012 -0.064157434
000370 29 e5 8f be 79 53 8e 3d 10 7e c9 be 79 71 ef 3c
       -0.28104523 0.06949515 -0.3935399 0.029228913
000380 12 4b 97 be f6 91 3e 3e 77 f9 a0 3d dd c5 37 be
       -0.29549462 0.18610367 0.07860082 -0.17946573
000390 d9 e1 78 be bf e9 0b be f0 f1 05 bf 40 63 57 3e
       -0.24304904 -0.13663386 -0.5232229 0.21033955
0003a0 32 6c 23 be d0 c8 27 3f 0b e6 f3 3e f4 9a 2f be
       -0.15959242 0.6554079 0.47636446 -0.17148954
0003b0 36 11 ae 3e e6 07 25 be ec 35 1d 3f 17 09 b8 be
       0.33997506 -0.16116294 0.61410403 -0.35944435
0003c0 04 a9 84 be bd 21 e5 be 40 af 32 3f 7e cc 0c 3f
       -0.259102 -0.44752303 0.6979866 0.5499953
0003d0 43 8c d6 bd 1e 42 c2 bd d8 9d cc 3e 78 8d 6c 3c
       -0.104759715 -0.09485267 0.39964175 0.014438026
0003e0 94 9e c3 3e a7 15 bc 3e 22 eb 06 3f fd da 4f bd
       0.38206923 0.3673527 0.52702534 -0.050745953
0003f0 e2 8a 59 be a9 ca 78 be cb d0 80 be af 2c fd bd
       -0.21244386 -0.24296059 -0.25159296 -0.12362038

rnn.bias_ih_l1 f4 [16]
000000 c3 75 c8 3b d7 4b a4 3c 68 4f 13 3b 15 9b 9a bb
       0.006117554 0.020055695 0.002247775 -0.0047181943
000010 31 1e 04 3c 8b 7a 02 bd b0 72 00 3c bc 1d 24 3b
       0.008063839 -0.031855147 0.007839844 0.0025042137
000020 c8 d5 0d 3c ea 1a b5 bb be 8d ba bb 67 d0 a0 3b
       0.008656926 -0.00552689 -0.0056931665 0.004907656
000030 53 28 02 3b f2 e1 5a 3b 18 ed f5 bb af 3b f4 3b
       0.001986046 0.0033398834 -0.0075050704 0.007453404

rnn.bias_hh_l1 f4 [16]
000000 c8 75 c8 3b da 4b a4 3c 55 4f 13 3b 06 9b 9a bb
       0.0061175562 0.0200557 0.0022477705 -0.0047181873
000010 2e 1e 04 3c 8d 7a 02 bd ae 72 00 3c cd 1d 24 3b
       0.008063836 -0.031855155 0.007839842 0.0025042177
000020 c0 d5 0d 3c fc 1a b5 bb b6 8d ba bb 63 d0 a0 3b
       0.008656919 -0.0055268984 -0.005693163 0.004907654
000030 4e 28 02 3b f6 e1 5a 3b 14 ed f5 bb bb 3b f4 3b
       0.001986045 0.0033398843 -0.0075050686 0.0074534095

rnn.weight_ih_l2 f4 [16, 16]
000000 63 91 dd 3b 94 84 9c 3e 5b ef cf 3e 11 d7 eb be
       0.006761716 0.305699 0.406123 -0.4606252
000010 34 0e f3 be 41 85 e1 3e e8 15 54 3d 11 54 6e 3e
       -0.47471774 0.44046977 0.051778704 0.23274256
000020 b8 9c 6d bd 3d 5c e0 3e 5b 9b f8 3d a6 0e ca bd
       -0.058010787 0.43820372 0.12139007 -0.09866075
000030 47 e9 6f be d7 9c c6 be 7a ee 4c bf be 78 86 3d
       -0.23428832 -0.38791534 -0.80051386 0.065659985
000040 12 51 99 be c7 08 2d bd 77 ad f8 3d 7e cc 78 3e
       -0.29944664 -0.0422447 0.12142461 0.24296758
000050 fa 4f a4 3e 80 2f 16 3f 06 55 4f bf 14 ef 97 3e
       0.32092267 0.5866623 -0.8098911 0.2967459
000060 94 9c 31 be 94 87 bf 3e 37 e3 eb be 9c 1f 5f 3e
       -0.17344886 0.37408125 -0.4607179 0.21789402
000070 1e 1d 6f be b4 d4 13 3e 52 a7 4a 3e a7 b6 9d be
       -0.23350951 0.14436609 0.1979039 -0.30803415
000080 39 1e 17 be b7 f9 95 3e c3 74 48 3e 91 c6 15 3e
       -0.14757623 0.2929208 0.19575791 0.14626528
000090 80 e6 2e 3f 28 37 ec 3e 25 0d b2 3e 3f 86 0e be
       0.68320465 0.4613583 0.34775653 -0.13918398
0000a0 e4 31 3f 3d ee ea 3d bf 36 60 b1 be 82 96 39 bd
       0.04667844 -0.741866 -0.34643716 -0.04530955
0000b0 ad 62 4a 3e 69 ed e5 be 3d 67 90 be fb 8a c2 bd
       0.19764204 -0.44907692 -0.28203765 -0.09499165
0000c0 98 5f 55 3e a4 90 ab bd bf 72 bc 3e 18 ab 10 3e
       0.20837247 -0.083771974 0.36806294 0.14127767
0000d0 a6 16 e3 3e 3e cc 0b be d6 b5 eb be 73 09 62 be
       0.44353217 -0.13652131 -0.46037167 -0.22073917
0000e0 9e 00 55 be 06 0e 8e be 4d dd fc 3e ea f9 a8 3d
       -0.20801017 -0.27745074 0.4938759 0.08250792
0000f0 2b cc 18 bf 7a 5b bb bd fd 53 8d bd 79 da 2a 3f
       -0.59686536 -0.09148307 -0.06900785 0.6673961
000100 bf 6e d6 3e 05 09 8f be c2 34 36 bd 1e d0 44 bf
       0.41881368 -0.2793657 -0.044483908 -0.7688006
000110 46 9c 62 bc c5 5b c2 3e fb e9 8d 3d 9c e5 fd be
       -0.013831204 0.3796064 0.06929394 -0.4958924
000120 20 98 71 3d c2 b7 44 bd 4e c9 0a bf 86 a3 86 be
       0.05898297 -0.048026808 -0.54213417 -0.26296633
000130 f5 74 ae be c1 99 80 3e eb 87 a2 3e 12 18 20 3e
       -0.34073606 0.25117305 0.31744322 0.15634182
000140 78 de ed bd e3 c6 74 be 89 c4 3c bc 6d b4 99 3e
       -0.11614698 -0.23903994 -0.011521467 0.30020466
000150 db ce 32 bf 2c a1 8e 3d 04 52 29 bf eb ac 0b bd
       -0.69846886 0.06964335 -0.6614077 -0.034100454
000160 14 6b 5c 3e b7 94 13 bf a3 c6 3c be f0 fe 09 bf
       0.21525222 -0.57648796 -0.18435149 -0.5390463
000170 08 c2 a2 3e 6b 0f 84 bc 5f fb 8f be ce 64 38 3e
       0.3178866 -0.016120633 -0.28121468 0.18007204
000180 ee a9 6f be f4 14 eb be 9f a1 0c 3e 3c e8 fa 3e
       -0.23404667 -0.45914423 0.13733529 0.49005306
000190 39 b3 c6 bd 0f 72 b1 3e c1 16 0f 3f 6e a0 d1 3e
       -0.09702153 0.34657332 0.55894095 0.4094271
0001a0 76 39 ba 3d bf 44 a3 3e 6f 67 05 be 71 4a 8c be
       0.09092991 0.31888387 -0.13027738 -0.27400544
0001b0 8a 77 e2 bc 1c d5 a0 bd a4 62 98 3e 92 7a 46 3f
       -0.027644891 -0.078531474 0.29762757 0.7753078
0001c0 86 50 68 bc c0 7a 28 bf 69 8d 11 bf 3e 7d 0d be
       -0.0141793545 -0.658123 -0.568564 -0.13817307
0001d0 ba ad f3 bd 47 11 e2 3d bc 71 95 3c 63 d2 ce bc
       -0.1189837 0.11038452 0.01824271 -0.025246805
0001e0 ea 1a 06 bf c1 b0 0e bd 70 a3 18 be 30 6a 2e 3f
       -0.5238482 -0.034836534 -0.14906096 0.6813078
0001f0 d0 e7 8d 3e 17 5b 6d bd d8 94 fd be 10 7a 7d 3e
       0.2771592 -0.0579482 -0.4952762 0.24753594
000200 4f 50 05 3f 9d 78 b1 3b 22 f5 27 3c 09 14 3e 3f
       0.52075666 0.0054159896 0.010251315 0.7424932
000210 06 a7 e7 bd 25 ac 8b be 31 5c 80 3e 45 1f 8c be
       -0.11311154 -0.27279773 0.25070336 -0.27367607
000220 04 79 fe bd 76 ac 21 3e 91 18 18 bf 76 34 47 bc
       -0.12425426 0.15788445 -0.59412485 -0.012158504
000230 93 85 e3 be 8d 10 e9 3d a4 7a df be cc 53 82 be
       -0.44437847 0.1138011 -0.43648255 -0.25454557
000240 c0 2b 33 3f 13 72 25 be 31 3f f7 3e 9a 0c 06 3d
       0.6998863 -0.16156797 0.482904 0.03272686
000250 14 a0 c5 be 33 ad 98 bb 32 17 93 bd be b7 a8 3e
       -0.38598692 -0.004659319 -0.071821585 0.32952684
000260 32 37 ca 3e ff c7 5f be 9b 34 20 be 85 24 2e 3f
       0.39495236 -0.21853636 -0.15645067 0.68024474
000270 98 35 60 3e cd 85 c5 be c2 4f b7 3e ea 86 00 3d
       0.21895444 -0.38578644 0.35803038 0.031378664
000280 b2 35 a9 be 89 f9 18 3f c0 5e 93 3d ad f4 19 be
       -0.3304878 0.5975576 0.071958065 -0.15034743
000290 db 3a ed be 0c 3a 70 be 4d a8 b8 3d 23 30 60 3e
       -0.46333966 -0.23459643 0.09016476 0.21893363
0002a0 b3 8b 2c bf af 45 e7 be ac 15 d9 be 0c e1 2b 3e
       -0.67400664 -0.45170352 -0.42399347 0.16785067
0002b0 7c e0 a9 be 87 11 fb 3d 60 b4 99 3e 3a 1a 96 3e
       -0.3317908 0.122592025 0.30020428 0.29316884
0002c0 3e 04 27 bf 80 78 7f bd 93 4c 4f be 1b 1b 8a 3c
       -0.6524085 -0.062370777 -0.20244054 0.016858628
0002d0 71 bd 2b be 22 ad 2a be 55 7f 18 bc d0 e7 ab be
       -0.16771485 -0.16667607 -0.009307702 -0.33575296
0002e0 ad c0 67 3f 75 75 b0 bb 98 d5 44 be b1 c1 0a 3f
       0.90528375 -0.0053850957 -0.19222105 0.542018
0002f0 26 4c f2 be 16 c5 01 be b0 15 8c bd b6 33 d9 3d
       -0.47323722 -0.12672839 -0.06840074 0.10605566
000300 9e 01 aa 3e 2c db 20 3f 97 9d be bd 19 12 11 3c
       0.3320436 0.6283443 -0.093074016 0.0088544125
000310 3d c9 cb 3d 0e 81 bb 3e bf e8 91 bc 25 1b 3e 3e
       0.099504925 0.36621898 -0.017811177 0.18565042
000320 d7 04 72 3e e2 5a 27 bd 20 e4 d1 bc f8 41 81 3e
       0.23634659 -0.040858157 -0.025621474 0.25245643
000330 6a ed c5 3e c8 93 6c 3f 50 11 95 be 4b d2 0d 3f
       0.38657695 0.92412996 -0.2911477 0.55399007
000340 89 bc 12 3e 08 92 41 be 5a 45 e9 be 44 e9 91 3c
       0.14329733 -0.18903363 -0.45560724 0.017811425
000350 83 ca ba 3b 93 4f 9a 3e 6a 45 23 3e 48 7f 28 3f
       0.005700411 0.30138835 0.15944448 0.65819216
000360 f8 f2 e3 3d c0 d4 10 bf 7d f2 c0 3e af 81 83 bd
       0.11130327 -0.5657463 0.37685004 -0.064212196
000370 62 da 31 bf 3a cb 45 3e 84 87 2f bd 22 f2 d6 be
       -0.6947385 0.19315806 -0.042853847 -0.41981608
000380 f5 b1 0f be c9 35 c3 be e1 58 94 3e c3 6b ce be
       -0.14032729 -0.38126972 0.2897406 -0.4031659
000390 fb ee ce 3e 03 b7 3f bf d5 bd 92 bc 7c 8d 14 3f
       0.40416703 -0.7488863 -0.017912785 0.5802839
0003a0 f1 2d 76 3e 40 77 8b bd 91 3b d7 be 7d 78 5d be
       0.24040963 -0.068098545 -0.42037633 -0.21627994
0003b0 ac f7 ed bc da 51 6f 3e d9 90 c6 be 5e 2a ba bc
       -0.029048763 0.23371068 -0.38782385 -0.02272528
0003c0 61 f9 80 be 50 f9 aa be 5d 32 5e 3f 7e e3 18 3d
       -0.2519026 -0.33393335 0.867956 0.03732633
0003d0 01 48 4f be 39 c0 6c 3e c8 48 83 3e 01 98 a8 be
       -0.20242311 0.23120202 0.25641465 -0.3292847
0003e0 39 a2 46 be 45 a6 7c be 05 8f 8f 3e 79 f3 5b 3e
       -0.1939782 -0.24672802 0.28038803 0.21479596
0003f0 cd c7 f7 3d d7 70 36 3f 4e 66 0b be 3b b0 8f be
       0.12098656 0.7126593 -0.13613245 -0.2806414

rnn.weight_hh_l2 f4 [16, 16]
000000 18 82 37 3d 4b c4 ae be 4b fc ba be 8c 57 23 3f
       0.0448018 -0.34134135 -0.3652061 0.6380546
000010 ce 64 a5 3d 5c bf dc 3e 49 62 97 3e eb a6 c8 bd
       0.080758676 0.43114746 0.29567173 -0.09797462
000020 53 38 bd bd e6 ee 18 3f 8d ba 0d bf 29 92 25 bd
       -0.092392586 0.5973953 -0.5536278 -0.040422592
000030 91 b2 3e bd eb c6 1f 3f 8c 30 87 3d f6 6f 57 bd
       -0.046557013 0.624129 0.066010565 -0.05259701
000040 1e 66 e3 3d 3d aa 1e 3f d3 f5 00 3e d5 89 2a 3d
       0.11103462 0.61978513 0.12593774 0.041635353
000050 37 94 a7 3e 4b ba a7 be 68 f9 df be b6 f2 72 be
       0.32730266 -0.32759318 -0.4374497 -0.237254
000060 4a 54 46 bf 0d 90 99 3e f8 99 cb be 7a 40 a2 3e
       -0.77472365 0.29992715 -0.39765906 0.31689817
000070 86 6e a3 3e 3c 58 e2 bc 8b 61 14 be 24 71 ce 3d
       0.3192026 -0.027629964 -0.14490335 0.100801736
000080 ee 10 eb 3d f5 08 95 3e 34 cd fe bd ae 33 35 bf
       0.114778385 0.29108396 -0.12441483 -0.7078198
000090 53 05 72 be 69 0a 54 3f 54 00 a9 bd 8a 9b e0 3b
       -0.23634844 0.82828385 -0.08252016 0.006854479
0000a0 58 f1 4c be 65 9e 84 3e 78 4a 6f 3e aa 52 de bb
       -0.2001394 0.25902095 0.23368251 -0.0067847567
0000b0 68 f7 25 3e d1 45 a0 3e ed 17 04 3f be a6 04 3e
       0.16207659 0.31303266 0.5159901 0.12954232
0000c0 65 59 2c 3f 7e 98 2c 3d 85 80 d0 be d0 04 de be
       0.67323905 0.042137615 -0.40723053 -0.43363047
0000d0 7a cf c4 3d ea 97 80 be 8b bd 6c bd c5 c7 a0 3d
       0.096098855 -0.251159 -0.05779795 0.07850603
0000e0 f8 d4 93 3c 79 b2 16 3e 4e 75 79 3c dc 18 14 bd
       0.018045887 0.1471652 0.0152257215 -0.03615652
0000f0 1a dd 4c bf f4 8a a5 3e 32 29 12 bf 4a 51 3f 3e
       -0.80024874 0.32332575 -0.5709411 0.18683353
000100 e5 71 16 3f 1c 86 17 bc ad 2c 98 3e d1 16 f8 bc
       0.5876754 -0.009248283 0.29721585 -0.030284317
000110 69 66 c0 bd 18 ad cf 3d 07 b5 ba be 63 90 26 bf
       -0.09394533 0.10140437 -0.36466238 -0.65064067
000120 10 35 f1 3e d7 c0 8f be 32 c8 03 bf 97 b1 31 be
       0.47110796 -0.28076813 -0.5147735 -0.17352901
000130 f5 89 27 be 63 0e 12 be c6 96 76 3e dd 9c ee be
       -0.1636122 -0.142633 0.24080953 -0.46604052
000140 12 64 95 3d 9c b9 e6 be b0 9e 49 3e a9 a4 22 3e
       0.072944775 -0.45063484 0.1968944 0.15883125
000150 2f 4f cb 3d 67 12 f8 bd 15 e7 30 be fc f6 c2 be
       0.099272124 -0.12112885 -0.17275651 -0.3807906
000160 24 e3 a8 be 06 42 19 bf bc 72 b3 3e 1d 84 21 3f
       -0.32985795 -0.5986637 0.35048473 0.63092214
000170 b7 1d 5e be 6e 9c 1f 3f f3 37 b3 3e f9 c6 1b 3e
       -0.21691023 0.6234807 0.35003623 0.15212621
000180 80 60 4d be 56 31 96 3e 63 c6 01 3e d3 8d 03 3e
       -0.20056343 0.29334515 0.12673335 0.1284707
000190 61 65 82 be bf 7f 3a 3f b0 49 51 3d 55 46 99 be
       -0.2546797 0.72851175 0.051095665 -0.29936472
0001a0 13 d1 e4 3d a8 67 81 be 64 58 a8 bd af d9 eb 3e
       0.1117269 -0.25274396 -0.08219984 0.46064517
0001b0 c2 32 05 be 72 b6 e2 bd 16 86 55 bf b2 73 8c 3e
       -0.13007644 -0.11069955 -0.83407724 0.2743202
0001c0 1f 7c 31 3e 05 aa 29 bf 46 39 07 3f 45 4c c3 be
       0.17332505 -0.66275054 0.5282177 -0.38144127
0001d0 05 47 a6 be 8e 72 2d 3d d0 99 02 3e dd 6b 1f bd
       -0.3247606 0.042345576 0.12753987 -0.038921226
0001e0 a5 5c 19 bf 86 58 9c bd 6e 0c b7 be 80 dc ee be
       -0.5990699 -0.07634072 -0.3575167 -0.46652603
0001f0 fe 4a 9b 3e 99 01 33 bc 1e 87 ba be 1f a8 83 3e
       0.30330652 -0.010925674 -0.3643121 0.25714204
000200 45 68 aa be aa bd b5 be 61 07 19 3d 04 25 cd bd
       -0.33282676 -0.35496265 0.037360553 -0.10016826
000210 e1 b9 4a 3d 55 39 19 3e 71 b4 45 bf 68 25 a1 3e
       0.049493674 0.14963277 -0.77228457 0.3147385
000220 df 97 52 3e 53 96 b6 3e c6 13 c6 be 95 7a 24 3e
       0.20565747 0.35661563 -0.3868696 0.16062386
000230 88 2f b5 be ef 33 c7 be 02 5b a8 3e 69 b7 05 3f
       -0.35387826 -0.3890681 0.32881933 0.52232987
000240 89 7b 93 3d 91 8c 25 be 56 67 64 be 6e 38 d4 bd
       0.07201297 -0.16166903 -0.22305045 -0.103623256
000250 d5 1a 87 3f a8 00 db 3e d1 21 25 3e 18 78 80 bd
       1.0555063 0.42773938 0.16126181 -0.06272906
000260 8b 2a 8c be a9 f7 c2 be 8c f7 36 bd 25 f5 7e be
       -0.27376208 -0.38079575 -0.044669673 -0.24898203
000270 68 c2 ea bc 0c 0e de be c3 8d d9 3b 93 30 22 3d
       -0.028657153 -0.43370092 0.0066392138 0.039597105
000280 95 65 d9 be ff 95 c0 be eb 2c 84 3e 8d 4f de be
       -0.42460313 -0.37614438 0.2581552 -0.43420067
000290 30 74 df 3e 23 37 9e 3d 2c bc a7 be b2 a3 33 be
       0.43643332 0.0772536 -0.3276075 -0.17542914
0002a0 34 87 0e 3e f2 87 dd 3e 9d ea 83 3e f9 9f 3b 3e
       0.13918763 0.4326778 0.25764933 0.18322743
0002b0 c3 94 aa 3d d0 1a af 3e 51 d6 cd be 19 1f 3a bf
       0.08329155 0.34200144 -0.40202573 -0.727037
0002c0 93 54 92 bd be a2 72 3e ae 9a 2f 3f 91 f0 45 be
       -0.071450375 0.23694894 0.685954 -0.1933005
0002d0 93 71 dd 3d 7b 44 dc bd 12 8f 33 3f 18 98 b2 3e
       0.10812678 -0.10755249 0.7014018 0.34881663
0002e0 06 79 03 3d 89 ee 00 3e af 84 dc be 94 6c cb 3e
       0.03209784 0.12590994 -0.4306998 0.39731276
0002f0 37 e6 de be fb 1c 4d bd 2e 6e 8a 3e 1a 14 48 be
       -0.43535015 -0.050076466 0.27037185 -0.19538918
000300 da 17 9f 3e 17 7a 60 be 57 9a a5 be 00 fb c8 3c
       0.31072885 -0.21921574 -0.32344314 0.024533749
000310 e0 0e b9 be a3 d8 70 3e 6d de 18 be e8 87 11 3f
       -0.3614416 0.2352014 -0.14928599 0.56848
000320 74 65 e7 be b0 5c 61 be d7 16 72 bd a9 15 ec 3e
       -0.4519459 -0.22008014 -0.059103813 0.46110275
000330 a1 0d 60 be 42 8d 84 be 58 66 dd ba 7b e6 34 bf
       -0.21880199 -0.2588902 -0.0016891463 -0.70664185
000340 f4 77 0e bf ce 8c b6 3e ab 41 85 3e 23 ca 73 3e
       -0.55651784 0.356543 0.26026663 0.23807578
000350 74 0d e1 bd 91 44 b7 3d a6 39 76 be 89 7a c4 3c
       -0.10988894 0.08948625 -0.24045429 0.02398421
000360 54 e9 c7 be 93 b1 58 be 96 f2 70 3d d8 32 3a bf
       -0.39045203 -0.21161489 0.058825098 -0.7273383
000370 a7 8e 39 bf 62 7c 6f 3e 13 c4 95 3d c4 a7 5b be
       -0.72483295 0.23387292 0.07312789 -0.21450716
000380 cf ad b7 3e b6 d0 39 3e 95 f0 fc 3e e1 96 a0 3e
       0.35874793 0.18146023 0.494023 0.3136511
000390 84 90 6f 3e 47 31 47 3e 52 2a cd be 18 a1 4d 3f
       0.23394972 0.19452392 -0.4007135 0.80323935
0003a0 fd 29 a4 3e 65 dd 1f be 57 e4 a1 3d d9 7b 2f be
       0.32063285 -0.15611799 0.079048805 -0.17137088
0003b0 67 62 96 3e 5e 56 d6 3e bb fe 2a be c1 f2 29 3d
       0.2937195 0.41862768 -0.16698734 0.041491274
0003c0 55 d5 c9 be 5f 1a 05 3e 9b ba d1 be cf 9c ef be
       -0.39420572 0.12998341 -0.4096268 -0.46799323
0003d0 ca 08 25 3d ce 16 3d be 14 1b dd bc 5f df 50 3e
       0.040291585 -0.1846573 -0.02699045 0.2039771
0003e0 5c 51 57 3e f6 1d 11 bf d1 6e 2d bf 7b c0 16 3d
       0.2102713 -0.5668634 -0.6774722 0.036804657
0003f0 36 b2 65 3e 6c 4d 06 3f 26 2b ef 3a 73 74 ce bc
       0.22431263 0.52461886 0.0018247112 -0.025202012

rnn.bias_ih_l2 f4 [16]
000000 eb 68 98 bb 12 02 43 bc 10 92 5d ba 1d df a8 bc
       -0.004651179 -0.011902349 -0.0008452246 -0.020614201
000010 0e cb 03 3c 29 39 fc ba 79 36 bd bc 78 29 fb bc
       0.0080440175 -0.0019243109 -0.023097264 -0.030659422
000020 6c 00 a7 3c ce 28 51 3b 82 a6 59 3c 02 3b 50 bc
       0.020385943 0.003191519 0.013284327 -0.012709381
000030 2a 2b 1c 3c d1 f5 90 3c e9 fc 76 3c 56 f5 c8 3b
       0.0095317755 0.01769534 0.015074947 0.006132762

rnn.bias_hh_l2 f4 [16]
000000 f2 68 98 bb 12 02 43 bc 0a 92 5d ba 22 df a8 bc
       -0.0046511823 -0.011902349 -0.00084522425 -0.02061421
000010 0a cb 03 3c 3d 39 fc ba 87 36 bd bc 6b 29 fb bc
       0.008044014 -0.0019243133 -0.02309729 -0.030659398
000020 6b 00 a7 3c d7 28 51 3b 76 a6 59 3c 05 3b 50 bc
       0.020385941 0.0031915212 0.013284316 -0.012709384
000030 2a 2b 1c 3c d3 f5 90 3c ec fc 76 3c 5d f5 c8 3b
       0.0095317755 0.017695343 0.01507495 0.006132765

norm.weight f4 [16]
000000 ab 7c 81 3f 5d 64 8e 3f ff d4 8b 3f 48 0e 8b 3f
       1.0116171 1.1124378 1.0924376 1.0863733
000010 72 a3 89 3f ee 6e 8e 3f 88 3e 8f 3f ce 9b 82 3f
       1.0753005 1.1127603 1.1190958 1.0203798
000020 97 12 77 3f d8 0c 88 3f 45 ef 90 3f 4d da 89 3f
       0.9651274 1.062892 1.1323019 1.0769745
000030 10 92 89 3f ac 9c 8a 3f cd 80 6f 3f d7 11 88 3f
       1.07477 1.0829062 0.9355591 1.0630444

norm.bias f4 [16]
000000 41 26 a6 bd ae c6 b6 bd 25 13 be 3d 56 66 a6 3d
       -0.08112765 -0.08924614 0.09280995 0.08124988
000010 b6 9c bc 3d 44 ec ba 3d bd 3d b1 bd 9f 86 9f 3d
       0.09209578 0.09127095 -0.08654354 0.07789349
000020 41 93 59 3d 08 12 b3 bd 0a ea b9 3d 7f bf b9 bd
       0.053118948 -0.087436736 0.090778425 -0.09069728
000030 1e 31 c2 3d 40 5f b2 bd 95 21 56 3d c6 af ba 3d
       0.094820246 -0.08709574 0.05227812 0.091155574

fc_actor.weight f4 [1, 16]
000000 32 6c cc bd 5e 5e 59 be 9d 27 23 3e 92 b1 d7 3d
       -0.09981574 -0.21227404 0.1593308 0.10531916
000010 e4 15 a5 3e 70 a9 aa 3e aa fd a5 be 69 5f 71 3d
       0.32243264 0.33332396 -0.32420093 0.05892888
000020 4d 5a 4b 3d bb 48 28 be 73 29 83 3e 35 54 72 be
       0.049646664 -0.16433994 0.2561756 -0.23664935
000030 15 67 a0 3e 7e 82 67 be 60 c0 cc 3c eb 76 6d 3e
       0.31328645 -0.22608373 0.024994075 0.23189895

fc_critic.weight f4 [1, 16]
000000 35 5b 43 be e8 1b f1 3d 49 01 52 bd 7e d1 2b be
       -0.19077761 0.11772901 -0.051270757 -0.16779134
000010 64 49 2a 3e c2 e5 47 3e 38 01 85 3e 53 4b de bd
       0.16629559 0.1952124 0.25977492 -0.10854211
000020 3d 57 3a be 9d 8b 3c be 09 97 5b be 77 76 b6 3d
       -0.18197341 -0.18412633 -0.21444334 0.08909314
000030 30 32 08 3d 51 26 d3 3d f7 6e 74 bd 74 2b 33 3e
       0.033250988 0.10310043 -0.059676137 0.17497045
