RNN_Closing/Trained Models/model_RNN_CP_5.pth (torch, 8618 bytes, 11 tensors)

attn_vec f4 [16]
000000 c8 1e d5 be c4 45 12 3c 83 1f 51 3f 4b 52 32 3f
       -0.41625047 0.008927766 0.8168871 0.6965682
000010 40 ed fd 3e e7 9f 0a bf 95 15 1c be 73 9f 71 3f
       0.4959507 -0.5415024 -0.15242608 0.94383925
000020 b4 0c 05 3e ab d7 a5 3f 99 12 6c 3f f5 8d 35 3d
       0.12993127 1.2956442 0.9221588 0.044324834
000030 f9 94 c1 3c df 1e 1d bf a5 d7 00 c0 1a 59 7e be
       0.023630606 -0.6137523 -2.013162 -0.24838677

input_fc.weight f4 [32, 1]
000000 60 37 c3 3d b4 38 58 bf 54 e0 57 3f 18 08 75 3e
       0.09532046 -0.8446152 0.8432667 0.23928869
000010 f6 12 44 3f ee 25 12 bf d8 94 5b 3e 64 29 79 3f
       0.7659143 -0.57089126 0.21443498 0.9732878
000020 b4 79 32 bf 38 8a 38 bf e0 aa d6 3d b4 4d 1c 3f
       -0.69716954 -0.72085905 0.104818106 0.61056066
000030 8a cc 14 bf 38 b3 0d bf 04 db f6 3e 2a 02 32 3f
       -0.581246 -0.5535159 0.4821397 0.6953455
000040 62 ed 2e 3f 00 c1 be 3c f0 9d c8 bd b0 48 bb be
       0.6833097 0.023285389 -0.09795749 -0.36578894
000050 30 d4 1f 3f c0 b3 4d bd f0 a9 d9 be b8 cd 18 bf
       0.6243315 -0.05022025 -0.42512465 -0.596889
000060 62 24 18 3f d0 cb fd 3e a0 a6 71 bd 58 b9 1b 3f
       0.59430516 0.4956956 -0.058996797 0.6082969
000070 be b3 65 bf 48 ba ff 3e 24 3e 3d bf 04 30 df 3e
       -0.8972739 0.4994681 -0.73922944 0.4359132

input_fc.bias f4 [32]
000000 72 8c 58 bf 80 04 58 bd c0 dc f1 3e 60 47 9a 3e
       -0.845893 -0.052738667 0.4723873 0.3013258
000010 b4 ee 68 bf 2c 5d 1f bf 9c 7b 86 be 08 c2 df 3e
       -0.9098923 -0.62251544 -0.2626618 0.43702722
000020 74 00 84 be ec a4 14 bf f2 8b 18 bf 16 63 39 3f
       -0.25781596 -0.5806415 -0.5958854 0.7241682
000030 8c 40 98 3e 84 7f d7 3e 40 2f 5c 3e ae 72 1a 3f
       0.29736745 0.42089474 0.215024 0.6033124
000040 3c e5 3e bf 76 26 2d 3f 88 1c 2f 3f 80 49 50 be
       -0.74568534 0.6763681 0.6840291 -0.20340538
000050 bc d4 af 3e 24 53 ad be f0 b5 7c bf fe 91 67 bf
       0.3434199 -0.33852494 -0.98715115 -0.9045714
000060 90 21 74 3e 78 77 f8 3e 76 ac 7b bf c4 dd 7a 3f
       0.23840928 0.48528647 -0.9831003 0.9799464
000070 a8 df 67 be 76 1f 40 bf f8 4d 1e 3f ec 89 42 3f
       -0.22643912 -0.75048006 0.6183772 0.759917

rnn.weight_ih_l0 f4 [16, 32]
000000 88 f5 1a be 29 31 bc 3c 6c 96 bf be 3a 2e 3c 3d
       -0.15132725 0.02297266 -0.3741945 0.045942523
000010 37 c1 fd 3d 50 6e 92 bd c2 64 bc 3d cb 05 47 bf
       0.123903684 -0.07149947 0.091989055 -0.77743214
000020 97 3f 4f be 53 4d 84 bd a2 b2 ed 3d a4 da 0a 3d
       -0.20239101 -0.06460061 0.11606337 0.03389992
000030 f2 86 75 be 32 3c 7a be 2e d4 12 3e d5 01 8e be
       -0.23977259 -0.24437025 0.14338753 -0.27735773
000040 3f cf 00 be 3c 12 6d be ff a5 77 3e 60 fa 46 be
       -0.12579058 -0.23151487 0.24184416 -0.19431448
000050 48 e5 b8 3d 92 c8 50 3e e2 0a de 38 60 6f cf 3e
       0.09028107 0.20389012 0.00010587812 0.4051466
000060 8a dd 34 be ce 91 62 bc 2c 46 ec bd 70 c1 08 3f
       -0.17662635 -0.013828708 -0.11536822 0.5342016
000070 38 97 92 3e 09 1a 5e be 30 59 94 bb dd e6 97 be
       0.28630996 -0.21689619 -0.0045272335 -0.29668322
000080 c6 6d c8 be c0 c7 a5 be 9b 71 da 3e 9f 15 cd 3c
       -0.3914625 -0.3237896 0.426648 0.025034724
000090 6f 3a 17 be d7 63 af bd fb 84 78 be 36 de 0a 3d
       -0.14768384 -0.08563965 -0.24269478 0.033903323
0000a0 77 23 d5 3e a5 98 80 3d a7 da 3d bd f1 05 a7 3e
       0.4162862 0.06279115 -0.0463511 0.3262172
0000b0 80 8e e9 3d 84 22 a0 3e 8b ec eb 3d 55 12 d2 3d
       0.11404133 0.31276333 0.11519726 0.10257403
0000c0 cc a4 b1 3d 8d de 15 3a 80 29 54 3e 0e c9 8a be
       0.08674011 0.00057170616 0.20718956 -0.27106518
0000d0 21 37 69 3d c4 54 3a be 3f 95 06 be e0 d8 56 3e
       0.05693734 -0.18196398 -0.1314287 0.20981169
0000e0 d7 e1 4c 3d a5 10 0c 3e 88 de 68 be 0b 55 b3 3d
       0.050020065 0.13678224 -0.22741139 0.08756455
0000f0 a7 c5 ed 3d b8 b3 af bd 35 4e 44 3f 59 a1 be be
       0.11609965 -0.085792005 0.76681834 -0.37232473
000100 82 f1 56 3d ee 13 24 3f 95 c5 b4 bc de 3d cf 3c
       0.052476414 0.6409291 -0.02206687 0.025298055
000110 29 8a 98 be 0a 44 0a be e7 fb 1f be 19 0c 07 3d
       -0.29792908 -0.13502517 -0.15623437 0.03297052
000120 56 2f 5a be a3 20 78 bd c7 b9 4f 3e c6 36 7a be
       -0.2130712 -0.060578 0.20285712 -0.24434957
000130 8d 72 cd 3d 4a df f2 3d 16 be 66 be 34 d5 0b 3f
       0.100316145 0.11858995 -0.2253345 0.546222
000140 28 6e 97 be ef 13 1e 3e 11 7f 7b bd 61 49 e2 bd
       -0.2957623 0.15437292 -0.061400477 -0.11049152
000150 ad db 6e be 39 40 57 3e c8 9f 88 be 8b e2 10 be
       -0.23325987 0.21020593 -0.26684403 -0.1414892
000160 72 71 9b bd c2 7a b4 3e 5f c0 27 3e fd 0f d3 3e
       -0.07589997 0.35249907 0.16381977 0.41223136
000170 8b c1 60 3c 7e 00 a9 3e 8e f2 3e 3e 5a d4 c0 be
       0.013718019 0.33008188 0.18647215 -0.3766201
000180 8e 71 c6 bd ea 85 07 be c9 0f 92 bc 27 b6 62 3e
       -0.096896276 -0.13234678 -0.017829793 0.22139798
000190 66 0f 89 be ae da 60 be e9 6d 72 3e 36 8e 13 3f
       -0.2676956 -0.2195842 0.2367474 0.5763887
0001a0 48 72 0f 3e 7a 0e c0 3e b5 b5 65 be 0b b3 86 3d
       0.14008439 0.37511045 -0.22432597 0.065771185
0001b0 11 eb 6c 3e 2c e6 9d be 16 e8 33 3e 82 ea 4e 3e
       0.23136546 -0.3083967 0.17569003 0.20206645
0001c0 09 b4 a4 3c 58 c2 b3 bd 5b 53 49 be c6 40 8f 3e
       0.020105379 -0.087773025 -0.19660704 0.27979106
0001d0 f3 87 ba bb 73 73 0b 3f fe ec 28 be f0 56 c5 3e
       -0.005692476 0.54473037 -0.16496655 0.3854289
0001e0 54 de c8 be ee c9 4d be dc 11 28 be 4d 18 4b 3e
       -0.39232123 -0.20096561 -0.16413063 0.19833489
0001f0 1e 38 80 3e 4f a3 d1 bd 62 50 4c be 4e b8 c3 bd
       0.25042814 -0.10236227 -0.19952539 -0.09556638
000200 23 74 51 3d 6f a9 57 3e 91 58 f6 bd fb 01 78 3e
       0.051136147 0.21060728 -0.120286115 0.24219505
000210 69 9f 6c bd a3 e7 9a be ee 11 34 be ef f5 91 3e
       -0.057769213 -0.3025485 -0.17584965 0.28507945
000220 1f dd 55 be 57 74 b4 be ae af f6 bc 04 a2 ce be
       -0.20885132 -0.3524501 -0.030113067 -0.40357983
000230 f9 28 d9 3e 52 40 72 3d 39 6e d2 3e 22 79 14 bf
       0.42414072 0.059143372 0.41099718 -0.57997334
000240 90 0d 8f 3d 8a 72 91 bd 4a 0c fc be 55 cc 19 bd
       0.06985009 -0.07101925 -0.49228126 -0.03754838
000250 34 7c 49 3e 29 99 b0 be bc a4 d0 bd 89 36 f1 3d
       0.19676286 -0.34491852 -0.101876706 0.1177798
000260 0f 5d 1b 3e d6 6e 6c 3c be 11 d7 bd 64 70 9b 3e
       0.15172218 0.014430722 -0.10501431 0.30359185
000270 92 09 ec bd 48 fd 1e be 77 42 62 3e 57 18 86 3d
       -0.11525263 -0.15526307 0.22095667 0.06547611
000280 38 ee 74 be d5 32 ec 3d f7 db 03 3f f0 02 b8 bc
       -0.23918998 0.11533133 0.51507515 -0.022462338
000290 f3 28 41 be 63 d7 4f 3b 92 44 bd 3e d2 c2 8f 3e
       -0.18863277 0.0031714074 0.36966377 0.28078324
0002a0 a6 57 17 be 41 eb 96 3e 4b 6b aa 3e 13 43 83 be
       -0.14779529 0.2947636 0.33284983 -0.2563711
0002b0 5f 6c 41 be 25 2a 14 3e 69 0a 28 be d8 b7 d6 bd
       -0.18888997 0.14469202 -0.16410221 -0.10484284
0002c0 a7 33 4f be 0b 28 21 bf 71 2c b8 3d ee 40 8b be
       -0.20234548 -0.62951726 0.089928515 -0.27197975
0002d0 f0 0a 50 bd cc ce d4 be 33 d0 ba 3e 0d 76 84 3e
       -0.05079168 -0.41564023 0.36486968 0.25871316
0002e0 ca 7d 1a be aa a9 6f 3d 5c a1 bf 3d 19 5b 00 3e
       -0.15087047 0.058511414 0.09356949 0.12534751
0002f0 09 63 09 be d4 3c 01 bc 19 de 86 be ed 3f 8f 3b
       -0.13416685 -0.007888038 -0.26341322 0.004371634
000300 af b3 88 be ba 51 a4 3e 39 a1 87 3d 6a 6b 14 3e
       -0.26699588 0.32093602 0.06622548 0.144941
000310 1f be 66 be d6 6c 02 3e 88 84 1c 3e a5 2b c8 be
       -0.22533463 0.1273683 0.15284932 -0.39095798
000320 bf 93 87 be c9 0a 11 3f 41 6e 1c be 0a 12 04 be
       -0.2647991 0.5665708 -0.15276434 -0.12897506
000330 84 26 ef 3e f3 f2 05 3d 01 a4 bb 3c d3 b6 04 be
       0.46709073 0.032702398 0.022905352 -0.12960367
000340 aa 9d c0 3e c8 d7 27 3e 4c 5f 34 3e 75 fb 89 3e
       0.37620288 0.16390908 0.17614478 0.2694966
000350 cf 9a 6b 3e c7 7b 01 bd 8a 55 d2 3e a2 e6 45 be
       0.23008274 -0.031612184 0.41080886 -0.1932626
000360 b2 7e fd bd 03 82 41 be 03 cf 04 3e 06 e6 69 bc
       -0.12377681 -0.18897252 0.12969594 -0.014276033
000370 f3 59 45 3e 9b 9c a3 3e 71 dd b0 3e 04 71 33 3e
       0.19272594 0.31955418 0.34543946 0.17523581
000380 9c db 9a 3e fa 6f 91 3d 3f 6a ef 3d 31 e0 ca bd
       0.30245674 0.07101436 0.11690187 -0.09906042
000390 5f 69 68 3e 69 c6 8c 3e f7 0d 12 be b0 82 c9 3c
       0.22696446 0.27495125 -0.1426314 0.02459845
0003a0 27 11 9b 3e 06 0b 8a bd 92 d1 3d bd b4 54 e3 bd
       0.30286524 -0.06740384 -0.04634244 -0.1110014
0003b0 53 d5 87 3e 57 4e 14 be 40 62 d3 3c 14 27 3a 3e
       0.2652994 -0.1448301 0.025803685 0.1817897
0003c0 5e 89 ca 3e 6a 68 61 3e 76 74 13 be c7 60 59 be
       0.39557928 0.22012487 -0.14399895 -0.21228324
0003d0 5e da dc bd ce 09 9f be 75 59 0a 3f ba 5c 3c 3d
       -0.10783838 -0.31062168 0.5404275 0.04598687
0003e0 8b 55 12 bb f6 a2 01 3e b9 74 cd be 01 65 8a 3e
       -0.002232882 0.12659821 -0.40128115 0.27030185
0003f0 1c 5d d8 3e a9 eb 02 3e f7 35 eb be 39 3c d1 be
       0.42258537 0.1278521 -0.4593961 -0.4086626

rnn.weight_hh_l0 f4 [16, 16]
000000 fe 8a 11 3f d3 31 d4 bb 23 36 07 3f 0a 31 bd 3d
       0.5685271 -0.006475666 0.5281698 0.09237869
000010 29 ed 51 3e 03 0e 51 bb cb 45 33 bd 5c a8 e1 bd
       0.20500626 -0.003189922 -0.04376773 -0.1101844
000020 cf df 9f be 90 4a 74 3e 7c 43 da 3e a6 c0 83 be
       -0.3122544 0.23856568 0.42629611 -0.25732917
000030 be 49 30 3f f6 b3 a1 bd 51 a9 25 bf 62 fc 35 be
       0.6886252 -0.07895653 -0.6471148 -0.17772058
000040 69 d7 09 3e 29 3c 37 3f 98 7d b3 be f8 31 d1 3e
       0.13461079 0.7157617 -0.35056758 0.40858436
000050 5c 04 01 bf aa a5 33 be 3e 87 e9 3c c8 2f bb be
       -0.50397277 -0.17543665 0.028506871 -0.36559892
000060 fd 39 8f be 16 ca 1d be 6c 34 26 be a0 6f b2 3e
       -0.2797393 -0.15409121 -0.16230935 0.34850788
000070 82 a8 fb bd 71 c6 0e bf 5e f8 d5 be 00 a9 cb bd
       -0.12288 -0.5577155 -0.41791052 -0.099443436
000080 b7 a1 6b bd 88 77 d8 be 68 b0 2a be 2a ca d1 3e
       -0.05752727 -0.42278695 -0.16668856 0.4097455
000090 d5 69 bd 3e 95 c8 03 bb f6 b5 ea be 61 09 e1 bd
       0.36994806 -0.002010857 -0.4584195 -0.10988117
0000a0 d6 52 04 3f 2e 26 2e bf 29 1e d5 3e 72 c3 55 3c
       0.516889 -0.6802701 0.41624573 0.013047086
0000b0 6e 53 6d 3d ba 20 18 bf 20 c8 32 bd 25 da 19 bd
       0.057940893 -0.59424937 -0.043647885 -0.037561554
0000c0 36 99 8c 3e e4 15 fc be 19 06 c4 3d af 63 9f bc
       0.2746064 -0.4923545 0.095714755 -0.019456713
0000d0 e3 fc 06 3d fd 61 f6 be d7 e5 5b 3f 90 26 1d bf
       0.032956015 -0.48121634 0.8589758 -0.61386967
0000e0 ea e3 49 be 9e a5 61 be 49 30 8c 3e ab f8 5f 3d
       -0.19715849 -0.22035834 0.2738059 0.054680508
0000f0 d6 ec ae be 63 4f bd bc 98 ce 1e 3e 8a af 0b 3e
       -0.34165066 -0.023109144 0.15508497 0.13641182
000100 28 a2 31 3e 62 e0 be bd b5 08 0d 3e b8 bf 82 bd
       0.17347014 -0.093201414 0.13772853 -0.06384224
000110 9a 92 0d bf cd b5 1d bf e8 19 32 bd 65 c8 33 3f
       -0.5530182 -0.6160553 -0.043481737 0.7022765
000120 3b 2a 11 3d 06 32 06 3e 25 00 e0 3e 9e a8 dc 3e
       0.035440665 0.1310502 0.4375011 0.43097395
000130 5e 18 88 3e 32 e8 8d be 71 4b e9 3e e7 33 ac bd
       0.2658109 -0.27716213 0.4556537 -0.08408337
000140 ea 42 ea be 04 e0 ae 3e 5a 2d 88 3e f5 08 62 be
       -0.45754176 0.34155285 0.265971 -0.2207373
000150 5e c7 0f 3d d9 74 2d 3f a8 d5 1c 3e ba 4e 9e be
       0.03510224 0.6775642 0.15315878 -0.3091944
000160 51 b5 8d be 26 f6 48 3d a0 16 29 3f 2a 13 4f 3e
       -0.27677396 0.04906287 0.6605015 0.20222154
000170 e4 a9 40 3d cd ab 9f be 4a 05 ff 3e f5 d4 88 be
       0.04703702 -0.3118576 0.49808723 -0.26724973
000180 1d 22 0f 3f 67 a8 4f 3b 53 23 26 bf b5 7f 34 be
       0.5591143 0.003168607 -0.6489765 -0.17626841
000190 d7 c6 0f 3f 8a 52 12 be ff ab 83 be 93 bd 34 be
       0.5616278 -0.14289299 -0.2571716 -0.17650442
0001a0 b6 9f 7e be ea 96 bb 3e f8 89 0b be 6d 83 00 3d
       -0.24865612 0.36638576 -0.1362685 0.031375337
0001b0 99 e6 aa 3c 58 e2 14 be aa e5 01 3f 2c ec 0d bf
       0.02086191 -0.14539468 0.50741065 -0.55438495
0001c0 08 bc c2 bc fc 2a c8 bd 17 a2 4f bf dc b8 15 bf
       -0.0237713 -0.097738236 -0.81106704 -0.584852
0001d0 32 8e d3 be 61 57 ce 3d 57 f7 04 3d dd 37 86 be
       -0.41319424 0.1007526 0.032462444 -0.26214495
0001e0 7e 13 a5 3e c9 36 62 3e 76 c3 f7 3e 46 d6 41 be
       0.32241434 0.22091211 0.48391312 -0.18929395
0001f0 19 9f ac 3e 4b 60 63 3d 85 91 8e be b9 0d b3 3e
       0.33715132 0.055511754 -0.27845398 0.34971407
000200 6a 8c 7d 3d f3 04 0b 3f 2a fc 57 3d b6 f0 ea 3c
       0.061901487 0.54304427 0.052730717 0.028679233
000210 cb 77 25 be 4b 43 a5 be a2 33 20 bd a0 15 88 be
       -0.16158979 -0.32277903 -0.03911174 -0.26579
000220 38 c6 bb 3d a2 6c 22 bf c7 f5 50 bd b9 d1 1a bf
       0.091686666 -0.6344701 -0.05101564 -0.6047626
000230 25 48 07 3f 44 c4 b9 3e 54 14 0d 3f 1e a9 13 bd
       0.5284446 0.3628255 0.55109143 -0.036049955
000240 28 86 45 3e 5d 67 82 be 17 ca 32 be e1 ca b6 3e
       0.19289458 -0.25469485 -0.17459904 0.3570166
000250 a5 dc 5e be 79 b1 04 3f 81 85 06 3f cd a4 a6 3e
       -0.21763857 0.518333 0.5254746 0.32547608
000260 e7 bb a2 bd 51 fd dc 3d 43 a0 bb be a4 42 0c bf
       -0.07945996 0.10790504 -0.36645707 -0.54789186
000270 41 7a 94 3e 85 e0 1c bf 79 9e 9a 3e 6c 42 49 3e
       0.28999522 -0.6128009 0.3019903 0.19654244
000280 73 46 70 be 87 d6 28 bf 7c 95 17 be 82 37 95 3e
       -0.23464374 -0.6595234 -0.14803118 0.29143912
000290 b0 5d ff be 8b 02 c4 3d d8 cc 09 bf f4 07 72 be
       -0.49876165 0.095707975 -0.5382819 -0.23635846
0002a0 1f e5 51 bf 8f 44 e5 bd d4 45 97 bc 0e 0a 8e bc
       -0.81990236 -0.11194717 -0.018465914 -0.017338779
0002b0 0c f7 02 3e 15 93 95 3e f0 2c d0 3d 43 5d 3d bd
       0.12789553 0.29213777 0.10164821 -0.04623152
0002c0 ff a6 29 3f c8 15 12 be 1d 61 8f 3e 83 58 fa be
       0.6627044 -0.14266121 0.2800378 -0.48895654
0002d0 50 c0 11 bf f8 e5 da 3e 26 79 55 be 9c 88 ba bc
       -0.5693407 0.42753577 -0.20846996 -0.022770219
0002e0 fc 67 68 3e d0 9c b8 be 85 3c a7 bd 1b c1 1c be
       0.22695917 -0.36057138 -0.0816584 -0.15308039
0002f0 18 47 fa be 3c ee 0c bd d0 d2 38 bd 4c 33 ef be
       -0.48882365 -0.034406886 -0.04512292 -0.46718824
000300 f3 67 a6 3e 2a 7b 16 3d b8 14 cf be cc 99 8e 3e
       0.32501182 0.036738552 -0.40445495 0.27851713
000310 33 f3 f2 3d 01 94 ef 3e 7c 62 dc 3e 6a 04 c7 3e
       0.11862793 0.46792606 0.43043888 0.38870555
000320 57 4f 64 bd c3 b7 fe be 33 26 34 3e 44 b7 11 3f
       -0.055739727 -0.49749574 0.17592697 0.56920266
000330 ed c6 7d 3e 8a 68 1d 3f 43 dd c7 bd 79 09 2b be
       0.24782915 0.6148764 -0.09758999 -0.16702832
000340 3a d4 14 bf d2 7f 86 be 96 ed 8c bd 78 48 e2 be
       -0.5813633 -0.26269394 -0.068812534 -0.44195914
000350 d4 06 31 3a 6a 54 67 be 7e 5d b9 3e c0 04 a6 3d
       0.00067530316 -0.22590795 0.3620414 0.08106375
000360 5b 99 8f bc 57 13 87 be e9 fe c8 be b5 62 63 3c
       -0.01752918 -0.26381943 -0.3925698 0.013878514
000370 76 cf ce 3e 13 a6 54 be e5 ac ad be 9b c5 4f bf
       0.40392655 -0.20766477 -0.3392097 -0.81160897
000380 ba 75 37 be 8b 3c 46 3e b4 14 9a be 51 8a e2 3d
       -0.17916003 0.19359033 -0.3009392 0.11061538
000390 e6 5c b2 3d 29 d3 3b be 92 3e c7 3d 56 6c 0d 3f
       0.08709125 -0.1834227 0.09728731 0.5524343
0003a0 c2 33 c1 be 39 39 d3 bd ce ae 0e 3f dc 11 38 bf
       -0.377348 -0.10313649 0.5573548 -0.7190225
0003b0 d2 28 19 bf 39 b5 6f 3d 1d fb 6d be 4a e0 8c be
       -0.5982791 0.058522437 -0.23240323 -0.2751487
0003c0 86 e4 02 3e 70 75 be 3d a9 5c a7 39 a9 ba 33 bf
       0.12782487 0.09299743 0.0003192176 -0.70206696
0003d0 01 ba a5 3e a4 b6 86 bb 0a 0f 11 be f5 8b 91 3e
       0.32368472 -0.004111128 -0.14165893 0.2842709
0003e0 ea ed 1f bf c7 05 11 bf 64 92 1d be 00 d3 f9 3d
       -0.62472403 -0.5664944 -0.15387875 0.12198448
0003f0 77 86 4b 3d 2d af ab be 37 73 82 bd 08 77 23 3f
       0.049688783 -0.33532086 -0.06369632 0.638535

rnn.bias_ih_l0 f4 [16]
000000 00 00 00 00 00 00 00 00 00 00 00 00 00 00 00 00
       0.0 0.0 0.0 0.0
000010 00 00 00 00 00 00 00 00 00 00 00 00 00 00 00 00
       0.0 0.0 0.0 0.0
000020 00 00 00 00 00 00 00 00 00 00 00 00 00 00 00 00
       0.0 0.0 0.0 0.0
000030 00 00 00 00 00 00 00 00 00 00 00 00 00 00 00 00
       0.0 0.0 0.0 0.0

rnn.bias_hh_l0 f4 [16]
000000 00 00 00 00 00 00 00 00 00 00 00 00 00 00 00 00
       0.0 0.0 0.0 0.0
000010 00 00 00 00 00 00 00 00 00 00 00 00 00 00 00 00
       0.0 0.0 0.0 0.0
000020 00 00 00 00 00 00 00 00 00 00 00 00 00 00 00 00
       0.0 0.0 0.0 0.0
000030 00 00 00 00 00 00 00 00 00 00 00 00 00 00 00 00
       0.0 0.0 0.0 0.0

norm.weight f4 [16]
000000 00 00 80 3f 00 00 80 3f 00 00 80 3f 00 00 80 3f
       1.0 1.0 1.0 1.0
000010 00 00 80 3f 00 00 80 3f 00 00 80 3f 00 00 80 3f
       1.0 1.0 1.0 1.0
000020 00 00 80 3f 00 00 80 3f 00 00 80 3f 00 00 80 3f
       1.0 1.0 1.0 1.0
000030 00 00 80 3f 00 00 80 3f 00 00 80 3f 00 00 80 3f
       1.0 1.0 1.0 1.0

norm.bias f4 [16]
000000 00 00 00 00 00 00 00 00 00 00 00 00 00 00 00 00
       0.0 0.0 0.0 0.0
000010 00 00 00 00 00 00 00 00 00 00 00 00 00 00 00 00
       0.0 0.0 0.0 0.0
000020 00 00 00 00 00 00 00 00 00 00 00 00 00 00 00 00
       0.0 0.0 0.0 0.0
000030 00 00 00 00 00 00 00 00 00 00 00 00 00 00 00 00
       0.0 0.0 0.0 0.0

fc_actor.weight f4 [1, 16]
000000 f0 7e 25 be a6 dd 24 be c8 1c 7f 3d 98 ad 87 3d
       -0.16161704 -0.16100177 0.062283307 0.06624907
000010 82 4d 0e be ba 3c 2b be b2 c3 72 be 34 41 ec bd
       -0.13896754 -0.16722384 -0.23707464 -0.11535874
000020 e2 11 74 3e 38 8c 52 3e 54 cc cd bd 20 9f 16 bc
       0.23834947 0.20561302 -0.10048738 -0.009193212
000030 f2 86 1a be 6a 28 37 be 00 33 1a be 60 bd 56 3c
       -0.1509054 -0.1788651 -0.15058517 0.013106674

fc_critic.weight f4 [1, 16]
000000 b0 1c 4a 3e c0 c5 a6 3d 80 1c 3a 3e 40 4c 55 3d
       0.19737506 0.081431866 0.18174934 0.05207467
000010 6e 35 48 3e c6 5f 27 be 9a e2 51 be 94 2f 30 3e
       0.19551632 -0.16345128 -0.20496598 0.1720565
000020 d0 15 b3 3c 30 26 8d 3c a0 90 d6 3d 0c 0b 01 3e
       0.021860987 0.017230123 0.10476804 0.1260187
000030 0c 90 2a 3e 80 1a 4b bd c8 e0 52 3e 4a ff 4f be
       0.16656512 -0.04958582 0.2059356 -0.20312229
