CNN_Closing/Trained Models/model_cnn_3.pth (torch, 353075 bytes, 10 tensors)

conv.0.weight f4 [32, 1, 2]
00000000: cf30 f63e 22d7 933d 469d c43e bdf6 0fbf
00000010: cecd 14bf 92d1 30bf 99c2 363f c0e6 2ebe
00000020: 1114 503e a8e1 b9bd 1394 0e3f ef61 073f
00000030: b0cc c73e 9c1d ac3e 58ec 05bf 37af a53e
00000040: 81fb eebd 1803 16bf aced b2bd b743 823d
00000050: 7736 2ebf 371d 123f 0cd1 1a3f 029c c8be
00000060: 0aa1 9bbe b1d5 593b 5d94 f33e 7cb0 343f
00000070: 4684 4bbe 5d2a acbe 1439 07bf abf1 9d3e
00000080: 570f 283f f324 263f 0ea0 7d3e 520e d33e
00000090: 9820 fb3c 891f 24bf 46f4 ae3e 00a5 0ebf
000000a0: 3991 143f 4a88 a6be 8bc2 23be 82f2 90be
000000b0: ad98 19bf 7366 043f 0b06 e8be bdc4 853e
000000c0: 0f54 063f 1a07 91be b5ca 30be 9d94 95be
000000d0: 20c2 043f 95ca cabd 3208 0abf f418 be3d
000000e0: 4c9e 9fbd 5b4b eabe df31 8e3e 6ca6 0c3f
000000f0: 97ed a6be 4b26 1abf 6c66 2f3f ef3f 11bf
0.48084113 0.07218768 0.3840124 -0.5623587 -0.58126533 -0.6906978 0.7139068 -0.17080212
0.20320155 -0.09076244 0.55694693 0.5288381 0.39023352 0.3361634 -0.52313757 0.3236024
-0.11669064 -0.5859847 -0.087367386 0.06360572 -0.68051857 0.5707583 0.6047523 -0.39181525
-0.303963 0.0033238942 0.4757413 0.70581794 -0.19874677 -0.3362607 -0.5282147 0.3084844
0.65648407 0.6490013 0.24768087 0.41221863 0.03065519 -0.6411062 0.3417074 -0.5572052
0.5803409 -0.32525855 -0.15992181 -0.2831002 -0.5999859 0.51718825 -0.4531711 0.26126662
0.52472013 -0.2832573 -0.17264827 -0.29214945 0.5185871 -0.09901921 -0.53918755 0.09282103
-0.077938646 -0.45760617 0.27772424 0.5494144 -0.32603142 -0.6021468 0.6851566 -0.5673818

conv.0.bias f4 [32]
00000000: c5ac a43e 7d2b 07be 7c25 1cbf 3a8c e2be
00000010: 49a2 f53e 61ff af3e 5d0b bcbe 1a94 d5be
00000020: ad63 a83b 5ed1 dfbe 3bd3 7e3e 6f92 f1bb
00000030: 43c9 e9be a3fe 7abe 4914 003f 0577 89be
00000040: 5559 1d3f fe1c 79bd 6169 08bf a773 0abe
00000050: c595 583e c5f9 b73e 7065 cdbe 6b70 86bc
00000060: 785f 1cbf 4afe bd3e 5910 0ebe 9529 11bc
00000070: cea9 513e 520b c23e f26f 05bf cea8 05bf
0.32163063 -0.13200183 -0.60994697 -0.4424761 0.47975376 0.34374526 -0.3672742 -0.41714555
0.0051388354 -0.43714422 0.24885266 -0.0073721926 -0.45661363 -0.24511199 0.5003095 -0.26848617
0.61464435 -0.060818665 -0.53285795 -0.1352068 0.21150883 0.35932747 -0.40116453 -0.016411027
-0.61083174 0.3710807 -0.13873424 -0.008860012 0.20474932 0.37899262 -0.5212394 -0.522107

conv.2.weight f4 [64, 32, 2]
00000000: 2c5c 923d f6a6 a13d c047 28bd 0ba9 edbb
00000010: fb24 1fbe f677 1b3b 76b2 c2bd cc40 c63a
00000020: e829 3bbd 3d81 a43d 8371 02be 5ba2 a43d
00000030: dd68 ebbd f027 fb3d e216 08bc b2f8 0c3d
00000040: 0ca0 83bd a701 e43d fe51 ffbd 0d69 d83d
00000050: 76fa 1a3d 32cd f2bb a59a afbd e1cb 0ebe
00000060: 2c1d e5bc 939e e0bc 5c22 e8bd d705 8cbc
00000070: ee0c 9a3d 6469 89bd bdd0 c23c 7ea2 f0bd
00000080: d6fd cdbd a63b 863d f35f 393d 9e45 96bd
00000090: 0039 2dbd 0856 0f3e 625e e63d cc1d b7bd
000000a0: 6ba0 56bc 74de 96bd 8459 65bd dba8 bf3d
000000b0: cb55 253d 5e6e 0d3d 66bc 433d b8fb db3d
000000c0: 41d6 72bc f0d9 22bd ecda 65bd 7db6 a5bd
000000d0: 1f14 d0bd c54f 413d bc70 173d 90f5 b3bd
000000e0: 85aa 94bb 1839 96bc 5957 8f3d 886c 0e3e
000000f0: 3d87 ad3d 0a93 0d3e 4611 bcbc 7d18 c9bd
00000100: 071e b33d 060d 68bd 43d0 48bd 8563 de3d
00000110: 0226 c0bc 8f6c d23c ba18 5a3d 0252 4fbc
00000120: 27e2 c53c 3970 953d fb43 8fbd c0e1 5bbd
00000130: 267f 6d3d 47cf 96bd 0ac8 cb3d 3bcc 60bd
00000140: 76a5 453c b282 8fbd dd1a b53b 68e1 28bd
00000150: 7808 f0bd 3bca b73c fd0d 5fbc b1d2 8a3b
00000160: 8e1d 0c3e f9ee d8ba d194 8bbd 361c 8bbd
00000170: aa53 a5bd bb11 ec3b 578d 283d f687 cc3d
00000180: 3ae4 c23d a884 a1bd 1c40 293d 4002 873c
00000190: d3d1 6dbd 3312 0b3d ff49 eb3c ea2a c53c
000001a0: 79de a4bd d042 7dbd 015a a33d 36b2 843d
000001b0: 2c34 b3bd b315 a3bc 4c3d 06be ec71 3d3d
000001c0: 1b88 92bd 10c8 c03d fd60 98bb 1bd9 d5bd
000001d0: 44fa acbd 742b 9a3d 3cd7 aebc 9bca a5ba
000001e0: 5da1 953b 5573 cdbd 23cf a53d cd28 923d
000001f0: 7084 9a3c 8971 e63d 9dab a6bd 5d18 9cbb
00000200: 2fac 173d 9d39 69bd a6b7 0f3e 3ca9 27bd
00000210: 25af 883c 6d1a e53c c136 d7bd 4927 90bd
00000220: a02a a93c 4a07 bf3d 6076 b4bb db0d 4d3d
00000230: d24b 6dbc 50eb bcbd f1c4 8cbd 5115 3a3d
00000240: a919 04be 9c66 5fbd c3ac b63d 01b5 523d
00000250: ec37 ce3d 60fa eabd b7ac baba 48fe 193c
00000260: f489 523c 0772 63bd ed91 283d d0b7 143d
00000270: 8111 813d 07ef 053d 6b93 f13d 4901 4f3b
00000280: 171c b4bc 16be 2fbd e1ce 503d c168 f9bd
00000290: a0a9 5d3d 1fd3 9c3d 3cbb d23d 1624 103e
000002a0: 52e1 403b 277d d4bd ee46 b43d 3223 07be
000002b0: 4374 adbd f143 013e 79d6 373d 512c f5bd
000002c0: a536 aa3d b48c cdbd 61eb 82bd a4b9 723d
000002d0: e322 993d 916a 2cbd eafe 503c dc6c 3abd
000002e0: 3f47 953c 205d fa3c 287e 5f3c 31d6 dc3d
000002f0: 5062 7cbc 7fb8 acbd 5e3c c0bd 60f9 d9bc
00000300: b63f e5bb caae 08bd 5a85 b7bd c1c0 8b3d
00000310: c0ca 9cbd 8fda e8bc 99c3 053c cc76 5c3d
00000320: d4a3 713d ff0d a6bd ae50 153d 1f0b 873d
00000330: 97fb 1a3d bb94 d8bc e601 86bd 2376 723d
00000340: ef3a 8d3d 2751 c6bd ced5 233d ae25 963d
00000350: 3d70 28bd 5b7c a7bd b037 8c3d e255 583d
00000360: b1c9 53bd c0d0 773d a36e c7bc bb74 f03c
00000370: d30a 013d bbb3 993d de09 863c aeaa 6fbc
00000380: e587 163d e06e 9b3d 147a ecbc 6228 3cbd
00000390: b5f5 073b 453b bbbc c5bb 753d c291 a63d
000003a0: a096 fbbd de4c 81bd 18b1 f63d 222a c53d
000003b0: 4272 9bbd f789 c63d 4cf9 443d ec34 07bb
000003c0: 0fab 3c3d fda8 c33d 441e 033c 2ae2 e5bd
000003d0: f824 62bd 4e0c e2bd 125a 423d 9f03 edbc
000003e0: f768 f63b a913 923c eeab ecbc 1f67 ddbd
000003f0: a000 66bd b6c5 0cbc c915 653c a73f 42bd
0.07146487 0.078931734 -0.04108405 -0.0072528175 -0.1554145 0.0023722625 -0.09506695 0.0015125512
-0.04569426 0.08032463 -0.12738614 0.08038779 -0.114946105 0.12263477 -0.008306237 0.03441686
-0.06427011 0.11133128 -0.12466811 0.10566912 0.037836514 -0.007409715 -0.08574418 -0.13944961
-0.027968012 -0.027419364 -0.113346785 -0.017092628 0.075219974 -0.06709555 0.023781175 -0.11749743
-0.10058181 0.06554346 0.04525752 -0.07337497 -0.042290688 0.13997662 0.11248471 -0.0894123
-0.01309977 -0.07366648 -0.055993572 0.093583785 0.04036502 0.034529082 0.047787093 0.10741371
-0.01482159 -0.039758623 -0.056116983 -0.080914475 -0.10160088 0.047195215 0.036972746 -0.08787072
-0.004536929 -0.018337771 0.06999082 0.13908589 0.0847306 0.13825622 -0.022957455 -0.09819124
0.08745962 -0.056653045 -0.04902674 0.108588256 -0.023455624 0.02568653 0.053246237 -0.0126538295
0.02415569 0.072967954 -0.06995388 -0.05368209 0.057982586 -0.07363754 0.09950264 -0.05488227
0.012063375 -0.0700735 0.005526884 -0.04123059 -0.11720365 0.022435298 -0.013614175 0.004236542
0.13683149 -0.0016550712 -0.06815494 -0.0679249 -0.08072598 0.007204262 0.041150417 0.0998687
0.09516187 -0.0788663 0.041320905 0.016480565 -0.058061432 0.033952903 0.028721808 0.024068315
-0.08050246 -0.061831295 0.07976151 0.064793035 -0.08750185 -0.019907808 -0.1310932 0.046251222
-0.07154866 0.09413159 -0.004650234 -0.104418 -0.08446172 0.07527819 -0.021342866 -0.0012648882
0.004566355 -0.100317635 0.08096149 0.071366884 0.01886198 0.11252124 -0.081382014 -0.0047636465
0.03702944 -0.05693971 0.140349 -0.04093288 0.016685078 0.027966702 -0.1050849 -0.07038743
0.020650208 0.09327562 -0.0055072755 0.05006204 -0.014483409 -0.0922457 -0.06873501 0.045430485
-0.12900414 -0.054541215 0.089196704 0.05144215 0.1006926 -0.114735365 -0.0014242147 0.009399004
0.012850273 -0.055528667 0.04115479 0.03630811 0.06302167 0.032698657 0.11795696 0.003158646
-0.02198605 -0.04290589 0.050978545 -0.12178183 0.054116845 0.07657456 0.102896184 0.14076266
0.0029431176 -0.103754334 0.08802591 -0.1319702 -0.08469441 0.12623574 0.04488227 -0.11971343
0.08311204 -0.100366026 -0.06392551 0.059259072 0.07477357 -0.042093817 0.012756089 -0.045513973
0.01822245 0.030561984 0.013640918 0.10783041 -0.015404299 -0.08433627 -0.09386514 -0.02660817
-0.0069961203 -0.033369817 -0.08960982 0.06823874 -0.07655859 -0.02842453 0.00816431 0.05382423
0.05899413 -0.08108138 0.036453895 0.06593918 0.03783759 -0.026438108 -0.06543331 0.059194695
0.06896006 -0.09683447 0.039998822 0.073314056 -0.041122664 -0.08178016 0.06846559 0.05281628
-0.05170602 0.060501814 -0.024344748 0.029352536 0.031504463 0.07504984 0.016362127 -0.014628096
0.036750693 0.07589507 -0.028866805 -0.04593695 0.0020745818 -0.02285541 0.059993524 0.0813327
-0.12284589 -0.063134894 0.12045497 0.09627177 -0.07590152 0.096942835 0.04808931 -0.002063091
0.04606157 0.09553716 0.008002821 -0.11224778 -0.055211037 -0.11037503 0.04744918 -0.02893239
0.007519837 0.01783164 -0.028890576 -0.108106844 -0.05615294 -0.00859206 0.013982245 -0.047423985

conv.2.bias f4 [64]
00000000: b891 73bd e9dc c33d 0a5f ffbc d65a cdbc
00000010: d1db 833d 2305 31bd 688f 063d 8971 463d
00000020: c5d0 b7bc 8351 0fbe 0d54 17bd e982 883d
00000030: 67a2 ec3d 561b 86bd 4955 adbd 1b71 8b3c
00000040: 01ef d33c 5bf9 92bd ff43 643d 003d 513d
00000050: 8bcf 5a3d 662d fe3c 4597 983c 1b56 87bd
00000060: 70e6 943d cd68 313d 226f b43d fd82 02bc
00000070: f7d6 3dbc e1f4 b4bd e6b1 a3bd c624 7ebd
00000080: 2453 69bd 20fe e53d f679 c4bd 12d3 75bd
00000090: 7dbb 4e3d 309d 9dbd 8ea5 f5bc ddfc 4d3d
000000a0: ea4d f0bc 9f2e 9cbb a3b6 583d 264a a53d
000000b0: 90b0 d3bd 45ce 233d db70 eebd 187f c4bd
000000c0: 11e8 adbd 0292 733d 2fc4 f9bc 4147 6bbd
000000d0: 7e68 9a3d bd09 87bb a16c 973c 9d15 b73c
000000e0: 814d 483b 059c 053c b9b7 33bc 9407 9cbd
000000f0: 5667 aa3d 0f0d ec3c 816e c03c 24b2 2b3d
-0.05946514 0.0956362 -0.031173248 -0.025067728 0.06438411 -0.04321779 0.032851607 0.04844812
-0.022438416 -0.13995938 -0.03694539 0.06665594 0.11554413 -0.06548183 -0.084635325 0.017021706
0.025870802 -0.07176467 0.05572891 0.051083565 0.053420585 0.031027507 0.018626818 -0.0660822
0.07270515 0.043312836 0.088102594 -0.0079658 -0.011586896 -0.088357694 -0.07992916 -0.06204679
-0.056964055 0.11230111 -0.09593575 -0.060015745 0.05047177 -0.07695997 -0.02998617 0.050289977
-0.029334027 -0.0047663 0.05290855 0.08070783 -0.10336411 0.039991636 -0.11642619 -0.09594554
-0.08491529 0.059465416 -0.030489055 -0.057441 0.075394616 -0.004121034 0.018484415 0.022349173
0.0030563774 0.008154874 -0.010969096 -0.07618633 0.08320491 0.02881482 0.023490192 0.041917935

conv.4.weight f4 [128, 64, 2]
00000000: ca90 da3b 2ac2 0fbe 04a4 afbc 8186 1e3d
00000010: b42c 323d c3d5 8cbd 7492 a6bd 055e 933c
00000020: 3e0c 02be 2f74 92bd faff a5bc ce5f 8dbd
00000030: d9d5 94bc 70ab af3c c447 d4bc 903c 4e3c
00000040: 76ea a23d cdec 643d bf82 f6bd 0ee4 2d3d
00000050: d8d2 9fbd cb23 e6bd a9b4 a03b ce7b febb
00000060: 315d ab3c 0617 2d3d 6d52 f53a 77fe d1bd
00000070: 1c41 a13d 6da1 f0bd d6c0 20bd e668 fd3d
00000080: c62d 743d 3d87 d8bd 3875 1f3d 69f6 473c
00000090: 865f 26bc 00d3 0b3e 8ff9 bdbc d6fa 7dbb
000000a0: 2864 2cbd e279 1abd 4369 b73d 6f92 2cbd
000000b0: a595 ab3c 7184 c53d 99a8 7dbb 7191 583d
000000c0: 5d9e c5bd 7f0b ae3b ebd8 64bc b4d0 c2bd
000000d0: f59e bf3c 36cc 283d 4bcd 403d 23e0 1e3c
000000e0: 8d4e 83bd 2b86 d63b 8790 ff3c e1b4 9fbb
000000f0: 099b 00be 955c 2d3c 9b08 7dbd 89e5 f5bd
00000100: 6a77 f9bc 4817 ce3d 13b0 11bd d67e 57bd
00000110: 6290 2dbc f8e7 3bbd 6cc3 efbd a618 4dbc
00000120: 63bb d33d 7a69 5fbc f3e3 caba 7775 b9bd
00000130: f2a2 99bd c47f 3cbd 8665 b1bd 8a46 95bd
00000140: 5921 01bd ab87 9a3c 2722 5cbd b9cc ce3c
00000150: 1a08 003d a776 a83d 84c8 0e3c ace2 c13d
00000160: cb9c b63d 43a1 cbbd 513b debd 30c6 18bd
00000170: 2404 8cbd 5a46 bcbd a9ce 333d 466e 4c3c
00000180: 8d3f 113c 121b 893d 3ba1 1e3c 3314 f73d
00000190: b914 b8bd 62a0 ffbd 9878 81bb 016b 513c
000001a0: 4aaf a2bd f6e4 3b3d 837f 973d eafe 2fb9
000001b0: e35f 043e 8c43 0b3d 5424 e6bd 9ffc 553d
000001c0: b89a 4d3d dfc4 cebd 9466 df3d 5261 b23d
000001d0: e496 293d 6d93 9bbc 255d 05be e7bc a1bc
000001e0: 274c 84bd f7a9 cabc b931 b5bd 1f7c c83c
000001f0: 33bd aa3c 2ad9 4e3d b9bd a33d 6207 903c
00000200: 3510 7f3c 0591 9cbc 56eb 4d3d 2289 54bd
00000210: ab31 513d 896b 7d3d 4329 d43c c2ff 40bd
00000220: 1b03 a2bd b092 9c3d 1740 30bd 4a16 68bb
00000230: f5cb 82bd a172 76bd 19d3 e0bc e7b9 e63c
00000240: cbb6 933d 0334 833c fbdb 01bb 340a 0fbd
00000250: 2e5f a7bd 3927 61bc 991d 3a3d 006d 743c
00000260: 2912 44bc 07fc 37bc 6a28 b43c 8ab7 183d
00000270: f14a dcbc bf56 2c3d dea2 523d ec83 70bd
00000280: 11f3 abbd 3688 0f3d 06c1 5ebd b0f2 15bd
00000290: dae1 8d3d c328 59bd db3b c2bb afdf a0bc
000002a0: 1e05 623d 0d27 12bd 9de1 b3bc f636 8c3d
000002b0: 1a8f 89bd 4271 5e3c ce09 813c 4e31 81bd
000002c0: bd2b 68bd bb89 79bd 5ef1 a1bd 588f cf3c
000002d0: 82cb fcbb 268c dbbb 4546 913d 3d6c 803d
000002e0: 3d4c 35bd b733 7a3d 4a2b 8abc 657e f1bb
000002f0: 06c8 b23d b5a8 9abd 07d5 a7bd c523 403d
00000300: eb98 80bd 60e7 1b3d 07a2 9ebd 80f4 873d
00000310: c749 853d 2d66 953d 97bb 823d 9c54 28bd
00000320: 92f2 b53c 8589 9a3d 4eef a13d 3d26 9a3d
00000330: 07e0 2dbd e077 813d 5533 adbc e325 a73b
00000340: 6759 99bd 6067 5bbd cc3f 2c3d c6ec cbbc
00000350: d0a9 1cbd c08e a5bd 3f7d 0a3d 223a a0bd
00000360: 6d08 41bc 29ce b0bd f925 0c3d 1b7b c4bc
00000370: 53c1 76bd 0a9b 8cbd ea55 ad3c 006b 203d
00000380: 0c14 993d 05ff 25bd c333 8e3d 8c7f dbbc
00000390: ef51 833d c34b 70bd 1a8e 723c 05b7 0d3d
000003a0: 5e6d 8dbd 1ede 873d f456 153d e39c a93d
000003b0: 6d20 8bbd 4771 82bd 4a43 8dbb e57d 31bd
000003c0: ef73 3a3d d87a 20bd 56f1 1abc 11b6 9dbd
000003d0: 153a 44ba 9ec2 983d db6d fb3c a1cc 56bd
000003e0: eb73 a33d f5b2 223d 192c 0abd 0a62 5e3d
000003f0: 5d4d cbbc 7c8c acbd 0a63 8abd 1e3e 7cbd
0.006670092 -0.14038911 -0.021440513 0.03870249 0.043499663 -0.06876709 -0.081334025 0.017989168
-0.12699983 -0.071510665 -0.02026366 -0.06903039 -0.018168377 0.021444052 -0.025913127 0.012587681
0.07954876 0.055889893 -0.120366566 0.042453818 -0.07803887 -0.11237296 0.004904349 -0.0077662235
0.02091846 0.042258285 0.0018716581 -0.102536134 0.07873747 -0.117495395 -0.039246403 0.123735234
0.059613965 -0.1057267 0.038930148 0.012204745 -0.0101546105 0.13654709 -0.023190288 -0.0038754246
-0.042087704 -0.037713893 0.08955624 -0.042131837 0.02094538 0.09644402 -0.0038705228 0.05287308
-0.09649346 0.005311429 -0.013967733 -0.09512463 0.023391226 0.041210376 0.047070783 0.009696993
-0.06411467 0.006546756 0.031196846 -0.0048738574 -0.12559141 0.010581155 -0.061775785 -0.12006671
-0.030452449 0.10063034 -0.035568308 -0.052611195 -0.010593506 -0.04587552 -0.11707196 -0.012518084
0.103384756 -0.013635987 -0.0015479311 -0.09055608 -0.075017825 -0.046020284 -0.08661942 -0.07288845
-0.031525943 0.01886352 -0.053743508 0.025244104 0.031257726 0.08225756 0.008714799 0.09467062
0.08916625 -0.099428676 -0.108511575 -0.03729838 -0.06836727 -0.09193106 0.04389826 0.012477463
0.008865249 0.066946164 0.009681995 0.120643996 -0.089883275 -0.124817625 -0.0039511435 0.012781859
-0.0794359 0.04587265 0.07397368 -0.00016784263 0.12927203 0.033999965 -0.11237398 0.05224287
0.05019638 -0.10096144 0.10908237 0.087099686 0.041403666 -0.018991197 -0.13023813 -0.019743396
-0.064598374 -0.024739249 -0.088473745 0.024473248 0.02084217 0.050500073 0.07995171 0.017581645
0.015567829 -0.01911212 0.050273262 -0.051888593 0.051072758 0.06187013 0.025898581 -0.04711891
-0.079107486 0.07645166 -0.04302987 -0.0035413676 -0.06386558 -0.060167912 -0.02744441 0.028164817
0.07212599 0.016016012 -0.0019814956 -0.03492184 -0.08172451 -0.013742262 0.045438383 0.014918566
-0.01196722 -0.011229522 0.021991927 0.03728441 -0.026891204 0.042074915 0.051424854 -0.05871956
-0.083959706 0.03504201 -0.0543833 -0.036608398 0.069278434 -0.05301739 -0.0059275455 -0.01963791
0.05518066 -0.035681773 -0.021958167 0.068464205 -0.067167476 0.013576807 0.015751746 -0.06308232
-0.056682337 -0.060922366 -0.07907365 0.025336906 -0.0077146897 -0.0067000566 0.07093481 0.06270645
-0.04426216 0.061084475 -0.016866345 -0.0073698037 0.08729558 -0.075517096 -0.081949286 0.046909112
-0.06279167 0.038062453 -0.07745748 0.066384315 0.065082125 0.07294879 0.06383436 -0.041096315
0.022210393 0.07545761 0.07906972 0.075268246 -0.042449977 0.063216925 -0.021142641 0.005100952
-0.07487755 -0.053565383 0.04205303 -0.024893176 -0.038247883 -0.08083868 0.03381085 -0.07823588
-0.011781794 -0.08633072 0.0342159 -0.023984483 -0.060242962 -0.06865509 0.021159131 0.039164543
0.07474527 -0.04052641 0.069434665 -0.026794218 0.06412112 -0.058666002 0.014804387 0.03459837
-0.06905626 0.06634162 0.036459878 0.08281877 -0.06793294 -0.06369262 -0.004311 -0.043332953
0.04552072 -0.039179653 -0.009456953 -0.07700742 -0.00074854615 0.07458995 0.030692032 -0.052441243
0.07981094 0.039721448 -0.03373346 0.054292716 -0.024817163 -0.08425233 -0.067571715 -0.061582677

conv.4.bias f4 [128]
00000000: 1d51 60bc 369d ddbb 62a0 06bc f912 51bd
00000010: 5bb4 1cbd f359 b13b 9982 efbc 14a6 23bd
00000020: 0ea5 413c db66 37bc 58e4 9fbc cdc8 db3c
00000030: 3c51 d13c 473a 67bc 7f1f afbc 4cc6 3e3d
00000040: 614b 62bb e1a8 17bc a20a 98bc 85e6 823d
00000050: 1475 76bc f413 563d dca2 e3bb f064 c3bb
00000060: e5b3 7bbc f121 21bd 3e2f c9bc a5cb 4b3d
00000070: cf4b 05bd 416c c1bb 5fa7 733c ece4 3e3d
00000080: a2d0 073d 0c86 93bd ada9 8cbb c929 29bd
00000090: 2988 943d 9ef4 f039 b7ab 133c c3d3 71bd
000000a0: cf34 cfbc 9731 9b3d 5acd 8d3c d779 023d
000000b0: 75d4 7c3c 41bc fc3c c618 03bc 2e84 4e3d
000000c0: c297 b13b a1c0 763b 60a5 14bc 9616 ba3c
000000d0: 0f47 a8bc 3425 29bc 230d 4abc 467c d4bb
000000e0: 5cfd d4bc 886d b53c 3338 df3b 51a9 323d
000000f0: b483 4a3c 408d fc3c a889 e83b 984d 40bd
00000100: bf2a 7dbd 8674 493d 7b9a 12bd 1022 0bbc
00000110: 101a 16bd 6fe9 7d3b 13ee 333d 787f 84bc
00000120: 79b0 ea3c a46a 813d ea19 81bd 0c7a 7d3b
00000130: 3f00 c53a 8937 0b3d ebeb 69bc 64aa f839
00000140: 42f3 10bc de40 8dbc b394 b1bb 0172 e53c
00000150: 5ceb 9b3c e586 083d 0a20 adbc ca67 cebb
00000160: ab2b c0bc 7c42 e53c c0ce ce3c c116 6bbb
00000170: 4838 0ebd 283e ba3a 26b8 3a3c ee00 5b3c
00000180: a44e 80bd e9ab 41bb a48b 24bc 6a65 8cbd
00000190: 0fba 863c 4f58 603d 091e a8bb 40a3 3d3c
000001a0: 17e6 433b d61d 05bd 8ec1 8f3a 8580 303c
000001b0: 8d5c e0bc 12f4 bdbc af01 433c 6cbc 42bc
000001c0: 231d 403b 1301 80bc 264b f93c 75a4 c3bb
000001d0: 3e35 9a3c cfaa dd3a 2fd0 e7bc e726 a63b
000001e0: cde7 863d 6fa4 983d ba1b c33b 5274 823c
000001f0: c82d b43c 1966 a0bc b463 163c 651d b0bc
-0.013691214 -0.006763126 -0.008216949 -0.051043484 -0.038257938 0.005412334 -0.029237079 -0.039953306
0.011819137 -0.011193956 -0.019518062 0.026829148 0.02555143 -0.0141130155 -0.021377323 0.04657583
-0.0034529793 -0.009256572 -0.018559758 0.06391624 -0.015042562 0.052265123 -0.0069469046 -0.0059629604
-0.015362714 -0.03933901 -0.02455866 0.049754757 -0.032543 -0.0059027974 0.014871447 0.046605036
0.033157952 -0.07203302 -0.004292688 -0.041299615 0.07252533 0.0004595862 0.009013108 -0.059039842
-0.025293736 0.07577818 0.017309833 0.031854477 0.015431513 0.030851485 -0.008001512 0.050419025
0.0054197023 0.0037651437 -0.009072632 0.022715848 -0.020541696 -0.010323811 -0.012332234 -0.006484541
-0.025999717 0.022146955 0.0068121194 0.043618504 0.012360502 0.030829072 0.007096488 -0.046949
-0.061808344 0.04918339 -0.035791855 -0.008492008 -0.03664595 0.0038743874 0.043928217 -0.016174063
0.028648602 0.06319168 -0.06303771 0.0038677482 0.001502998 0.03398851 -0.014277439 0.00047429197
-0.00884706 -0.017242845 -0.0054193377 0.028008463 0.019033127 0.03333177 -0.021133441 -0.0062989937
-0.023458323 0.027985804 0.02524507 -0.0035871717 -0.034721643 0.0014209198 0.0113964435 0.013366921
-0.062649995 -0.002955193 -0.010043059 -0.06855281 0.016446142 0.054771718 -0.0051305336 0.011574566
0.0029891783 -0.032499157 0.0010967718 0.010772829 -0.027387882 -0.02318767 0.011902257 -0.011885744
0.0029314242 -0.015625512 0.030431341 -0.0059705325 0.018824216 0.0016911867 -0.028297512 0.0050705555
0.06587181 0.07453238 0.005954233 0.015924606 0.021994486 -0.019579934 0.0091790445 -0.021498391

fc.0.weight f4 [256, 256]
00000000: 5810 69bd 6694 19be 78f8 e2bd 3c4a 6a3c
00000010: 5b6b 57bd 77c8 cbbc 9831 a93c a7e3 8bbd
00000020: dbd5 d4bc eeab 85bd f302 963d a079 b13d
00000030: ef47 6e3c 602b 013e 942c e9bd 4dba 61bd
00000040: d9c4 5d3d 3ccc 8f3c f4b4 f3bb def9 f1bc
00000050: d80e ec3d 2647 f53d 55ee 063e 23b2 093e
00000060: bbdd ab3d d074 463d 85f9 c1bd 285f 96bd
00000070: 2e7b 463d 9ed0 453c 7e2c 38bc 29da 133d
00000080: 4404 073d 58cf 7dbd 79d4 0a3c 01f1 173d
00000090: 715a e1bd ca25 f4bd e5ae 2c3d a2a0 ea3c
000000a0: b892 423b 7d2c 87bd 9345 9cbc d806 b13c
000000b0: 0960 86bc 6188 85bd 69e0 f3bc 35f9 26bd
000000c0: 45e7 793d e546 533d 8e67 5bbc 5162 b0bc
000000d0: 9450 463d e444 dabc 3aa8 913d 2ac5 4c3d
000000e0: ab92 5ebd aeb5 11bb 87c1 81bb e03f ed3c
000000f0: e0c4 583d b0de 0e3e fc67 b43c b164 6c3d
00000100: d295 86bd 77bb 81bd 8658 abbd e579 bc3b
00000110: 5336 e7bd 79f2 1ebe 43d3 89bd e794 a5bd
00000120: 8f0a 8fbc 35bf 11bd 901d ddbd a66d 11be
00000130: af9b cfbd f690 b3bd 4732 363c 9e3f b4bc
00000140: 508a 963d 6a58 693d d0e7 3a3c c526 413c
00000150: 0ef6 713d 5dfc 81bc 9ee9 043e 4ed4 163d
00000160: 8f94 0e3e e857 2a3d af32 413c 7b75 843c
00000170: 531c 813d cf8a 033d f7b7 fcbc 2fa1 ca3c
00000180: 0b3a 023d 36e3 163e 9872 b93b a1ae b8bc
00000190: fe8c 2b3e 99b4 b63d b4d0 523c f8bb b73c
000001a0: 4181 89bd 1515 8ebc 6867 6a3d 49b5 a33d
000001b0: 3acf d1bc b023 953c 7e0b ae3d 9a92 003c
000001c0: 9aec f9bd 19f7 61bd 56e8 3cbd 58bd 5f3c
000001d0: c685 453c 8d7c e53c 74ce a93b dab3 623d
000001e0: fe53 983d 28b9 dc3d 4681 0a3d efba 5c3c
000001f0: 3804 233d c13a 62bc 80ac c6bd 13a0 4abd
00000200: 75c7 8ebd 9349 f93c 2880 1f3d e8b2 3f3d
00000210: d263 1fbd f940 79bd 6017 fc3c fbb0 173d
00000220: e187 05be 1353 08be 8bfe a9bb 1ec2 d4bd
00000230: 3ffa 96bc e4d6 37bd f1cf 92bc 74b8 91bc
00000240: 2838 97bc cf2f 07be f649 e13c dbdf a83b
00000250: d70d 5abd 481e 663b c173 1c3d b8ea 01bd
00000260: 7958 e0bd b526 e6bd 9e24 2b3d 37e3 003d
00000270: f266 15be 9bcd 6fbd 086a 903d 7491 f03d
00000280: 1b03 e43d 9584 b23d cf5b dabc d5d8 adbd
00000290: 0400 eebc 4c11 7cbd 7446 843c a5bc b43d
000002a0: 059c c23d f4ab b73d 3191 c83d c587 e63d
000002b0: e5f4 eebd 4be4 febd bcd7 cc3c 6c0a ee39
000002c0: dd13 5ebc 0e71 e6bc c60a 853c 389e 9b3c
000002d0: 06ec 3f3d 3a97 133e db30 a13c 25ee 093e
000002e0: d77f 7ebb d68b 81bc 89cd 6cbd 7b9a 9abc
000002f0: d67c 00bd cb4f 393d 9b78 9b3c 1bfb b7bc
00000300: 236c 273d 2047 943d 4680 0fbd 8398 813b
00000310: 8716 a03d f8f3 863d 484b 48bd f42a f53c
00000320: 83fa a6bc abd1 993d 3d26 043e 811b 9d3d
00000330: 0e9f ecbc 0956 0fbd 5638 263d 86c3 adbc
00000340: 6ac1 c9bd a3d3 38be 5a0a c93d f79c a63c
00000350: 4146 42bd 0e15 f6bd d3be 18bd 3d26 903d
00000360: 0943 47bd 56b3 abbd 6d22 ec3c f9ba e73d
00000370: 2219 d43c 5717 633c f411 d5bd 02fd 1abe
00000380: 750a ac3c 77e7 f6bb 2c40 5b3d b6f7 903d
00000390: 195a 1b3d a743 6e3d 9c2f ccbd b838 1cbd
000003a0: 4247 e9bd f16c d8bd 3873 973d 616a 133d
000003b0: b256 2abe 95a3 1bbe d9eb f83d 52c1 973d
000003c0: 0397 343d ba0b 593d d008 f73b 89a8 13bc
000003d0: 738b 323d fe39 283d ba8e 9d3d 82e8 013b
000003e0: 9323 0cbd bd40 143d ac7a dbbd 828f c4bd
000003f0: 3913 12be ad43 a0bd 6246 2ebd 0273 1a3b
-0.056900352 -0.14998016 -0.11082548 0.014299925 -0.052592617 -0.024875863 0.020653531 -0.068305306
-0.02598088 -0.065269336 0.07324781 0.08665776 0.0145435175 0.12614202 -0.11385456 -0.05510931
0.054142807 0.017553441 -0.007437343 -0.029538091 0.11526269 0.11976461 0.13176854 0.1344686
0.08391901 0.048451245 -0.0947142 -0.07342368 0.048457317 0.012073664 -0.0112410765 0.036096726
0.032963052 -0.061965317 0.008473509 0.037095074 -0.110035785 -0.1192127 0.04215898 0.028641049
0.0029689502 -0.06600282 -0.019076144 0.021609709 -0.016403215 -0.06520153 -0.029770093 -0.040765006
0.06101157 0.051581282 -0.013391389 -0.021531256 0.04841669 -0.026644178 0.07112165 0.049992718
-0.054339092 -0.0022233534 -0.003959838 0.028961122 0.05292213 0.13952136 0.02202224 0.057713214
-0.06571545 -0.06334584 -0.08366494 0.0057518356 -0.112896584 -0.15522183 -0.06729748 -0.080850415
-0.01746109 -0.03558274 -0.10796654 -0.14201984 -0.10137116 -0.087678835 0.0111203855 -0.022002991
0.073506 0.056969084 0.0114078075 0.0117890285 0.059072547 -0.015867407 0.12979743 0.036823563
0.13923858 0.04158774 0.011791869 0.0161693 0.063042305 0.0321148 -0.03084944 0.024735061
0.031793635 0.14735112 0.0056594126 -0.022544207 0.16753003 0.08921165 0.0128671415 0.022428498
-0.06714106 -0.017344037 0.057227522 0.07993562 -0.025611509 0.018205494 0.08498286 0.007847453
-0.12203331 -0.05516729 -0.04612001 0.013655983 0.01205582 0.028013492 0.005182082 0.0553473
0.07437895 0.10777503 0.03381469 0.013472303 0.039798945 -0.013807953 -0.097008705 -0.049469065
-0.06971637 0.03043059 0.03894058 0.046801478 -0.038913555 -0.06085298 0.030772865 0.037034016
-0.13040115 -0.1331294 -0.0051878146 -0.103885874 -0.018429874 -0.04488267 -0.01792142 -0.01778815
-0.018459395 -0.13201831 0.027501088 0.005153639 -0.053235855 0.0035113264 0.03819633 -0.031717986
-0.10954375 -0.112378515 0.041782968 0.03146669 -0.14590052 -0.05854569 0.07051474 0.11746493
0.11133405 0.08716694 -0.026655106 -0.08488623 -0.029052742 -0.061539933 0.016146876 0.088250436
0.095024146 0.08968344 0.09793318 0.11256365 -0.11667804 -0.12445887 0.025005214 0.00045402662
-0.01355454 -0.02813008 0.016240489 0.018996343 0.04685595 0.14413157 0.019676616 0.13469751
-0.0038833523 -0.01581375 -0.0578132 -0.01887249 -0.031369053 0.045242112 0.018978408 -0.022458604
0.04087461 0.072401285 -0.03503444 0.0039549484 0.07816797 0.06589502 -0.04889992 0.029927708
-0.020383125 0.07510694 0.12905212 0.076712616 -0.028884437 -0.03499416 0.04058107 -0.021211397
-0.09851344 -0.18049483 0.098164275 0.020338519 -0.04743028 -0.120157346 -0.03729136 0.070385434
-0.048647914 -0.08383815 0.02882501 0.11314959 0.02589089 0.013860545 -0.10403815 -0.15135577
0.02100108 -0.007534917 0.053527996 0.07078497 0.03792772 0.058169987 -0.09970018 -0.03814003
-0.113905445 -0.10567654 0.07395023 0.035990123 -0.16634634 -0.1519912 0.12154359 0.0740992
0.04408933 0.0529897 0.0075388923 -0.00901235 0.04359002 0.04107093 0.076932386 0.0019822423
-0.034213614 0.03619455 -0.10716757 -0.095976844 -0.14265145 -0.07825408 -0.04254759 0.0023567085

fc.0.bias f4 [256]
00000000: 90cc 8c3d aecb 30bd 3c4f b8bb 9e84 ce3d
00000010: 168b d13c 7903 4abc b563 6bba 87f4 32bc
00000020: 1439 803c 477e f13d 3957 c43d 8887 1a3d
00000030: ec13 1a3d 2888 9d3d da23 04bc 9262 45bd
00000040: 5a59 ce3d 91f6 8cbc fa85 d03b b3e3 573d
00000050: 5cc6 4cbb b46c c33c fedb 29bd 3de3 e2bc
00000060: 6358 203d 3798 5a3c 9500 59bd 88ee 873b
00000070: 18e3 513c e241 8abd 1b93 c63c f780 793c
00000080: b046 ae3c b99f 2bbd af2f a43c 17d1 a63d
00000090: 4684 c3bc 3486 1fbb a3c6 253d a480 62bd
000000a0: c2b1 0fbb b888 e33c 1425 7fbb 108f b33d
000000b0: 2e0d 893d a837 c13c b2d1 6e3d 73f8 c43d
000000c0: 6ad9 513c 2b5e 9a3d 3601 a53d a818 ebbc
000000d0: 3962 52bd 7828 59bd 0965 2a3d f1fe 0a3d
000000e0: 6d08 143c 37cc ab3d 8b28 8c3c ea29 5dbc
000000f0: 81c3 dfbb 3692 7b3d 536d ba3d 85b1 dcbc
00000100: 7280 2ebc b086 ba3d 858b 17bd b29b 71bd
00000110: 231b 3a3d e948 f7bb 2d01 a33d 6fa6 343d
00000120: 1f1b 863d f0ad 9ebc 215a dd3c fa97 803d
00000130: 0e90 54bd a3fa 853d 5322 643c 81e6 d2bc
00000140: dc58 22bc bd64 f43c 9ef4 01bd 230c 403c
00000150: dcf0 5ebd c61d 75bd 0a83 84bc 6086 7cbd
00000160: 33a9 5cbc 20a3 6bbd c0ab d43d 323a 7f3d
00000170: 2c87 b33c 886c 95bb b37e f73c 2708 1cbc
00000180: 288a 35bd 0b45 3d3c 2b8e 7cbd fcf2 343d
00000190: 9fab 9c3c a50a 43bd 1c77 943d 3457 3b3d
000001a0: 68dd 983d d7bb ff3c 6506 f13c abd5 11bd
000001b0: a4a0 68bd 8a31 0f3d 7b60 12bd 6ee2 6dbd
000001c0: 5bf5 3b3d b36a 5b3d fef1 b9bb b334 8abc
000001d0: 0cd9 a5bc 1d2c 0dbd a3da 50bc 03f5 9fbc
000001e0: 4961 4b3d da1a 68bd 8937 3c3d e3a0 1abd
000001f0: 4c80 293d 5852 ac3d 5442 1fbd 18a0 f53c
00000200: ea6a 723b 0ff8 68bd e4ab 57bd 0d57 6b3d
00000210: 6646 2dbd 167d 933d b728 493d d109 4d3c
00000220: 7fd0 c63d d648 62bd 284c b53b eb5a 143c
00000230: a9ed a6bc 7bac 6a3c bafc 2a3d 2a3f 0ebd
00000240: 9210 76bd 4d10 d5bb 7ece 353d 23cb e5bb
00000250: b395 803c 7cf4 8cbc e4a4 09b9 94f3 a43d
00000260: e19a b83d 30ad 3cbd 7f76 fc3c 60a9 1a3c
00000270: 8d85 79bc ff3d 9dbc f170 863d eadb 68bd
00000280: d06e ed3d 324f 0d3d dd94 8a3b af24 e83d
00000290: 98ea f63c 477d 023d ba62 76bd e686 39bc
000002a0: 81d8 993c b112 a23c ea61 ed3c 09af d4bc
000002b0: 714e 69bd 6ea0 153d b811 d1bc e919 8abc
000002c0: b28b 903d d42f 6ebc 942a 2d3c b518 56bd
000002d0: 74d6 3dbd 56ac a03d 85e4 333d c4b0 673d
000002e0: 3f22 143d eb17 d8ba a4c4 093d 739c 093d
000002f0: cc59 003d 653e e8bc c801 393d 1f95 b03d
00000300: db58 ce3a e004 5fbd 3c1e 983d 8f71 4fbd
00000310: 5fdc e7bc b948 14bc ca09 32bd e3a5 343c
00000320: 0050 86bc 0ba1 febc 5359 2ebb e8bd 19bd
00000330: cfa8 953d 3222 47bc 026e 57bd 1774 8cbb
00000340: fdd3 4e3d 70af b23d 102d 98bb cce4 753d
00000350: 4db0 983c e5fe 193d 13f1 223d e78e 833d
00000360: c21a e5bc caba aa3c 785b 38bd 105b 70bd
00000370: 8f7c 023d 56a9 013d a387 aa3d bdd3 b73d
00000380: 86b4 4bbd 4130 9e3c 939b 5dbd efdd 2cbd
00000390: b334 8bbd 230b 963d 3056 5e3d daae 403d
000003a0: 849e 13bc 5f1e 0d3d 1111 b63d 60d8 3c3d
000003b0: d686 773d 919b 8f3b 6e63 e7bc 40cf 03bc
000003c0: 00ed 68bc aec0 1dbd 526a 903d 26e0 a63d
000003d0: 57d2 263d 955e da3d b4e5 c53d 5cd5 813d
000003e0: bfb4 b83d e1d5 3abc faa4 1b3b f75b 99bc
000003f0: 6dfe 863d 1dd0 693d 2e45 a2bc 6843 53bc
0.06874955 -0.043162994 -0.00562468 0.100838885 0.025579017 -0.0123299295 -0.0008979396 -0.010922558
0.015652217 0.117916636 0.09586949 0.03772691 0.037616655 0.07691985 -0.008065188 -0.048189707
0.10075636 -0.017207416 0.0063636275 0.052707385 -0.003124616 0.023855545 -0.041469567 -0.027696246
0.039146792 0.013341955 -0.05297907 0.004148308 0.012810491 -0.067508474 0.024240067 0.0152285015
0.02127394 -0.04190037 0.020042269 0.081453495 -0.023866784 -0.0024341466 0.040472638 -0.055298463
-0.002192602 0.027775154 -0.0038932012 0.087675214 0.06691967 0.02358611 0.05830545 0.096177004
0.012808183 0.07537492 0.080568716 -0.02869828 -0.051363204 -0.05301711 0.04160026 0.033934537
0.009035212 0.0838856 0.017109176 -0.013498763 -0.006828726 0.061418734 0.09102883 -0.026940117
-0.010650741 0.09107721 -0.03699829 -0.058986373 0.045436036 -0.0075465334 0.07959209 0.044104036
0.06548142 -0.01937005 0.027020516 0.06278987 -0.051895194 0.06541946 0.013924199 -0.025744678
-0.009908881 0.029833192 -0.031727426 0.011721644 -0.05442892 -0.059842847 -0.016175766 -0.061651587
-0.013468075 -0.057528615 0.10384321 0.06231136 0.02191504 -0.004560057 0.030211782 -0.009523428
-0.04432121 0.011552106 -0.06165902 0.04417704 0.019124804 -0.047617573 0.07249281 0.04573746
0.07464105 0.031217499 0.029421994 -0.03560416 -0.056793824 0.034959354 -0.035736542 -0.05807727
0.045888286 0.053568553 -0.0056745997 -0.016870832 -0.020245098 -0.034465898 -0.01274744 -0.01952601
0.049653325 -0.056666233 0.0459514 -0.03775109 0.04138212 0.08414143 -0.038881615 0.029983565
0.0036989995 -0.056877192 -0.052654162 0.057456065 -0.042303465 0.072015926 0.049111094 0.012514547
0.09707736 -0.055245243 0.00553276 0.00905488 -0.020376997 0.014323349 0.041744925 -0.034728207
-0.060074396 -0.0065021873 0.04438638 -0.007012741 0.015696382 -0.017206423 -0.00013126765 0.08054271
0.09013916 -0.046063602 0.030818222 0.009439796 -0.015229595 -0.019194601 0.065645106 -0.05685035
0.115934014 0.034499355 0.0042291717 0.11335122 0.03014116 0.031857755 -0.060152747 -0.011323666
0.018779995 0.019784303 0.028977353 -0.02596237 -0.056959573 0.03652995 -0.025521144 -0.016858058
0.07057895 -0.01453777 0.010569233 -0.052269656 -0.046347097 0.078453705 0.043919105 0.05656506
0.036165472 -0.001648662 0.033634797 0.033596467 0.031335637 -0.028350065 0.045167714 0.086221926
0.0015743034 -0.05444801 0.07427642 -0.050645407 -0.028303323 -0.009050542 -0.043466367 0.011025879
-0.016395569 -0.03108265 -0.0026603534 -0.037534624 0.07307588 -0.012154149 -0.052595146 -0.0042863
0.050495137 0.08724868 -0.0046440437 0.06003265 0.018638754 0.037596602 0.039780688 0.06423741
-0.02796686 0.020841021 -0.045009106 -0.058680594 0.03185707 0.031655632 0.08326652 0.08975933
-0.049732707 0.019310119 -0.054103445 -0.04220384 -0.06797161 0.07326343 0.054281414 0.04704175
-0.009009961 0.034452792 0.08889974 0.04610479 0.060431324 0.0043825586 -0.028245654 -0.008045018
-0.014216661 -0.03851383 0.07051529 0.08148222 0.04072794 0.10662571 0.09662953 0.06339523
0.090188496 -0.011403532 0.0023749457 -0.01872061 0.065914966 0.057083238 -0.019808378 -0.012894489

fc.3.weight f4 [1, 256]
00000000: 765d e43d d05c 333d c11d bb3c 804d 973d
00000010: dc38 22bd b3ea b8bc 4d0c 2bbd 2b27 20bd
00000020: b00a 96bc 277b c53d aa6b f83d 706e 6fbc
00000030: e8c0 86bc 7fd8 bd3d d68a 9ebd f1a8 933c
00000040: beb9 1a3e ad67 f13b b422 53bd 32d6 d73d
00000050: fd34 29bd 558f fbbb 8af3 643b 34b0 95bc
00000060: d2b5 28bd 5fc2 9eba baa9 fe3c 0341 5a3b
00000070: 50c3 edbc 8319 41bd 9ef1 573e 0ddd e83a
00000080: aa9b 89bc 9ce7 65bc 1ae1 1abd c876 143e
00000090: e0fc b5bc 2551 813b bf3e 213e 92b0 8e3c
000000a0: 21a5 003c b876 be3c 4788 3f3b 55ca b33d
000000b0: c46d 053e 3d4c 72bd 0f95 0a3e 79a8 d23d
000000c0: a136 143d 87a9 d13d 63b6 d53d db39 4039
000000d0: e723 d9bc cac4 243d 29bc 403d aa6a 383e
000000e0: 43bc cdbc 3251 e13d a961 d33d f172 313c
000000f0: cf7a 0f3b afd1 373e 71a0 e13d 0c43 c83c
00000100: af41 943b 1a68 d63d 3a19 0bbc 0eaa 4c3d
00000110: 1a5f 703d 4b17 a8bc bb47 b33d ca00 123e
00000120: 0507 ac3d 2b2c 45bc eb32 ffbc c5dd 033e
00000130: 565e c63c 525a cb3d a066 1cbc 8d7a 87bb
00000140: a6bb f8bc 0461 36bd a90d 463c 1929 243c
00000150: 9a80 99bc b512 43bd c437 503c 8646 f13c
00000160: ae7d f13c ccaf 58bd 0fc9 bc3d 2465 dc3d
00000170: b4f8 0d3e 2bea 51bd 097f e53d 3c1e 3ebd
00000180: e219 18bd a2cd b3bd f5b7 35bd 5887 49bd
00000190: a864 253e 14ae 24bd a034 cf3d 5a13 443e
000001a0: a783 cc3d 785a d5bc 0ce4 e7bb 15fd 38bc
000001b0: a30b 013d 968b 40bd e421 4bbd fa87 b0bb
000001c0: 8a5b 233e 8744 643e f7dd 95bc 900a 113c
000001d0: e13e 0f3c 5814 1dbb 33ce 98bd aa2f 4dbd
000001e0: 25f3 dcbc 721a 293d 7763 073e 5c04 78bd
000001f0: d177 be3d 0238 ca3d 7c75 6c3d 89d4 50bd
00000200: da9c 293b 2310 283c d8c6 1d3d a1d9 ed3d
00000210: 0644 f2bc 9c1a 1c3e fbb3 0d3d aac4 a6bc
00000220: c5cf 013e 5dc7 3a3d 7bd2 80bd 707b a6bb
00000230: 6e9b 05bd fbd9 5fbc 8d13 193e 023a 21bd
00000240: ca67 13b8 bea6 63bd 1690 d1bc 9dd4 3fbb
00000250: f78d 603d 6f7c 233c dffe 5fba d274 0f3e
00000260: 3f1f e63d 582d b13c bccb ccbc dde6 3ebd
00000270: 08f3 053b 3aba ec3c 5019 bf3d 4c8c 45bd
00000280: 2195 c43d e402 d1bd 41f9 123b f183 1a3e
00000290: 5eb9 dbbd 3839 4c3e d4d7 653d 99e5 39bd
000002a0: a26a d0bc dcf7 a3ba 5648 70bc d700 37bd
000002b0: 4c91 6dbd da85 0ebd c431 613d 41a5 5f3d
000002c0: cfe6 bd3d c476 523d 6020 453d 6703 af3c
000002d0: e220 96bc 369f b73d 3f85 92bc 7db4 0a3e
000002e0: 371d edbb 94d0 023e b9ab 6fbd fdfb 30bc
000002f0: c07d 8c3b b6dd 9fbc d054 4cbd 5198 9d3d
00000300: 58dd ee3c ca1a 92b9 b7fb bc3d 34d3 e03c
00000310: 9aff c4bc 20d7 18bb 383c 6abd be61 7bbd
00000320: e1ba 16bd b93e 1d3d 9d83 4a3d c130 f63c
00000330: 3ab0 983d 63eb 04bb 1043 363c c8a7 57bd
00000340: 8569 04bd 9d05 ba3d e05c 913a d28e 3f3e
00000350: 2da5 2dbb c21f 63bd 9abe 033e 22aa b23d
00000360: d10a 133d eea0 b03d b003 00bc 0ad4 6dbd
00000370: c71b 933c ea01 9ebd 0c66 d53d 96e5 b13d
00000380: f7ef 5abd 144e 7fbd 29ce 1c3d a2c5 9dbb
00000390: 7238 223d 52cb 043e 0312 873d d40c f8bc
000003a0: 7be0 c23c cdbe 0dbd 8cc2 b83d c190 fe3d
000003b0: ad2f e03d e5aa c7bc 340b 4bbc a0a8 e33c
000003c0: d37c b0bb 0e72 06bd 776c bb3d 0a60 af3d
000003d0: c191 9ebc b079 993d 6226 aa3d b70f 023e
000003e0: 48ee 223e 36f7 a23c 6a03 26bd c05b 033d
000003f0: 600b 023e e29e 973d ce03 e8bb 5182 ea3a
0.11150639 0.043789685 0.022841336 0.07387829 -0.039605007 -0.02257285 -0.041759778 -0.039099853
-0.018315643 0.0964263 0.1212991 -0.014613733 -0.016449407 0.09269809 -0.077413246 0.018024893
0.15109918 0.0073670954 -0.051546767 0.105389014 -0.0413103 -0.0076769986 0.00349352 -0.018272497
-0.041189022 -0.001211237 0.031086791 0.003330291 -0.029023796 -0.04714347 0.21088263 0.0017766074
-0.01679786 -0.014032271 -0.03781233 0.14498436 -0.022215307 0.0039464408 0.15746592 0.01741818
0.00785187 0.023249969 0.0029225515 0.08778826 0.13030154 -0.059154738 0.13533424 0.1028604
0.03618491 0.10237413 0.10435178 0.000183321 -0.026506377 0.040226735 0.047054444 0.18009439
-0.025114184 0.11001815 0.103213616 0.010830627 0.0021893268 0.17951082 0.1101693 0.024446033
0.0045244317 0.104690745 -0.008489901 0.049966864 0.058684446 -0.02051892 0.08753916 0.14258114
0.08399776 -0.012034456 -0.03115221 0.12877567 0.024214905 0.099293366 -0.009545952 -0.0041344822
-0.030362915 -0.044526115 0.012088218 0.010019564 -0.01873808 -0.047625262 0.012708608 0.029452574
0.029478874 -0.052902028 0.092180364 0.107614785 0.13864404 -0.05124871 0.11205871 -0.046415552
-0.03713406 -0.08779456 -0.04436489 -0.04920134 0.16151679 -0.040205076 0.10117459 0.19148007
0.09986048 -0.026044115 -0.007076746 -0.011290808 0.03150524 -0.04700812 -0.049592867 -0.0053873034
0.15952888 0.22291766 -0.018294318 0.008852616 0.008743019 -0.0023968425 -0.074612044 -0.050094284
-0.02697141 0.041284986 0.13221537 -0.060551032 0.09300197 0.09873964 0.05772923 -0.05098394
0.0025880844 0.010257754 0.03851971 0.11613775 -0.029573452 0.15244526 0.03459547 -0.020357449
0.12676914 0.045600284 -0.06290146 -0.005080633 -0.032618932 -0.01366281 0.14948864 -0.03936196
-3.5144192e-05 -0.05557894 -0.0255814 -0.0029271015 0.05482289 0.009978398 -0.00085447537 0.14009407
0.112364285 0.021628067 -0.024999492 -0.046606887 0.0020439047 0.028897393 0.09331 -0.0482295
0.095987566 -0.102056295 0.00224264 0.15089394 -0.10728715 0.19943702 0.056114033 -0.045384977
-0.025441471 -0.0012509781 -0.014665684 -0.044678535 -0.057999894 -0.03479562 0.0549791 0.054600958
0.09272539 0.051382795 0.04812658 0.021363927 -0.018326227 0.08965914 -0.017885802 0.13545413
-0.0072361487 0.12774879 -0.058513377 -0.010802266 0.0042874515 -0.0195149 -0.04988557 0.07695068
0.02915828 -0.0002786725 0.09227698 0.02744446 -0.024047662 -0.0023321584 -0.057186335 -0.06137251
-0.036799315 0.038389895 0.049441922 0.030052545 0.074554875 -0.0020281903 0.011124387 -0.052650243
-0.032327194 0.09083102 0.0011090301 0.18706825 -0.0026496158 -0.05545021 0.12865677 0.087238565
0.035898987 0.08624445 -0.007813379 -0.058063544 0.017957581 -0.07715209 0.104198545 0.08686368
-0.053451505 -0.06233032 0.038282547 -0.0048148194 0.03960461 0.12968186 0.06595232 -0.030279554
0.023788681 -0.03460579 0.09021482 0.12429953 0.109465934 -0.024373481 -0.012392808 0.027790368
-0.005385974 -0.032823615 0.091515474 0.0856324 -0.01935661 0.07493913 0.08308102 0.12701307
0.1591121 0.01989327 -0.0405306 0.03206992 0.12699652 0.07403351 -0.0070805317 0.001789162

value_head.weight f4 [1, 256]
00000000: c720 81bd c788 8c3d 66ac 5b3c 6599 98bc
00000010: f770 c4bb ea37 a93b 5a87 28bd 1126 123d
00000020: 2597 4b3d d615 583c 9678 ee3c a4a0 fcbc
00000030: 661d 85bd 2421 8a3d 9bd6 83bc a9f8 c43c
00000040: 3108 45bd 8356 443d 65f2 28bd aa0d 2b3d
00000050: f98e 40bd 0a6c 443d b29c 4d3d 0bda 70bd
00000060: 73c1 f53b f473 e9bb 0224 18bd 59ba 173d
00000070: 52fe 593c 9604 58bc 51ab 2abd 90ba cfbb
00000080: 0c67 0b3c 0e10 46bc ce3e f53c 84e4 f7bc
00000090: fcd1 2d3d 82b3 b2bc c100 91bc f459 11bd
000000a0: acf6 203c e1be 42bc 8935 e83b 60c9 15bc
000000b0: 7c30 be3b 3653 d6bb c6dd 753c f7b4 46bc
000000c0: 9994 7dbc 02dd b93c d313 243c 5524 16bc
000000d0: 7aa8 1b3b 864b 09bc d681 81bc 2e9c e63c
000000e0: e8d0 0abc c101 023c 03aa 79bc d4fb 6e3c
000000f0: 630e 05bd 4e30 87bc cd9a b83c db27 bebc
00000100: 570d 283c 9673 b33c dacf 0f3d ca75 8f3c
00000110: 5468 0fbd 0f80 0c3d e074 5f3a 88c5 96bc
00000120: 6fc6 823c 5e99 033d 1e53 7d3c 8e3f a73b
00000130: 03ef febc 5fd8 073d 1a1d bd3c 59e3 263d
00000140: 2e94 42ba 0fa5 c93a 60a2 d43c 7b69 843c
00000150: 1a93 0c3d 9410 15bd 0671 f13b 5836 17bd
00000160: e2fe ac3c ba73 9fbc f2da d63a e381 79bc
00000170: d6b0 91bc e079 8b3c 4b3c b73c 7282 b5bc
00000180: 8922 4b3d 49eb 42bd e736 ad3c 50fe a9bc
00000190: f89c 313d d481 2abd 3de8 133c 589c 16bc
000001a0: ac95 7fbc db0e d43c 03dd 283c 11c0 09bc
000001b0: 2bca 73bc a8cc 453c 9aa5 693c ad3b 66bc
000001c0: f8e3 863c fff5 c4bc 3a3f 9ebc 3ac5 953c
000001d0: 8602 dbbc a75d de3c 0a09 f6bc 0861 003d
000001e0: 4d2a d83b e7cd edbb 091a c13c c8a6 d2bc
000001f0: b488 b4bc 23b0 b43c 2878 be3b a751 01bc
00000200: a3d5 17bd 1aa5 233c 2075 d4bc 2258 cb3c
00000210: 0546 c73c 07bf 3fbc b028 c83b f6f2 dcbb
00000220: 7362 0a3d 71f7 0e3d b6f6 52bd 13fd 533d
00000230: 27fd 10bc e8b4 843c 9899 18bd 08ad 203d
00000240: ec28 2abd 7bc9 163d 2d53 3f3b 2b8a 2cbc
00000250: 8d05 14bd 3128 51bc 6ea8 59bd 773b 5c3d
00000260: 3754 cb3b 7f5c dfbb 6ba2 d73c bcee d3bc
00000270: 93e8 83bd 8b7a 843d 0e99 133c 7e74 e4bc
00000280: d3ba ee3c b7b0 e6bc 0905 7cbc 6c96 7f3c
00000290: 9d39 6fbd 9429 7c3d 50dc 983b da8f acbb
000002a0: 9847 0dbd 3551 bf3c 0ecc ccbb efba 84bc
000002b0: f0d6 b3bc 485c bd3c c541 483c 0c61 cfb9
000002c0: 114e 323d 1dd1 3abd 79eb 0fbc a2fa a03c
000002d0: dc8a 3e3d 15d9 3fbd 850b 0c3d 4577 02bd
000002e0: 109e 35bd 8f5e 3c3d 3336 61bd add2 683d
000002f0: f4bc 17bc 5b55 1b3c fad2 ad3b 3865 dabb
00000300: 8f68 9fba 4469 6abc 0235 e8bc 3c36 fb3c
00000310: 6365 fa3c abec ce3b b899 16bc ac8c 34bd
00000320: 9da3 7a3c 3d88 76bc 2764 293c 65a2 95bc
00000330: 710f ac3c 3c5a abbc e6e4 f1bc 7f02 043d
00000340: 56a5 313c 2a25 19bc 01b5 ddbc 42ee e73c
00000350: 6c11 d2bc 64e5 d83c 2eb0 b13c 722f b3bc
00000360: 0c9e 483c 0da0 53bc 69f4 1abc 6278 2f3c
00000370: e962 0b3d d7a1 0bbd 67bb d83c 433f a6bc
00000380: 55e5 3b3c e9e4 24bc 2961 9e3c 5b2c 9cbc
00000390: 9e3e c93c a047 d8bc c84b 233c c4b0 46bc
000003a0: 0ab6 203c 246a e6bb 702d 6cbd 71ce 7a3d
000003b0: b2ec f73c 87f1 97bc 7a7f 40bd 497f a6bc
000003c0: 0228 fcb9 f06d 783c 1665 3d3c 8450 103d
000003d0: a2f7 3e3d b51e 3cbd a481 a6bc 994b b03c
000003e0: 8c89 19bc 817f 193c 7fb5 7b3b 07b3 0cbb
000003f0: a237 23bd 2773 1f3d 64e1 0dbd 917e ba3c
-0.0630508 0.06862026 0.013407802 -0.018627832 -0.005994912 0.005164136 -0.041144706 0.035680834
0.04970469 0.0131888 0.029110234 -0.030838318 -0.06499748 0.06744602 -0.016093543 0.024044352
-0.048103515 0.047934067 -0.04124679 0.041761078 -0.04701135 0.047954597 0.050198264 -0.058801692
0.0074998676 -0.0071244184 -0.037143715 0.03704295 0.013305264 -0.013184687 -0.041667286 -0.0063393787
0.008508455 -0.012088789 0.029937174 -0.030260332 0.042436585 -0.021814112 -0.017700555 -0.035486177
0.009824436 -0.011886329 0.00708646 -0.00914225 0.0058041196 -0.0065406812 0.015006488 -0.012128106
-0.015477323 0.022688393 0.010014492 -0.009163936 0.0023751543 -0.008379823 -0.01580898 0.028150644
-0.008472659 0.0079349885 -0.015238288 0.014586408 -0.032484423 -0.016502526 0.022534752 -0.023212364
0.010257087 0.021905702 0.035110332 0.01751222 -0.035011604 0.034301814 0.00085241906 -0.018404737
0.015963761 0.032128684 0.015461711 0.005104012 -0.031119829 0.033165332 0.023085166 0.04074416
-0.0007422593 0.0015384274 0.025956333 0.016163578 0.034319974 -0.036392763 0.00736821 -0.03691706
0.021117631 -0.019464362 0.0016392155 -0.015228721 -0.017784517 0.017025888 0.022367617 -0.022156928
0.049593482 -0.047587667 0.021144344 -0.020751148 0.043362588 -0.04162772 0.009027538 -0.009192549
-0.015599649 0.02588599 0.0103066 -0.008407609 -0.014879744 0.01207272 0.014260674 -0.014052314
0.016466126 -0.024043081 -0.019317258 0.018282522 -0.026734602 0.027144266 -0.030033607 0.031342536
0.0065968395 -0.0072572115 0.023571985 -0.025714293 -0.022037841 0.022056645 0.0058126636 -0.007893003
-0.037068974 0.009988094 -0.025934756 0.024822298 0.02432538 -0.011703259 0.006108366 -0.0067428304
0.033785295 0.034903947 -0.051504813 0.051755022 -0.008849419 0.016199544 -0.037255853 0.039227515
-0.041542932 0.03681324 0.0029193864 -0.010530989 -0.036138106 -0.01276593 -0.053139143 0.053767648
0.0062051076 -0.0068164463 0.026322564 -0.025870673 -0.064408444 0.06468686 0.009008659 -0.027887579
0.02914182 -0.028160436 -0.01538206 0.015599828 -0.058404554 0.06156309 0.004664935 -0.005266172
-0.034492105 0.023354152 -0.006249911 -0.016202418 -0.021953076 0.023115292 0.012222712 -0.00039554422
0.04353148 -0.045609582 -0.008784168 0.019650761 0.046519145 -0.046837885 0.034190673 -0.031852026
-0.044340193 0.045988616 -0.05498333 0.05684154 -0.0092613585 0.0094808 0.0053046914 -0.0066648982
-0.0012161898 -0.014307324 -0.028345589 0.03066551 0.030565923 0.006314834 -0.009191923 -0.044079468
0.0152977975 -0.01504713 0.01033882 -0.018265912 0.021003457 -0.02091705 -0.029528093 0.032228943
0.010842642 -0.0093472395 -0.027063848 0.028311852 -0.025643073 0.02647657 0.021690454 -0.02187321
0.012244713 -0.012916577 -0.009457686 0.010709854 0.034029875 -0.03408989 0.026456548 -0.020293837
0.011468251 -0.010064342 0.019333439 -0.01906412 0.024565991 -0.026401341 0.009966798 -0.012127105
0.0098090265 -0.007031696 -0.05766052 0.061232034 0.030264232 -0.018547786 -0.04699657 -0.020324366
-0.00048094994 0.01516293 0.011559745 0.035233036 0.04662288 -0.045927722 -0.02032549 0.021520423
-0.009371173 0.009368778 0.003840774 -0.0021469013 -0.039847977 0.038928177 -0.034638777 0.02276543
