CNN_Closing/Trained Models/model_cnn_6.pth (torch, 156403 bytes, 10 tensors)

conv.0.weight f4 [128, 1, 2]
000000 d7 38 46 3f 07 3f ed 3e 78 bb fd 3e 73 44 17 3f
       0.7743048 0.4633715 0.4955709 0.5908882
000010 a9 8d 01 bf 54 ec 9e 3e 23 11 b9 3e cd 26 06 bf
       -0.5060678 0.3103968 0.36145887 -0.52402955
000020 f0 72 aa 3e 40 a7 35 3f b2 58 a5 be 2c d9 0a 3f
       0.33290815 0.7095833 -0.32294232 0.5423763
000030 d1 fd 31 3f 10 6a 2a 3c 2d e6 e2 bd 25 93 40 3f
       0.6952792 0.010401264 -0.11079059 0.75224525
000040 53 23 4d bf f7 56 1c 3e 4e db 13 bf c3 68 5f be
       -0.80132025 0.1526755 -0.5775651 -0.21817307
000050 7f 57 8e bd 91 69 fc be 00 09 43 3f c9 2e 1d bf
       -0.06950282 -0.4929929 0.7618561 -0.61399513
000060 e1 8f 08 be d7 d5 db be 15 cb ed 3e 77 2f 18 3d
       -0.13336135 -0.42936584 0.46444002 0.03715464
000070 77 49 94 be 90 26 2d 3e fb 4a 4c be e2 42 34 3e
       -0.289623 0.16909242 -0.19950478 0.17603639
000080 42 49 0a bf c1 d3 52 3f 7c d8 47 3f 71 69 17 3f
       -0.5401803 0.8235436 0.78064704 0.59145266
000090 de aa 40 bf c3 2a 85 be d9 6b 23 bf 21 b9 ac be
       -0.7526072 -0.26009187 -0.6383644 -0.33734992
0000a0 b5 aa ce 3e 50 66 ad 3e 18 ab fa be 60 8c 23 3f
       0.40364614 0.3386712 -0.4895866 0.6388607
0000b0 f0 4a 50 be a9 73 ae be fa 4d 6c 3e 32 9d 9a be
       -0.20341086 -0.34072617 0.2307662 -0.30198056
0000c0 b3 72 b3 3d e7 7d 30 bf b6 c4 ac be 59 93 71 be
       0.087621115 -0.6894211 -0.3374383 -0.23591365
0000d0 9c 5b 16 bf 56 ed 72 be e7 77 00 3f 37 22 33 be
       -0.58733535 -0.23723349 0.50182956 -0.1749352
0000e0 0c a0 28 3f 76 d2 35 bf ca 28 af be 4f 7d 90 3e
       0.6586921 -0.7102426 -0.34210807 0.28220603
0000f0 cd 1a 4f bf be 99 45 3f f9 c6 1e 3f 0f 41 0e 3f
       -0.8090027 0.77187717 0.6202236 0.5556802
000100 28 df 2c 3f dd 30 63 3e 6e 59 67 3e 48 b5 18 bf
       0.6752801 0.22186609 0.22592708 -0.59651613
000110 e5 ab 35 bf 7c c5 ca bd 39 7a eb 3e 7d b5 05 3f
       -0.70965415 -0.099009484 0.45991686 0.52230054
000120 eb 11 c0 be 0e 4f 24 3f 45 38 0e bf a3 04 1b bf
       -0.3751367 0.6418313 -0.5555461 -0.6055395
000130 0d 4e 8a bc 27 dc 2b bf 3e 63 dd 3e fd a2 fc be
       -0.01688292 -0.671328 0.43239778 -0.493431
000140 f9 f6 2b bf fc d8 e4 3e 48 cd e8 3e b2 6f 15 3f
       -0.67173725 0.44696796 0.45469117 0.5837356
000150 78 97 09 3e dd 52 a7 be 15 d6 1c bf a4 9e 2f be
       0.13436687 -0.32680407 -0.61264163 -0.1715036
000160 75 12 bb be 21 c4 8c 3c 24 9a aa 3e 57 92 69 3d
       -0.3653752 0.017183365 0.33320725 0.057024326
000170 45 7f ac be cd 75 f5 3c 45 8a 23 3f 87 bd c6 3e
       -0.3369085 0.029963398 0.6388286 0.38816473
000180 36 67 83 3e 4e 34 8f 3e 4d 0c e4 be 83 30 2f bf
       0.2566468 0.27969593 -0.44540635 -0.684334
000190 e1 33 b1 3e 8e db 1c 3e 53 14 26 bf 0b 8f 24 bf
       0.34609893 0.15318128 -0.6487476 -0.64280766
0001a0 74 4e 52 3e 9d 3f 29 3f c3 45 2e be f7 28 46 3f
       0.2053774 0.6611269 -0.170188 0.7740626
0001b0 db 25 50 be 25 36 23 bf f4 01 15 3f 92 18 06 bf
       -0.2032694 -0.63754493 0.58206105 -0.5238124
0001c0 54 82 32 bf b2 85 58 3f 0d 48 65 be 0f 11 22 bf
       -0.69730115 0.84579 -0.22390766 -0.6330728
0001d0 29 f5 05 3f 59 4d f7 3e b2 bd 05 bf a5 35 26 3f
       0.5232721 0.483012 -0.5224258 0.64925605
0001e0 c1 4a b3 3e e2 e8 b2 be 56 00 e4 3d b3 d8 b7 be
       0.3501797 -0.349433 0.111328766 -0.35907516
0001f0 15 d4 c8 bd 50 e3 7a 3e 39 ed 11 bf 18 42 3b be
       -0.098060764 0.24500775 -0.570026 -0.18286932
000200 39 fb 01 bf 4d 34 38 3f 45 b6 b2 3e d0 54 17 bf
       -0.5077396 0.71954805 0.34904686 -0.5911379
000210 ba b1 b2 3e 32 9e 18 3f 77 50 19 bf 64 f7 1f bf
       0.3490122 0.59616387 -0.59888405 -0.62486863
000220 1c 98 c5 be 41 e8 4e 3f 22 95 d4 3e 5b fe 22 be
       -0.38592613 0.8082314 0.4152003 -0.15917341
000230 57 60 ab be 30 aa 1e bf a7 c5 fe be e2 de ae 3e
       -0.3347194 -0.61978436 -0.49760172 0.3415442
000240 f3 6f e8 3b 14 de 0b 3f 3a 62 fd 3e 16 8e 8b 3e
       0.0070934235 0.5463574 0.49489003 0.2725684
000250 bb a2 4d be 52 63 82 be de 89 16 3e a5 41 28 bf
       -0.20081608 -0.254664 0.1470103 -0.65725166
000260 49 20 3a bf ab 10 ad 3e 27 a8 c8 3e 24 39 e8 3e
       -0.72705513 0.3380178 0.3919079 0.45356095
000270 04 6b e3 3e 63 32 4b 3f ed e0 2e 3e 20 cc 95 3e
       0.44417584 0.7937376 0.1707799 0.29257298
000280 48 6f 00 3f b7 f3 8c 3e 18 82 40 be a9 d2 0e 3e
       0.501698 0.2752969 -0.18799627 0.13947548
000290 e0 4b 7b be 84 63 01 bf e8 1b 92 be 58 71 7e be
       -0.24540663 -0.50542474 -0.28536916 -0.24847925
0002a0 a6 ed a5 be d5 2e 19 bf 9e cc 0e 3f 54 17 f6 3e
       -0.32407874 -0.59837085 0.5578097 0.48064673
0002b0 cb c3 8e be 14 1e cc be cb f7 e3 be 52 4c 05 3f
       -0.27883753 -0.39866698 -0.4452499 0.5206958
0002c0 c2 f4 a6 3e 64 f9 96 3e ab 65 67 3f cd 79 55 be
       0.3260861 0.29487145 0.9038951 -0.20847245
0002d0 40 7d 2b bf c3 31 46 3f 5d 4d e0 3e f7 42 19 bf
       -0.6698799 0.7741968 0.43809023 -0.59867805
0002e0 4f 30 45 3f 62 98 af be 26 d4 55 3f a7 49 86 be
       0.7702684 -0.34295946 0.8352684 -0.26228067
0002f0 b5 f7 cb 3c c0 e2 17 bf 37 4d db 3e c3 6b 53 be
       0.02489839 -0.5933037 0.42832348 -0.20646577
000300 54 b2 26 3d 16 de 89 3e 28 97 a9 3e fe 8a fa bd
       0.04069741 0.2692725 0.33123136 -0.12233542
000310 71 7f 27 3e 3c 1d ab bc 37 cd 45 be 47 85 cb be
       0.16357209 -0.020887963 -0.19316565 -0.3975012
000320 72 37 46 be 48 8d 8d be 14 b3 7d be 3d 80 89 3e
       -0.19357088 -0.27646852 -0.24775344 0.2685565
000330 80 0a 0b 3f 88 d9 20 bf 68 18 6d be e2 42 7c 3e
       0.54312897 -0.62831926 -0.23153841 0.24634889
000340 e5 6e 6b 3e a0 13 06 bf 1a e2 99 be de d6 c0 3e
       0.22991522 -0.52373695 -0.30055314 0.3766393
000350 21 b2 dc be 90 6a 8d be 24 7e 54 3f e1 3e 0b bf
       -0.43104652 -0.27620363 0.83004975 -0.5439282
000360 bd 13 22 bf a6 ab 06 be 69 59 a8 3e e5 4f 07 3e
       -0.6331137 -0.13151416 0.32880715 0.13214071
000370 f3 4f 43 3f 59 ce 49 3f b3 36 40 3f c2 b5 d9 3d
       0.7629387 0.78830487 0.75083464 0.10630371
000380 5d 4d 39 bf 74 7d 4b 3f 58 86 19 3f c9 05 0a 3f
       -0.7238367 0.794883 0.5997062 0.5391508
000390 eb 13 37 3f 12 ef 09 be bd d3 86 3d 98 14 26 bf
       0.7151477 -0.13470104 0.065833546 -0.64875174
0003a0 b2 84 35 3f c2 c0 ef 3e ea ce 00 bf 81 63 9b 3c
       0.709056 0.4682675 -0.50315726 0.018968346
0003b0 e6 61 f8 3e c5 ca a9 be 72 f3 26 3f 0a 0e 22 3e
       0.4851219 -0.33162513 0.6521522 0.15825668
0003c0 a2 81 48 3f 15 ad b3 be 2a 1a be 3d 12 22 cb bd
       0.78322804 -0.3509299 0.09282334 -0.09918608
0003d0 ab e1 30 bc 8f a1 28 3f 9f 2c 0c 3f c4 1c 1e 3f
       -0.010795991 0.6587152 0.54755586 0.6176264
0003e0 a1 ce 8f be 18 83 5b 3f 49 47 00 3f 1b ef 24 3e
       -0.28087333 0.8574691 0.5010877 0.16106836
0003f0 eb 10 33 3f b7 99 19 bf 8a 28 03 3f 26 a3 b1 be
       0.6994769 -0.60000175 0.5123373 -0.34694785

conv.0.bias f4 [128]
000000 f5 ca 2b bf 0b f5 3d bd c8 c3 03 3f a0 c1 1b 3f
       -0.6710656 -0.04637627 0.51470613 0.60842323
000010 d3 0b 95 be dc 73 d4 bd fa ad ff 3e c6 b2 d6 3e
       -0.29110584 -0.10373661 0.4993742 0.41933268
000020 2a 40 dc be ed ab a4 3e bf d1 21 3f 1d d1 fb 3e
       -0.43017703 0.3216242 0.6321067 0.49182978
000030 46 1f 20 bf 87 7f 1a bf 99 6d 05 3f 5a 90 33 3d
       -0.6254772 -0.6035084 0.5212036 0.043838836
000040 5f 77 13 3f b4 96 1f bf 7a 38 16 be 39 0e 0c be
       0.5760402 -0.6233933 -0.14669982 -0.136773
000050 a3 e4 34 be 8d ca 01 3f 6d 06 51 3e 26 0e 12 3f
       -0.17665343 0.5069969 0.20412607 0.5705284
000060 78 8d ed be 73 e2 01 3f ff 87 d7 be 1f 71 21 3f
       -0.46396995 0.5073616 -0.42095944 0.63063234
000070 e8 8e 00 3f a4 97 f0 3e 28 fa 45 be 12 14 c2 be
       0.5021806 0.46990693 -0.19333708 -0.37905937
000080 44 2b 0d bf 1d 68 8f 3e 62 f1 99 3e 68 a5 92 be
       -0.55144143 0.2800912 0.30066973 -0.2864182
000090 16 77 a2 3e fb 03 8f 3e 58 37 0c bf c7 88 cd 3e
       0.3173148 0.27932724 -0.5477195 0.40143415
0000a0 c1 67 1e 3e 4d 40 ae 3e f4 91 34 3e fd 2a 0f bf
       0.15469266 0.34033433 0.17633802 -0.5592497
0000b0 d2 6c de be 7e 39 aa be dc 36 c3 bd 38 e2 a6 3e
       -0.43442398 -0.33246988 -0.09531948 0.32594466
0000c0 25 56 98 3e 51 60 09 bf bc d8 20 bd fb 89 b0 3e
       0.29753223 -0.5366259 -0.039269194 0.3448027
0000d0 0e 8f bc be 7e 63 fb bd 40 0c e1 3e e6 e0 e5 3d
       -0.36827892 -0.12274836 0.43954659 0.112245366
0000e0 8b 5d 12 3f c4 b7 55 bd 08 72 16 3f 85 14 d2 3e
       0.57173985 -0.052177206 0.5876775 0.4103128
0000f0 18 3a dc 3d 36 82 d7 bd a0 c1 1f 3f ec ab 2d 3f
       0.10753268 -0.10522883 0.62404823 0.67840457
000100 9f 3e 96 3e 4a ce b2 3e f5 0b 61 bd 6d 4a 12 bf
       0.2934465 0.3492301 -0.054943044 -0.57144815
000110 3c 21 e7 3e ee 5b a3 3e 3a ba 0e bf b6 0a c4 bd
       0.45142543 0.31906074 -0.5575291 -0.095723554
000120 d6 52 0b 3f bf 96 9b be a7 d7 70 3e a1 4a cd be
       0.5442327 -0.30388448 0.23519765 -0.40096
000130 5b b6 c1 be be 5d 85 3d 83 02 e8 be 45 d4 34 3f
       -0.3783444 0.065120205 -0.45314416 0.706364
000140 4e ef df be d0 09 06 bf 88 6e c3 be 10 94 1f 3f
       -0.43737262 -0.5235872 -0.38170266 0.623353
000150 a1 fd fc 3d 35 e5 10 bf 81 ee f4 3d b8 95 02 3f
       0.123530634 -0.5659974 0.119595535 0.510097
000160 4d f5 2c 3d 62 0e cd be 27 0c e1 3e ca b1 87 3e
       0.042226125 -0.40050036 0.43954584 0.2650283
000170 87 8d 20 3f c2 99 8c 3d de ab 36 3f 0c e4 1c 3f
       0.62715954 0.068652645 0.71356 0.6128547
000180 a4 b1 19 bf b9 36 b3 3e 87 79 ba 3e 5a 11 8d 3e
       -0.60036683 0.35002688 0.36420843 0.275523
000190 5f b6 1b 3f 81 c8 19 3d 65 14 11 3f 8f cc 5b be
       0.6082515 0.03754473 0.56671745 -0.21464752
0001a0 0d 7e 1b bf 8c 25 9e be b5 fd 0d bf 4e 9c 2e 3f
       -0.60739213 -0.3088802 -0.5546525 0.6820725
0001b0 01 53 af be 54 83 c2 3e 10 fe 33 bf a7 a0 cb bc
       -0.34243014 0.3799082 -0.70309544 -0.024856878
0001c0 04 75 90 be 5b 31 cf be 22 8f e3 be 6f a8 80 be
       -0.28214276 -0.40467343 -0.4444514 -0.25128505
0001d0 a1 a2 1e bf 57 57 22 be f8 de e8 be 65 f8 80 3e
       -0.619669 -0.1585363 -0.45482612 0.2518951
0001e0 3f 44 ca 3e 25 45 e1 3d 97 00 d2 3c b3 75 08 bf
       0.39505193 0.109995164 0.025635047 -0.53304595
0001f0 86 d0 b3 be ce dd 18 3c fa 1b 12 3f f6 e7 91 3d
       -0.35120028 0.009330226 0.5707394 0.07124321

conv.2.weight f4 [64, 128, 2]
000000 7c e3 49 3d 05 7e 75 bc c6 5b f1 3c c0 65 2d bd
       0.04928921 -0.014983659 0.029462706 -0.042333364
000010 bd c1 48 bd 54 34 8c bd 66 82 f0 bc 6e 89 f9 b9
       -0.04901289 -0.06845918 -0.029359054 -0.00047595374
000020 4c de 44 3d 19 43 3d bd d6 e9 67 bd 57 14 21 3d
       0.04806356 -0.046206567 -0.056619488 0.03932604
000030 c4 02 01 3d 45 69 81 bc f1 28 ad bc b9 46 37 3c
       0.031496778 -0.015797267 -0.021137686 0.011186295
000040 c3 32 80 bd d5 9c 48 bd aa 38 8b bd 93 13 ba ba
       -0.06259682 -0.04897769 -0.06797917 -0.0014196507
000050 68 9b f6 bc 99 2d 3b 3d ef 41 bf 3d d6 35 a6 3d
       -0.0301034 0.045697782 0.09338748 0.08115737
000060 8c 3b 8a 3c bb cc bd bb dc eb f5 3d 67 8a 91 3c
       0.016874097 -0.005792228 0.12007877 0.01776619
000070 c7 15 a7 bd b9 89 74 3c c9 73 aa bd d8 7e 3e bd
       -0.081584506 0.014925414 -0.083228655 -0.046507686
000080 72 97 51 3a 71 d2 78 bb c7 2a 94 3c b9 d9 e8 bc
       0.00079952844 -0.003796723 0.018086804 -0.02842413
000090 60 6a 41 3c bf b9 a3 3d 9c 2c e6 bc 5c 80 e9 bc
       0.011805147 0.07994413 -0.028097443 -0.02850359
0000a0 e3 a3 8a 3d 1c dc b2 3a 1d d2 8a bd a8 45 9e bd
       0.0676954 0.001364592 -0.06778357 -0.077281296
0000b0 c9 5c 9e bd 50 34 8c 3d 3c 1e 84 3d 2a fd 0c bd
       -0.07732541 0.06845915 0.06451079 -0.034421124
0000c0 64 01 5d 3d 7c b8 ed 3d 1f 88 3c bd 80 60 2c bc
       0.053956404 0.11607453 -0.046028253 -0.010521054
0000d0 4a 85 77 bd ba 37 83 3d 4e 23 c6 3d 13 d0 d0 3c
       -0.06042985 0.064071134 0.096747026 0.025489843
0000e0 f9 39 12 3d 9b 81 01 3e f7 e8 96 bd 57 e2 68 3c
       0.03569982 0.12647097 -0.07368653 0.01421412
0000f0 f1 72 f5 bc 31 f0 ea 3c 44 3a 29 3d 87 d3 73 bd
       -0.029962035 0.028678985 0.041315332 -0.0595279
000100 48 bd 12 3d 23 eb a6 3a 74 5c 7f bc c2 6b 6f 3d
       0.035825044 0.0012734871 -0.015586007 0.058452375
000110 ba ac 30 bd 9f fa cb 3c 35 f8 85 3d 48 b5 f7 bb
       -0.043133475 0.024899779 0.06541482 -0.007559452
000120 b4 c1 e4 bc b0 31 7b 3c a9 0a 8e bc 16 d8 36 3d
       -0.027924396 0.015331671 -0.017339068 0.04463967
000130 b6 d7 34 3c 1a c4 65 3d 3a 84 ca 3d 25 b1 74 3d
       0.011037758 0.05609522 0.098885015 0.05973925
000140 74 55 d3 bd cb c0 0e bd b0 51 37 bd 1f c4 cd 3c
       -0.10319033 -0.03485183 -0.044755638 0.025117932
000150 7d c6 b9 bc 96 9a 1a 3c b2 d3 6e bd d6 a5 99 3d
       -0.022677654 0.00943627 -0.058307357 0.07502334
000160 27 ed 32 3d cd 44 61 3d 12 79 96 3d 1c 77 79 3d
       0.043683197 0.054997254 0.07347311 0.060904607
000170 93 a1 c2 bc 12 62 0d bd 92 19 fe bc 29 08 a1 3c
       -0.023758685 -0.034517355 -0.031018052 0.019657211
000180 a8 ce 87 3d a5 2d 4a bd 6b 6a 2b 3d a4 0f ae 3d
       0.066312134 -0.049359936 0.041849535 0.08499077
000190 51 96 fa 3b ae 43 c6 bb 68 40 07 bd e7 c3 8f 3d
       0.0076473136 -0.0060505485 -0.033020407 0.07019787
0001a0 81 db 1f 3d 80 ee 90 bc 27 3d 39 bd bb 24 85 3d
       0.039027695 -0.01769185 -0.045224335 0.065011464
0001b0 86 57 2c bd 7c 5f 27 3d 83 85 d9 3d 0e 3f 80 3d
       -0.042075656 0.040862545 0.106211685 0.06262027
0001c0 31 86 02 be 7d ec 44 bd 83 ed 82 bc 5f cd 61 3d
       -0.12746502 -0.048077095 -0.015982395 0.055127498
0001d0 50 21 8a 3d 5c c6 90 bc 81 81 aa bd 5a 57 4a bc
       0.06744635 -0.01767271 -0.08325482 -0.012349928
0001e0 0d 91 5c 3d 09 55 91 3d d4 8c 93 3d 94 47 08 3d
       0.05384927 0.07096297 0.07204595 0.033271387
0001f0 51 53 18 3d 29 43 67 3c 57 e6 d8 3b 5d d0 56 3d
       0.03718883 0.014115133 0.0066192555 0.052444804
000200 e8 92 d2 bd 5d f4 4e bd a2 f7 96 3d 4e ee f8 3d
       -0.102819264 -0.05052601 0.07371451 0.12154828
000210 38 a5 e7 39 60 ae 8e bd c2 4c 46 bd 87 4f c4 3d
       0.0004418285 -0.06966853 -0.048413046 0.09585481
000220 01 f0 a8 39 d2 b2 6e bd f4 1c ab 3d 79 bf 31 bd
       0.00032222274 -0.058276005 0.08355132 -0.043395493
000230 f3 45 fb bb eb 46 65 3d 08 fa ca bc dc c4 35 bd
       -0.0076682507 0.055975836 -0.024777427 -0.044377193
000240 c7 c0 0e 3d 0e 8d 8a 3c 22 a6 d3 3d f8 e6 03 bd
       0.034851816 0.016912963 0.10334422 -0.03220269
000250 84 52 75 bc a0 35 96 3d 76 43 a5 3d 67 0f 95 3d
       -0.014973287 0.07334447 0.08069508 0.072783284
000260 57 d0 67 3c 54 69 8f bd 7a af a4 bc f0 19 45 3c
       0.014148793 -0.070025116 -0.020103205 0.01203011
000270 e5 b5 9b bb a4 68 b2 bd 2f f9 86 3d 2e 03 69 bc
       -0.004751908 -0.08711365 0.06590497 -0.0142219495
000280 f6 cd f6 3d 5f 76 61 3d 38 13 97 3c ad 92 05 3d
       0.12051003 0.055044528 0.018441781 0.032610584
000290 c4 60 9e bc 53 30 bc 3d 47 b3 42 bc b7 b3 19 bd
       -0.01933325 0.091889046 -0.011883563 -0.037524905
0002a0 41 25 01 bd c1 a7 92 3b 90 36 c0 3b c2 09 f4 3b
       -0.03152967 0.004475564 0.0058658794 0.0074474523
0002b0 c8 09 17 bd ba 88 98 3b 54 21 00 bb e1 82 8b bd
       -0.036874563 0.004654971 -0.0019551115 -0.068120725
0002c0 c9 7e 8a 3d e2 9b 16 3d c5 e8 4d 3e ee 01 0a bd
       0.067624636 0.036769755 0.20108326 -0.033693247
0002d0 bc b8 06 be 83 1a 49 3c bb fd b5 3d a9 b0 df 3d
       -0.13156408 0.012274387 0.08886286 0.10922367
0002e0 4e 98 b6 ba ed 36 00 bd c1 f7 1c 3e a9 51 f9 3c
       -0.0013930888 -0.03130238 0.15328886 0.030434446
0002f0 f7 be 85 bd ae d0 0d 3d e7 a7 2e bb 07 0e 20 3d
       -0.06530564 0.03462284 -0.002665037 0.039075878
000300 db 72 db 3c e4 4a 18 3d 94 2e 5d ba 2f a8 b6 bc
       0.026788166 0.037180796 -0.00084374216 -0.022296993
000310 30 12 00 3d fb 09 34 bd 7b 13 c2 bc 0b 29 07 3d
       0.031267345 -0.04395483 -0.02369093 0.032998126
000320 0b 41 4b 39 4d 7d bf 3c 64 29 a3 bd 54 75 a1 bd
       0.00019383819 0.023375178 -0.07966879 -0.07883707
000330 32 c9 35 3d 28 a1 aa 3d 0e e5 24 3d a0 13 f5 3c
       0.044381328 0.08331519 0.040257506 0.029916584
000340 48 ca 11 3d f5 99 9e 3d 0f 79 71 3c 62 9a 17 bc
       0.0355933 0.07744209 0.014738335 -0.009253116
000350 b2 2b 07 bd 7b 13 44 3d ed e6 f9 3d de b4 55 3d
       -0.033000655 0.04787014 0.12202249 0.05217444
000360 9b 3f 32 bd a6 8e 63 bb c9 45 a9 3c db d2 eb bc
       -0.04351769 -0.0034722476 0.020663159 -0.028787067
000370 af ba 81 bc 6f 95 93 bd ee 5d 4b 3d 3d b5 41 bd
       -0.015836088 -0.072062366 0.049650125 -0.047291983
000380 f7 1a 32 3d aa 9b a4 3b cf a3 9e 3d d1 18 f6 bc
       0.043482747 0.0050234394 0.07746088 -0.03004113
000390 13 91 fe 3d 79 b4 91 3d 1c ae 7e 3d 2c c1 09 3e
       0.124300145 0.071145006 0.062177762 0.13452595
0003a0 ca c8 3f 3d 31 ae 11 3c fc 6c da bc 33 89 56 3d
       0.046822347 0.008891628 -0.026663296 0.052376937
0003b0 8c 12 e9 3c 56 93 3c 3c 16 0f 34 3d b8 48 cf bc
       0.028451227 0.011509737 0.0439597 -0.02530323
0003c0 79 31 ad 3d 78 05 f2 3c 61 5d 02 3d 55 59 fa 3c
       0.08456702 0.029543623 0.031827334 0.030560175
0003d0 99 04 cf bc 69 2b 1c bd 11 f3 51 3d d0 1b 80 bd
       -0.025270747 -0.038127337 0.051257197 -0.06255305
0003e0 ac 72 bb 3c 5d 35 2a 3d 63 93 cc 3d e8 51 7b ba
       0.022881828 0.041554797 0.09989049 -0.0009587095
0003f0 8d b8 31 3d 01 05 fa 3c 74 45 57 3e 3f df 98 3d
       0.043388892 0.030519964 0.21022588 0.07464456

conv.2.bias f4 [64]
000000 ae 3a 14 bb 96 96 e6 bd 91 97 a6 bc 7f 1b 7d 3d
       -0.0022617984 -0.11259191 -0.020335944 0.0617938
000010 16 52 f5 bd 44 1a ca bd 1c 90 5d bd 8c 49 13 bd
       -0.11978547 -0.09868291 -0.05409251 -0.03595881
000020 e0 11 36 be 39 73 41 bd 25 31 2b bd 33 ff 0e be
       -0.17780256 -0.047229026 -0.041794915 -0.13964538
000030 63 69 dc 3b 22 e4 5c 3d 86 54 17 bd a4 58 b0 bc
       0.0067264303 0.053928502 -0.036945842 -0.021526642
000040 88 71 1d be 46 56 a8 bd 52 f8 8c 3c 43 96 55 bd
       -0.1537534 -0.0821958 0.017208252 -0.052145254
000050 c6 18 fb bd a6 14 70 3c cc cc ca bd 32 45 85 bd
       -0.122605845 0.0146533605 -0.09902343 -0.065073386
000060 c2 b9 3f be 4c f1 8c 3d 9c 73 8b 3c 9e c8 38 bd
       -0.18723205 0.06881961 0.0170229 -0.0451132
000070 ae ce 82 bc 94 06 9d 3c 70 5f 83 3d 37 d9 24 3d
       -0.015967693 0.019168176 0.06414688 0.040246215
000080 c8 f3 fd bd 14 21 a8 bc b8 a4 6c 3d 7a 34 df 3c
       -0.12400013 -0.020523585 0.057774276 0.027246702
000090 ce ef c2 3c 90 0f a9 bd 8c e0 fb bd b4 f5 6d bd
       0.023795988 -0.082549214 -0.12298688 -0.05809565
0000a0 15 2a f7 bc 90 d9 33 3d 79 fb 61 3d da 44 a8 bc
       -0.030171433 0.043908656 0.055171464 -0.020540643
0000b0 7c ec ae bb b9 f4 a6 3c b4 70 04 be 70 09 24 bc
       -0.0053382497 0.020380365 -0.12933618 -0.010012016
0000c0 32 0c fd 3c 7d 76 49 3d bc b7 ea bc ac 49 82 bd
       0.030889604 0.049185265 -0.028652065 -0.06361708
0000d0 d9 32 e2 bd 0c 3d 3f 3d 70 d4 30 bd 68 78 a6 3d
       -0.11044855 0.04668908 -0.043171346 0.081284344
0000e0 65 d6 38 bd 90 af f1 3c f7 e2 01 3d 00 1c bc bd
       -0.045126338 0.02950266 0.03171059 -0.09185028
0000f0 b6 9d 48 bd a9 5a 32 bd 55 b7 20 bd 9d 42 3c bc
       -0.04897853 -0.04354349 -0.03923734 -0.011490491

conv.4.weight f4 [32, 64, 2]
000000 b2 ab 05 bd e7 e5 49 bd b7 bb 65 bd 23 d9 85 bd
       -0.032634445 -0.049291518 -0.056087222 -0.06535556
000010 29 82 b8 3c 09 fe 5b bd 37 19 bb bb 5c ad 00 be
       0.022523003 -0.053709064 -0.005709793 -0.12566131
000020 19 95 25 bd 24 ab 04 bc 00 16 b5 bb 0e e4 f4 bc
       -0.040425394 -0.008097444 -0.0055263042 -0.029893901
000030 23 46 85 3d 97 e0 c3 3c 09 d6 9b 3d db f3 b1 3d
       0.06507518 0.023910804 0.07609183 0.0868909
000040 de 91 fb bd 43 7b 44 be 9f 7e b8 bc 89 f0 d5 3d
       -0.12283681 -0.19187646 -0.022521315 0.10446269
000050 94 35 e6 3d b0 53 50 bd 0c 57 6e bc 5a d7 41 3c
       0.11240688 -0.05086106 -0.014547121 0.011831129
000060 cc 5e 05 3d dd 2f 07 be ec 14 98 3d 27 89 59 3d
       0.03256111 -0.13201852 0.074258655 0.053109314
000070 33 b9 d7 3c cf fc 16 3d 18 92 35 bd da 8a 5c bc
       0.026333427 0.03686219 -0.04432878 -0.013460839
000080 27 04 cd bd 48 b5 eb 3b 7d 22 0a bd 2f bd 68 3d
       -0.100105576 0.0071932413 -0.033724297 0.056821045
000090 e4 bb b0 bc 33 82 cd 3d 84 f9 87 bd 08 81 a7 3d
       -0.021573968 0.10034599 -0.06639388 0.08178908
0000a0 83 c6 1c 3d a9 76 c6 bc 36 a9 e1 bd f2 79 df bd
       0.038275253 -0.024226503 -0.110186026 -0.10911931
0000b0 b0 0d a5 bd b2 7c 88 bb bf 31 04 3d 6b a6 48 3d
       -0.08059251 -0.0041652555 0.032274004 0.048986834
0000c0 eb d5 89 bd b0 8e 85 be 6c e7 45 bd 19 17 2e 3d
       -0.06730255 -0.26085424 -0.048316404 0.042502496
0000d0 25 10 a8 3c 2b 96 93 3d 0a c1 92 3d 14 71 4d bd
       0.02051551 0.07206377 0.071657255 -0.050156668
0000e0 b8 6a 48 ba 45 5a 92 bd 18 5e 19 3d fa 6c 86 bd
       -0.0007645297 -0.07146124 0.03744325 -0.065637544
0000f0 cb 54 86 bd c0 8a c4 bd 54 c8 81 bc f6 15 b1 bd
       -0.06559142 -0.09596777 -0.015842594 -0.08646767
000100 5c b2 9b bc 81 d5 97 bd e9 b6 be bd 22 88 0f be
       -0.019005947 -0.074137695 -0.09312231 -0.14016774
000110 31 5d 54 3d ea 7f 5a 3d f7 7c be 3d ac 69 9e bd
       0.051846687 0.053344645 0.09301179 -0.07734999
000120 3b e3 f3 bd ca 98 48 3d f1 4e 4b bc b8 41 a4 bd
       -0.11908575 0.048973836 -0.012408958 -0.08020347
000130 b7 b4 69 3d 5f 34 9e 3d 4a f2 ac bd 6d 99 64 3d
       0.05705711 0.07724833 -0.084446505 0.05581038
000140 2a 95 8c bb 1e 05 68 bc e4 d3 81 3d ec 06 90 bd
       -0.0042902427 -0.014161376 0.06339243 -0.0703257
000150 59 b8 25 3d bd d0 46 bd 90 36 fd bd 30 56 ba bd
       0.04045901 -0.048538912 -0.123639226 -0.0909847
000160 13 d7 01 be 7e 02 83 bd da 03 69 3b e4 ea 17 3d
       -0.126797 -0.0639696 0.0035555274 0.037089244
000170 33 08 f3 bb a8 9e 76 bd c2 eb 3c bd e9 e2 7b 3d
       -0.007416749 -0.0602099 -0.046123274 0.061495695
000180 94 ad 0a bc 2f ae fc bc 5d 83 08 3d 61 a3 ec bc
       -0.008464236 -0.030844776 0.033328403 -0.028886499
000190 f7 5f 00 bc f4 09 3b bd 10 e7 be bd 27 ea ce bd
       -0.00783538 -0.04566379 -0.093214154 -0.10103255
0001a0 dd 5c b5 3b 29 e2 ca bc 22 c8 1c bc 9f b8 ad bd
       0.005534752 -0.024766045 -0.0095692 -0.08482479
0001b0 2c 7c bb 3d 98 a6 14 3d b6 d5 16 be 9d e0 7c 3d
       0.09154543 0.03629169 -0.14729962 0.061737645
0001c0 5c 1b 88 3d 4b bf af bd 64 82 67 bd f7 e7 cb bd
       0.066458434 -0.08581408 -0.056520835 -0.09956353
0001d0 4e 59 d9 bc bb 8e ad bd e8 b0 a8 bd 20 f6 55 bd
       -0.026531842 -0.08474489 -0.08236867 -0.052236676
0001e0 87 d8 16 3d ae f0 26 3d 73 2e 69 bd 5f d2 1f be
       0.03682759 0.040756874 -0.056929063 -0.15607594
0001f0 f8 6b b4 3d 45 f6 f0 3c ef cf 48 bc 37 01 2d 3d
       0.08809656 0.029414305 -0.0122566065 0.042237487
000200 85 ac 38 bd 36 16 bf bc fa b7 3d 3d 95 78 82 bb
       -0.045086402 -0.02332602 0.04631803 -0.0039816597
000210 4f 09 f0 bd 80 61 db 3d 42 e3 7f 3c e7 f7 73 bd
       -0.117205255 0.10711956 0.015618147 -0.05956259
000220 b8 e7 06 3e 1c cf 05 bc c0 b8 66 3d e5 7f af bd
       0.13174331 -0.0081670545 0.056328535 -0.08569316
000230 f0 d1 9c 3d bf 1e 6e bc bb 84 d9 bd a9 29 b5 3d
       0.0765723 -0.014533698 -0.106210195 0.08845837
000240 b8 17 a8 bd 93 e3 4d be dc ab b7 bd 16 3b 39 3e
       -0.08207649 -0.20106344 -0.089683264 0.18088946
000250 38 8b 48 3d 4b ec 25 3d 6d ef ed 3d 37 55 78 3d
       0.048960894 0.04050855 0.116179325 0.060628142
000260 65 bd 36 bc 6b 8e 0f be 1d 79 68 3b 00 71 fc 3c
       -0.011153554 -0.14019172 0.003547258 0.030815601
000270 3f 19 0e be 3f d4 c7 3b e7 93 47 3d 76 c4 2c be
       -0.13876818 0.0060982998 0.048725035 -0.16871819
000280 ae ed a0 bc 6d 1c da bd 82 55 15 3e 63 34 d1 bd
       -0.019644585 -0.10649953 0.145834 -0.1021507
000290 4f 59 5e 3c 68 58 3a 3d f1 ef b4 bc 90 85 d6 3c
       0.0135710975 0.045494467 -0.02208707 0.026186734
0002a0 cf 64 a6 bc 5c 5c 65 bd 53 29 fe 3c 43 1e be bd
       -0.020311741 -0.055996284 0.031025564 -0.09283116
0002b0 fd e7 43 bc e1 7f 57 bd cc 46 c0 3c 2f 73 28 3d
       -0.011957166 -0.05261219 0.023471259 0.041125473
0002c0 8b e5 4b 3c 54 4c 0a be 64 7e bd bd 7c 80 52 3c
       0.012444864 -0.1350568 -0.09252623 0.012848016
0002d0 dc 3c cc 3d fe 92 33 be 97 0c c9 3d e9 e8 41 bd
       0.099725455 -0.17536542 0.098168544 -0.04734126
0002e0 5e 99 a4 bc f4 88 cb bd d7 fb ed bc 93 2c 46 b9
       -0.020092662 -0.09938231 -0.02905075 -0.00018899357
0002f0 c0 59 3e 39 31 c6 97 3d 2a cc 0b be 18 14 7e 3d
       0.00018153246 0.07410849 -0.13652101 0.06203088
000300 12 dd 48 3d f6 51 59 bd b6 16 2c bc 1f d9 2b 3c
       0.049038954 -0.05305668 -0.010503462 0.010488777
000310 2f bb a1 3d 06 a7 3d 3d fe fa aa bd b1 5c bd 3d
       0.078970306 0.046301864 -0.08348654 0.09246195
000320 78 da 0e 3d f8 b4 5d bd bb df f4 3c d2 80 cb 3c
       0.034876317 -0.054127663 0.02989184 0.0248417
000330 dd 63 d0 bb 5c 85 c5 3d 11 8d 22 bd 60 39 46 3d
       -0.006359561 0.09644577 -0.039685313 0.04839456
000340 0b 66 79 bd 3a 38 6b bd 43 11 84 bd a0 f8 0d bd
       -0.06088833 -0.05742667 -0.06448605 -0.034660935
000350 4c 04 dc bb b3 f2 23 3d db a4 77 bd b5 f5 ed bc
       -0.0067143794 0.040026378 -0.060459953 -0.029047826
000360 db 06 af 3d 6f d4 26 3d 0c 81 1d be f9 70 40 3d
       0.085462295 0.040729936 -0.15381259 0.04698274
000370 5d 57 a6 bd 1d b6 d6 bd 34 87 ff 3d be 90 5f 3c
       -0.08122132 -0.10483954 0.1247696 0.013645349
000380 c2 83 5a bc 75 1f 76 bc c4 46 5c 3d 1f 37 f8 3b
       -0.013337078 -0.015022148 0.053778425 0.0075749303
000390 d9 2c a6 bc 7d f0 b6 bd c4 e9 06 bd 62 ff 81 bc
       -0.020285057 -0.08932588 -0.03293778 -0.015868846
0003a0 7b 86 59 bc e3 b9 89 3d c3 fe a3 bc 45 ef 80 bd
       -0.013276692 0.06724908 -0.02001894 -0.06295637
0003b0 cc ef 01 bd 0b b6 08 bc 39 46 b9 3d 1b 7f 06 bd
       -0.03172283 -0.008344184 0.09046597 -0.03283606
0003c0 76 12 e8 3c 58 80 0d 3d 50 ea bd bc af 64 c9 bd
       0.028329115 0.034546226 -0.023183018 -0.09833657
0003d0 f0 49 06 3e 89 e4 07 3c d8 99 d5 bd 5e 55 05 3d
       0.13114142 0.008294233 -0.10429734 0.032552116
0003e0 35 35 09 be f5 ff 06 3c 40 9f 1c 3c 43 cf 08 bd
       -0.13399203 0.008239736 0.0095594525 -0.033400785
0003f0 82 fd c0 3d 2d 6c ca 3c 78 5a 79 bc f5 0c 81 3d
       0.09423353 0.024709785 -0.015219323 0.063012995

conv.4.bias f4 [32]
000000 e5 f7 c3 3c 23 45 35 bc cc 89 8c bd ae b4 85 bd
       0.023921916 -0.011063847 -0.0686222 -0.065286025
000010 e1 e4 04 bd fe 7b fd 3c c4 71 72 bd ae 94 80 3b
       -0.03244484 0.030942913 -0.059190527 0.003923974
000020 f2 c4 a6 3d 4c 7a 85 3c 70 a0 af bc 49 6b fc 3b
       0.08143033 0.016293667 -0.021438807 0.007703219
000030 88 93 d4 bc 98 32 0b be 15 7c a5 38 f2 28 08 bd
       -0.025949255 -0.13593519 7.890925e-05 -0.033242173
000040 97 2f 8a 3d a2 21 8c bc 94 24 0b 3c e6 e3 88 bc
       0.06747358 -0.017105881 0.008492608 -0.016710233
000050 a8 fe 8c bd fb d6 b4 bc 8e 11 5c 3d 13 e8 70 bd
       -0.06884509 -0.022075167 0.05372768 -0.058815073
000060 57 28 0b bd d8 98 bf 3d 3d d8 6c bb b8 11 50 bb
       -0.033974018 0.093553245 -0.003613963 -0.0031748842
000070 68 9b 0b bd fa aa b8 3c fa 1e 49 3d 3f 0c de bc
       -0.034083754 0.022542465 0.049101807 -0.027105449

fc.0.weight f4 [256, 64]
000000 5c 19 51 3d 90 57 7c bd f5 4e 75 bd f2 d2 fd 3a
       0.051049575 -0.061606944 -0.059889752 0.0019365235
000010 f9 0b 3b be 41 a6 f2 3d a7 b5 81 3e 73 07 2e be
       -0.18266286 0.11848117 0.25333902 -0.16995029
000020 44 16 8b 3e c1 5d cb 3d 9c 96 6b 3e b9 97 38 be
       0.27165425 0.099299915 0.23006672 -0.18026628
000030 9f e1 36 bb 18 9f cd bc c5 21 8b 3e d7 18 a3 bd
       -0.0027905477 -0.025100276 0.27174202 -0.07963722
000040 46 dc 98 bd 35 f8 52 bc 30 29 45 3e 80 f1 d2 bd
       -0.07463889 -0.01287656 0.19253993 -0.10299969
000050 9c d3 58 be 14 d8 d0 3d 4a d8 9d be 5e ce 22 be
       -0.21174473 0.10197464 -0.30829078 -0.15899035
000060 ae 1b 46 3e d3 b0 3d 3e f1 28 88 3d 20 3d 9a 3d
       0.19346496 0.18524484 0.06648434 0.0753119
000070 55 fe ec bd 6d c6 36 be 2c 4b cb 3d 1d dc e6 bd
       -0.115719475 -0.17849131 0.09926447 -0.11272452
000080 0d 99 18 3e 75 e2 36 be 84 2e c7 3d 05 0a 86 3d
       0.14902134 -0.17859824 0.09725669 0.0654488
000090 75 76 b2 3e 9b 68 6b 3d 48 11 6f 3e 1e b6 84 bc
       0.34856 0.057472806 0.23346436 -0.016200121
0000a0 b5 76 92 be 9f 08 ff bd 5f ae 20 3d 72 56 6d 3d
       -0.2860619 -0.12452816 0.039228793 0.05794377
0000b0 c5 48 aa bd 10 dc 0b 3e be bd 26 3c 8f 41 72 bd
       -0.08314661 0.13658166 0.010177074 -0.059144553
0000c0 42 71 c8 3e 9b ae 45 be b7 f0 5d 3e 65 8f 0f be
       0.3914891 -0.19304888 0.21673857 -0.14019544
0000d0 d8 7c 3c be 47 5b 1a be d4 2e a2 bc 06 37 2d 3c
       -0.18406999 -0.15073882 -0.01979772 0.010572201
0000e0 2e ad 6b bd b1 55 3d be 17 99 10 bd ca 49 ad 3c
       -0.057538204 -0.1848972 -0.035302248 0.02115335
0000f0 7c 00 5a bb 6d 7f 14 3d a7 0e cf 3d 5b 1d 9e 3d
       -0.003326445 0.036254335 0.101102166 0.07720443
000100 5b 6d cc bc 77 38 0e 3e 8c 49 98 3d de 2d 09 3e
       -0.024954489 0.13888727 0.07435903 0.13396403
000110 e3 c4 9e 3d a4 5d a8 3d 3e 4f e9 3d 9e 29 cb bd
       0.07752397 0.082209855 0.113920674 -0.09920047
000120 d7 40 7d 3d 04 08 e9 bb f5 f8 86 3d d9 fa 8f 3d
       0.061829414 -0.0071115512 0.065904535 0.07030267
000130 0b 23 db bd 37 6c 44 3d eb be 6b 3e ae b3 05 3e
       -0.10700043 0.047954764 0.23022048 0.13056824
000140 0d f8 35 bd 74 fd c4 3d a0 fc 81 bd d7 11 d1 bd
       -0.044426013 0.09618655 -0.063470125 -0.10208481
000150 00 c9 3f bd d7 b4 99 3d 97 40 77 3d 6f ef b1 bc
       -0.046822548 0.075051956 0.060364332 -0.021720616
000160 d7 57 31 bd 0e 39 85 3b 94 9a a4 bd a4 48 ba bb
       -0.04329666 0.0040656393 -0.08037296 -0.005684929
000170 b9 35 98 bd 8a 19 70 bd 86 2a 30 3d f0 b3 7d 3d
       -0.07432122 -0.058618106 0.043009304 0.06193918
000180 65 a2 67 3c d3 d4 10 3d a5 75 2a 3d 8c 48 d8 bd
       0.014137839 0.035359215 0.0416161 -0.10560712
000190 58 e9 8f 3b 53 82 8d 3d 64 64 83 3d 34 37 e5 bc
       0.0043918304 0.06909623 0.06415632 -0.027980424
0001a0 20 c6 53 bd b8 51 c3 3c 53 08 46 bd 34 c5 bc bd
       -0.05170262 0.023842677 -0.048347782 -0.09217301
0001b0 60 e0 d6 3d a6 74 8c 3d fa 76 06 3d c3 7f 00 be
       0.10492015 0.068581864 0.03282831 -0.12548737
0001c0 3a 19 1b 3d 38 1b de 3d b1 6c 00 3e d1 c3 eb 3c
       0.037865855 0.10845035 0.12541462 0.028779896
0001d0 87 34 38 bd ac 10 9d 3d 38 85 9f 3d 53 95 21 bd
       -0.04497197 0.076691955 0.07789081 -0.039449047
0001e0 17 52 1d be f9 7b 4e 3d 3a 68 89 3d a2 a3 e8 bc
       -0.15363346 0.0504112 0.06709333 -0.028398339
0001f0 bd 63 49 bd bb ed 05 bd 3a d2 aa bd c5 02 d4 bd
       -0.049167383 -0.03269742 -0.08340879 -0.10352091
000200 d8 b1 d3 3d 09 63 f0 bc 72 fd cf 3d 72 ee b2 3b
       0.103366554 -0.029344099 0.10155763 0.005460554
000210 8b 9c 24 be 99 28 8d 3d 82 a1 be 3d 7b 7d d0 3c
       -0.16075341 0.06892509 0.09308149 0.025450459
000220 65 1a d6 bc ac 1b f2 bd 0f 62 5e 3e 3c ca 13 3d
       -0.026135633 -0.11821684 0.21717094 0.036081538
000230 70 e8 85 bd b1 dd c5 bc 0c 3d d8 3d b6 e0 48 3e
       -0.065384746 -0.024153562 0.10558519 0.1961697
000240 52 9c 14 3d 27 01 20 3e 06 42 cc 3c 85 84 bd 3d
       0.03628189 0.1562544 0.024933826 0.09253792
000250 56 9d 96 3d 20 e9 01 3e f8 dc ff 3d c3 c0 cb 3c
       0.07354228 0.12686586 0.12493318 0.02487219
000260 ab 75 76 3c f4 fd 0a bd fc 70 84 bd 56 6e b3 bd
       0.015042703 -0.033933595 -0.064668626 -0.08761279
000270 d5 c5 18 3e f1 f7 f8 bc 9b cc 53 3d 64 8e 56 bd
       0.14919217 -0.030391665 0.0517088 -0.052381888
000280 40 56 bf bd 03 ba 49 3d 27 33 9e 3d e9 5e 91 3d
       -0.09342623 0.04924966 0.077246 0.07098181
000290 6e c1 1b bd 88 9f 0a 3d 36 87 bb 3d 54 03 c3 3d
       -0.038026266 0.033843547 0.09156649 0.09522119
0002a0 d8 6c 3b 3e af 5a 44 bd 71 bf ab bd 1d 9c b0 3d
       0.1830324 -0.047938045 -0.08386124 0.08623526
0002b0 34 a9 14 3d 18 57 a3 bc c0 fc 88 3d 75 32 09 3e
       0.036294177 -0.01993899 0.06688833 0.13398154
0002c0 88 d7 29 3e e1 32 97 bd 14 91 d1 bb b5 da 31 3d
       0.16586125 -0.07382751 -0.0063954685 0.043421466
0002d0 f8 c3 ba 3c d7 68 db 3d 99 56 03 3d ac a0 35 3e
       0.022798523 0.10713356 0.032065008 0.17737073
0002e0 35 10 e9 bd 5a 30 07 be 62 02 0f bd c8 16 23 bd
       -0.11380044 -0.13202038 -0.03491438 -0.039816648
0002f0 5d 45 d0 3d 26 4e aa bd 44 85 49 bc 8b e9 49 bd
       0.1016948 -0.08315687 -0.012299839 -0.04929499
000300 5d c2 06 3c 00 b2 bb 3d aa 66 62 be b9 43 3a bc
       0.008225051 0.0916481 -0.22109476 -0.011368685
000310 48 84 ca bd a2 94 f9 bd 83 34 1b 3d 88 2b a7 3d
       -0.09888512 -0.121865526 0.037891876 0.081626
000320 15 81 e1 bd 21 39 e6 bd 06 ec 49 be a5 b3 3b 3d
       -0.110109486 -0.11241365 -0.19718942 0.04582562
000330 b3 51 d6 3d 6b 94 cc bd 91 fa 85 bc 83 bf 95 3d
       0.10464802 -0.09989246 -0.016354831 0.073119186
000340 de 32 c1 bd 35 65 fa bd 93 a3 36 3c e2 fa 95 3b
       -0.0943353 -0.12226335 0.011147398 0.0045770267
000350 e8 da 2d be 8f ba c8 3c 7c 33 cb bc f3 c0 4b be
       -0.16978037 0.02450302 -0.024804823 -0.19897823
000360 bd 2a 75 3e 89 23 94 3e ec f4 e3 3d 64 f2 68 39
       0.23942085 0.2893336 0.111306995 0.00022215542
000370 eb 53 3c bd 52 d2 95 bc 1c 9b 1d 3e 84 c4 9c bd
       -0.045978468 -0.018288765 0.15391201 -0.0765467
000380 af 45 37 3d 10 e7 87 3b 9d e8 3a 3e 3e 42 c3 3e
       0.04474419 0.004147418 0.18252797 0.38136476
000390 0c a4 05 3e 6f d8 46 bd c9 f6 2e 3d 10 d2 5d bb
       0.1305086 -0.04854625 0.04271582 -0.003384713
0003a0 f2 77 8d be 4d ea 3e be 46 d8 fd 3d 19 64 d7 3c
       -0.27630574 -0.18644066 0.123947665 0.026292847
0003b0 fa 91 10 3e 2f 6c d9 3d 4c 16 20 3e a5 0a 14 be
       0.14118186 0.106163375 0.15633506 -0.14457186
0003c0 fd 13 04 be 50 c2 30 be f6 de b0 bd e6 4f 8a bd
       -0.1289825 -0.17261624 -0.086362764 -0.06753521
0003d0 eb 7a 35 3e 59 62 5c 3e 94 16 f8 3b c6 f4 03 bc
       0.1772267 0.21521892 0.007571051 -0.008053964
0003e0 4a 42 bb bd fb 64 d8 bd c4 3d 13 3d ed fd 71 3c
       -0.09143503 -0.105661355 0.035947576 0.014770013
0003f0 0a b7 bd bd 46 74 b8 3d d9 7a c9 3d 7c f2 f2 bc
       -0.092634276 0.090065524 0.098378845 -0.029656641

fc.0.bias f4 [256]
000000 ed 00 3e bc 24 32 95 bb a1 f2 07 3e a3 3b bf bd
       -0.0115969 -0.0045530964 0.1327615 -0.09337547
000010 a4 95 a8 ba 96 91 27 bc 58 c9 87 3c b3 cc d7 bd
       -0.0012861979 -0.0102275815 0.0165755 -0.1053709
000020 6b 89 6a 3c f0 33 a5 bc c1 b4 c1 bd d8 9c f9 bc
       0.01431499 -0.020166367 -0.09458304 -0.030470297
000030 0c 59 3e bd 8b a4 98 bd af df 9d bd 10 1d 0f be
       -0.04647164 -0.07453259 -0.0770868 -0.1397593
000040 46 6f 1c 3d f3 c3 9d bd 9e 3a c5 bd 91 02 a9 bd
       0.038192056 -0.0770339 -0.09630321 -0.08252443
000050 56 67 c8 bc 49 84 53 bd ca 31 e0 bd 2b 1e 97 bd
       -0.024463337 -0.05163983 -0.109469965 -0.07378801
000060 0e 65 23 bd 0e 43 b9 bd 3a f5 3a bd 66 a8 58 3d
       -0.039891295 -0.09045993 -0.045644023 0.052894972
000070 b9 c1 a4 bd b6 52 a1 3d 17 38 a1 bd 44 20 ab 3d
       -0.08044762 0.07877104 -0.078720264 0.083557636
000080 90 09 31 bd d4 1a 6d b9 34 36 9c 3c e6 66 bc bd
       -0.04322201 -0.00022612076 0.019068815 -0.09199314
000090 3e 76 1c be f4 1d 88 bd b6 97 58 3c f4 68 eb 3d
       -0.15279481 -0.06646338 0.013219764 0.114946276
0000a0 35 bc ea bd 15 4f 86 bb bd 93 5d 3c 37 76 f1 bd
       -0.11461679 -0.004098783 0.013523993 -0.11790126
0000b0 81 d1 9e bd 07 7a 0f 3e 6e 55 05 be 42 57 56 bd
       -0.077548034 0.14011393 -0.1302087 -0.05232931
0000c0 33 e6 4a bd a0 fc 4d 3d 21 60 de 3c bf d0 93 bd
       -0.04953594 0.05028975 0.027145447 -0.072175495
0000d0 ce 08 08 3d d0 b4 16 3d 95 88 2a bc f2 0a 02 be
       0.03321152 0.03679353 -0.01040854 -0.12699488
0000e0 ce e4 02 3e c5 a3 15 be e2 47 57 be 17 5b e7 bc
       0.12782595 -0.14613254 -0.21023515 -0.028241677
0000f0 b6 6e b1 3c 97 55 85 bb 40 dc dd bd 46 a6 98 3b
       0.021659236 -0.004069041 -0.10833025 0.004658493
000100 84 ed 5a 3d 6d 17 bf bd 41 ad a3 3c 47 29 0c 3b
       0.05344917 -0.0933064 0.019980075 0.0021386908
000110 76 20 63 3c d8 9e 87 bd f4 49 64 bc b9 8d 58 3d
       0.01386272 -0.06622094 -0.013933647 0.052869532
000120 d9 00 1e 3d 57 7a 86 bd db d9 e7 bc 98 7e 39 bd
       0.038575027 -0.06566303 -0.028302124 -0.045286745
000130 e6 01 b7 3c a6 23 51 bd cf 7d 91 3c f3 92 6f 3d
       0.022339772 -0.051059388 0.017760186 0.05848975
000140 57 a5 22 bc 49 eb 9b bb 35 b1 2b be 18 2f 7f bc
       -0.009927115 -0.004758273 -0.16766818 -0.015575193
000150 3c 86 67 3d 9a ab 18 be 64 af 04 bc 71 02 14 bd
       0.0565245 -0.14909211 -0.008098457 -0.03613514
000160 4b 74 be bc 00 4c 8e 3d 94 53 a8 bc 58 24 99 3b
       -0.023248812 0.069480896 -0.020547666 0.004673522
000170 14 08 cf 3d 43 14 15 3c 7b 11 da bd 51 b9 cb bd
       0.10108963 0.009099069 -0.106478654 -0.09947456
000180 1e 2b a4 bd 9f b4 e9 bd d2 13 66 bd aa 50 b5 bd
       -0.080160365 -0.11411404 -0.056171246 -0.08853276
000190 9e 90 88 bd 7d eb e3 bd b1 b7 0e bd ac fe 5c bd
       -0.066682085 -0.111289 -0.03484315 -0.05395381
0001a0 f4 44 be bd 7a b5 88 bc 04 4c a5 bd 17 be 76 bd
       -0.092904955 -0.016688097 -0.080711395 -0.060239878
0001b0 cf e6 c0 bd 18 16 7e bc fb c0 9b bd 5c 14 00 bd
       -0.09419023 -0.015508197 -0.076051675 -0.031269416
0001c0 51 36 a2 3d 5a 5a 2b be e9 fc 8b 3d d6 74 e0 39
       0.07920516 -0.16733685 0.06835348 0.0004281166
0001d0 1d 27 91 bd 37 eb c5 3c 9d b7 fc 39 5a 7d 7a 3c
       -0.070875384 0.02416001 0.00048201988 0.015288675
0001e0 0b 72 25 3d 77 13 d3 bd c2 05 1c 3d 00 3e 0a 3e
       0.040391963 -0.10306447 0.03809143 0.13500214
0001f0 4a 0b 19 be 3e d7 cd 3c 56 9d 26 3d d5 c1 f9 bd
       -0.14945713 0.02512705 0.04067739 -0.12195174
000200 5f 3d f9 3c eb a3 2c bd 09 5a 23 be e6 e3 37 bd
       0.030424772 -0.04214851 -0.15952314 -0.044895075
000210 0b c7 10 3e 1e e9 80 bd 29 f3 ae bb ad 41 a8 bc
       0.14138429 -0.062944636 -0.0053390455 -0.02053913
000220 a3 89 8f 3d b2 83 f8 3c 50 58 7b bd 36 29 25 3e
       0.07008674 0.030336235 -0.06136352 0.16129002
000230 ce 03 2a bd ee 21 ed bd cc f2 a3 bb c8 6a 06 bd
       -0.041507535 -0.11578737 -0.005003309 -0.03281668
000240 51 04 e0 bd 9f fc a9 bd c7 a7 fd bd bd be fd bc
       -0.10938323 -0.08300137 -0.123855166 -0.03097474
000250 68 bb 0c 3e 59 50 be 3b 66 74 18 3d 22 2c 44 bd
       0.13743365 0.005807918 0.03722038 -0.04789365
000260 f0 ce 39 be 67 ca b4 bd 41 de df bd 86 f6 8a bc
       -0.18145347 -0.08827668 -0.109310634 -0.016963255
000270 e1 7e b9 3b 5a bf 11 be 85 f1 1d 3d 95 41 90 bd
       0.005660877 -0.14233151 0.03856041 -0.07043759
000280 7b 27 d5 bc 3e e8 c1 3d 7d 41 a0 bd a3 4c f9 3b
       -0.026019802 0.09468125 -0.07824991 0.0076080128
000290 88 a0 86 bd fa 8d 2a be 6a 70 35 bd 0e fb e0 bd
       -0.06573588 -0.16655722 -0.04429666 -0.10985385
0002a0 78 8f 21 bd 49 cb 49 bd 7b 1c 31 3d 48 e9 80 3d
       -0.039443463 -0.049266133 0.04324005 0.06294495
0002b0 74 c6 05 bc bb e3 ab bd 3a b0 01 be 12 05 f8 bc
       -0.008164991 -0.083930455 -0.12664881 -0.030275855
0002c0 5d e3 2f bd 8c 05 8a bd d8 b1 dd bc fd ff 8d bd
       -0.04294144 -0.06739339 -0.027062342 -0.069335915
0002d0 dc a7 fc bc 4c e2 8b 3d 69 6b eb bd 89 50 d7 3b
       -0.03084176 0.06830272 -0.11495096 0.00657088
0002e0 6c 73 95 3d 2b 49 cb bc 8c d8 98 3d 07 33 8b bc
       0.072974056 -0.024815163 0.07463178 -0.016992105
0002f0 e5 94 af bd 18 b5 f0 3b aa 4f 52 bd 26 c6 dc bd
       -0.08573321 0.007345807 -0.051345505 -0.10779981
000300 3c 41 94 3c ca 46 07 be 1f e2 ba bc 1b f4 7d bc
       0.018097512 -0.13210598 -0.022812901 -0.015500094
000310 fa 58 c0 bd e8 e2 de bc f3 fe f4 bc 8c 91 14 bd
       -0.09391971 -0.027207807 -0.029906726 -0.036271617
000320 e7 ac e0 bd 92 ac e1 3d e1 05 73 bc b3 c7 4b bd
       -0.109704785 0.11019243 -0.014832945 -0.049750995
000330 a0 91 b4 bc af 5f f3 bd 9d ff 8d bc cc 71 b0 bc
       -0.022042096 -0.118834846 -0.0173338 -0.021538638
000340 23 bf 01 be 90 2d e3 bc 55 56 a8 bd 52 04 71 3d
       -0.12670569 -0.027731687 -0.082195915 0.05884201
000350 a3 e1 1f be 16 52 6a bd 13 1e 39 bc db 07 4f bc
       -0.15613417 -0.05720719 -0.011298674 -0.01263615
000360 15 5d cd bc 09 3a bf bc b8 a8 c8 bc 9e 75 19 bd
       -0.025068799 -0.023343103 -0.024494514 -0.037465684
000370 31 e1 a1 bd 6b 3c 8a bd 4c fc ed 3c 8c 31 35 bd
       -0.0790428 -0.06749805 0.029050969 -0.044236705
000380 20 2e de bb e2 93 95 3d f0 b3 2f 3c e4 50 e3 bd
       -0.006780401 0.07303597 0.010724053 -0.11099413
000390 c9 75 a1 3d e5 ca 8e bd e6 b7 89 bc 3c 2e b3 bd
       0.07883794 -0.06972293 -0.016811322 -0.08749053
0003a0 36 1a 01 bd c3 06 dc bc 2b 15 92 3c 3c 2b b8 bd
       -0.031519137 -0.026858693 0.01783236 -0.08992621
0003b0 da 2d 2a bd f9 7f bb bc f6 5e e5 3c a1 29 ac bd
       -0.041547634 -0.02288817 0.027999382 -0.084063776
0003c0 1c e9 19 bd 6e 77 04 3d f1 64 fd 3c b4 30 10 be
       -0.037575826 0.03234046 0.030931922 -0.14081079
0003d0 f0 c5 23 3b 18 a1 94 3d 03 7c e6 3d a3 ff ff 3d
       0.0024989806 0.07257289 0.11254122 0.12499931
0003e0 6b 91 40 bd 29 d2 ec 3b 3a fc 6a 3d 97 9c f6 3b
       -0.04701368 0.0072272015 0.05736945 0.007525991
0003f0 bc 14 ef bd c1 f9 0a be c8 3a 07 be 4f 0f bf 3c
       -0.11673877 -0.13571836 -0.13206017 0.02332273

fc.2.weight f4 [1, 256]
000000 88 63 ae be 3c 9e 33 3d 29 fa 98 bd 38 3f 4c be
       -0.3406031 0.043852076 -0.07469589 -0.19945991
000010 bd 7a 8b bd 06 47 3a be 1c dd cf 3d e5 96 b7 be
       -0.0681052 -0.18191156 0.10149595 -0.3585731
000020 01 97 ce 3d 0a c1 13 be 25 32 09 3e d5 06 f4 3d
       0.100873955 -0.14429107 0.13398035 0.119153656
000030 82 a3 0b bb 88 1a 69 be 9a f4 50 3d 3b 40 c5 bd
       -0.0021307175 -0.22764027 0.05101452 -0.096313916
000040 53 4b c3 be b3 bc b8 be 5b 95 a8 be 01 fc 91 bd
       -0.38143405 -0.36081466 -0.3292645 -0.07128144
000050 bb 20 ad bd 16 e3 66 be f2 ee a2 be 17 5b 0a 3e
       -0.084535085 -0.22547564 -0.31822926 0.1351131
000060 3f 44 b7 3d 52 b6 14 3e 57 23 f1 be b9 2a a3 3d
       0.08948564 0.14522675 -0.47097275 0.07967133
000070 8c 02 b1 be 3c 3c 51 bd d6 f6 ba be e5 af 1c 3e
       -0.34572256 -0.051082835 -0.36516446 0.15301473
000080 79 79 08 bf fa 74 03 3e 5a 8d c7 3d c4 f2 93 be
       -0.5331035 0.12837592 0.097437575 -0.28896153
000090 f2 63 93 bf 93 c1 b6 bd 5e b8 c6 be eb 00 2f bd
       -1.1514876 -0.0892364 -0.38812536 -0.042725485
0000a0 f4 d9 d9 be 53 45 b7 bd 96 31 aa be 8e 42 98 be
       -0.42549098 -0.089487694 -0.33240956 -0.29738277
0000b0 21 8d b2 3d fb a3 9a 3d d1 e6 9a be 32 a8 a9 be
       0.087183245 0.07550808 -0.30254224 -0.33136135
0000c0 2b bb b8 be 26 08 44 3c 28 94 52 be 88 97 b3 be
       -0.36080298 0.011964833 -0.2056433 -0.35076547
0000d0 a9 22 d3 be 6e 73 46 3c af 15 12 be 5f a2 e7 be
       -0.4123738 0.0121124815 -0.14266084 -0.45241067
0000e0 5b d2 c3 bc e9 20 97 3e ac a2 ca be 03 e4 91 be
       -0.023904016 0.29517296 -0.39577234 -0.28494272
0000f0 82 5d 97 bc 6f 93 85 bd 4d 09 db be a3 db 5f be
       -0.018477205 -0.06522261 -0.42780533 -0.21861129
000100 23 fd 9b be 81 15 a8 be de bd ca 3d b3 79 8b be
       -0.30466565 -0.32828906 0.098994955 -0.27241287
000110 e0 9f 07 3d 91 be a9 be 23 e6 f2 be b0 91 9a bc
       0.033111453 -0.33153203 -0.47441205 -0.018868297
000120 0f 44 8a be 51 1c e6 be dd 88 ba be 95 5f 6f be
       -0.2700505 -0.4494348 -0.36432543 -0.23376305
000130 23 0b 33 3e 4b bd a1 be 17 df 8b be 4e 8e 29 3e
       0.17484717 -0.31589732 -0.27318642 0.16558191
000140 81 fd ca 3c 86 3a 96 3d 8c 89 a5 be c9 00 ef bd
       0.024779083 0.07335381 -0.32331502 -0.11670072
000150 cb 3d 4a 3d 54 0d b8 be 79 36 82 be 55 2a 0b be
       0.049375337 -0.3594767 -0.25432184 -0.13590367
000160 63 dd 51 3e 88 0a db bd e6 3f 11 be 4e 69 db be
       0.20494609 -0.10695368 -0.14184532 -0.4285378
000170 57 71 a1 bd 93 bf 56 3d 5e b1 be be c3 d7 ef bd
       -0.07882946 0.052428793 -0.37244695 -0.11711075
000180 f2 98 88 be d7 8c 91 3e ba 26 fb bd 8f 5b 19 bd
       -0.26679188 0.28427765 -0.12263246 -0.037440833
000190 3a d7 9f bc 74 31 e3 be 26 93 90 3d 95 1f 14 be
       -0.019511808 -0.44373667 0.07059316 -0.14465173
0001a0 e4 94 37 be 86 00 a1 3d b8 af f9 be ab c4 41 3e
       -0.17927891 0.07861428 -0.48766875 0.18922679
0001b0 9b 62 5d be 10 70 4c be 1f 4c f4 be c1 82 e3 be
       -0.21619646 -0.19964623 -0.47714326 -0.44435695
0001c0 46 06 fc 3d 87 eb 83 be e3 35 93 be b5 02 8f bd
       0.12305884 -0.2576563 -0.2875205 -0.06982938
0001d0 fa 6e ce be 72 db 4c bd 7f 93 32 3e b2 91 96 bf
       -0.40319043 -0.050013967 0.17439078 -1.1763213
0001e0 7f 1a e6 3c e0 b9 a4 be ba f8 c3 be ea c9 8c bd
       0.028088806 -0.3217306 -0.382757 -0.068744496
0001f0 92 69 b1 be 34 d0 30 bd 60 32 cd 3d 39 8a 3c be
       -0.34650856 -0.043167308 0.10019374 -0.18412103
000200 8d 6c 83 be 1d 5f c9 be 26 01 b2 be 67 47 82 be
       -0.25668755 -0.39330378 -0.347665 -0.254451
000210 85 85 ec 3d 8b d8 46 be 24 d5 dd 3d 60 91 91 bd
       0.11548904 -0.19418542 0.10831669 -0.07107806
000220 cb a0 83 bf 66 3e b4 3d 28 83 c6 3d 4c d0 83 bd
       -1.0283445 0.08800964 0.09692985 -0.06436214
000230 8f c7 03 bf 48 c2 c4 be b6 63 b5 be 2c a4 a3 be
       -0.5147638 -0.38429475 -0.35427636 -0.3196119
000240 b9 bd da be 88 3b d5 be 95 07 b3 be c2 62 68 be
       -0.42722872 -0.4164698 -0.34966722 -0.22693923
000250 46 f7 c1 bd 83 60 c2 3d 0e 3b 8f 3d a0 f1 5a 3e
       -0.09470992 0.094910644 0.06993686 0.21381235
000260 ad 0e a6 be 39 62 d0 bd d5 cd 08 be 4a 96 fa 3d
       -0.32433072 -0.101749845 -0.13359769 0.122356966
000270 99 7c 7c be 94 7e b2 be 25 06 aa be 8e 04 a8 be
       -0.24656905 -0.34862196 -0.33207813 -0.32815975
000280 ea be a2 be 79 de 3d 3d ca 00 d5 be 66 c5 88 be
       -0.3178628 0.046354745 -0.41602165 -0.26713103
000290 b4 60 c7 be 19 93 0a bf 58 93 01 3e 10 a4 33 bf
       -0.38940966 -0.54130703 0.12653863 -0.70172215
0002a0 dc b0 ed be db 0b 94 3d 30 a9 c1 bc 54 bb 2d 3d
       -0.46423995 0.07228824 -0.023640245 0.04241498
0002b0 de cd 92 bd b0 e5 ce be 11 94 2b bf 50 eb 5b bd
       -0.07168172 -0.40409613 -0.67022806 -0.05369121
0002c0 7a fe ef be 79 1b cb be df 2c b7 be 80 64 3b be
       -0.46873838 -0.39669397 -0.3577642 -0.18300056
0002d0 f9 e2 43 3e c7 90 39 3c 99 e4 34 3e 47 bc a9 3d
       0.19129552 0.0113260215 0.17665328 0.08287864
0002e0 f8 43 a8 bd c3 9c 5f be 68 77 a3 be b2 a6 a0 3d
       -0.08216089 -0.21837144 -0.31927037 0.078442946
0002f0 02 2c ed be 30 08 d7 3d b1 65 b1 be b7 91 ed be
       -0.46322638 0.104996085 -0.34647897 -0.46400234
000300 b6 b4 8c 3d 29 7c 08 be 5f 9e b6 be 13 0a 69 be
       0.068704054 -0.13328613 -0.35667703 -0.2275775
000310 7a 80 3b be d3 af b2 be b3 18 18 3d 4b d1 1b 3e
       -0.18310729 -0.34899768 0.03713293 0.15216558
000320 e5 a4 5c bd db a9 92 3e 9d e6 cd be 99 11 b7 bd
       -0.053868193 0.28645214 -0.40215006 -0.08938903
000330 10 03 87 3d 9e 3f 2c be 5a e0 2c be 73 92 5f bd
       0.06592381 -0.16821143 -0.16882458 -0.054583024
000340 9f 8a d9 be cb 64 d7 be 4a 32 a2 bd bf 76 47 3e
       -0.42488572 -0.42069086 -0.07919748 0.19478892
000350 ff de 5b 3e 06 d9 9a be a5 df 34 3d ce 98 a1 bd
       0.21471785 -0.302437 0.044158597 -0.07890473
000360 11 df de 3d c0 ae 37 bd b4 09 a1 be a2 81 0b 3e
       0.1088239 -0.04484439 -0.31452715 0.1362367
000370 b7 c1 a5 be 84 d3 a4 be 0f b0 78 3c 40 56 a9 be
       -0.32374355 -0.32192624 0.015178694 -0.33073616
000380 4a 36 e0 bd 72 de 12 3e 8d f9 23 be 8b bb 29 be
       -0.10947855 0.14342669 -0.16013165 -0.16575448
000390 19 11 44 be a5 49 da be 2d 99 ce be f5 ec dd bc
       -0.19147147 -0.4263431 -0.4035124 -0.027090529
0003a0 f0 48 02 bf 95 a3 eb bd 33 8b 9a be c3 d8 00 bf
       -0.50892544 -0.1150581 -0.30184326 -0.5033075
0003b0 c3 3d 35 3d fa 5c 13 3e c2 62 ea 3c 16 b0 38 be
       0.044248354 0.14390936 0.028611545 -0.18035921
0003c0 d2 50 e0 be b1 20 b2 3c e8 c9 d8 be 11 ae bd be
       -0.4381166 0.021744104 -0.42341542 -0.37046865
0003d0 dd 89 94 be 12 bc 51 bd c1 b5 0b bd 3b 17 3d bc
       -0.2901143 -0.05120475 -0.03410888 -0.011541183
0003e0 f5 c0 bb bd fd fb 22 3d 76 07 af be 1d b1 43 be
       -0.09167663 0.039791096 -0.3418538 -0.19110532
0003f0 63 49 cd 3c a7 04 d3 be 74 de 00 be 01 71 b0 be
       0.025059408 -0.41214487 -0.12584859 -0.34461215

value_head.weight f4 [1, 64]
000000 c4 2e 22 bb 0f 16 82 3c 7c c8 27 bd 37 97 30 3d
       -0.0024747113 0.015879659 -0.04096268 0.04311296
000010 40 1b ac bd b9 2e 85 3d d4 cc 81 3d 61 9a 92 bd
       -0.08403635 0.06503052 0.06337896 -0.07158352
000020 49 64 56 3d 22 d6 66 bd 1f 95 61 bd d9 ab 1b bc
       0.052341733 -0.056356557 -0.055073854 -0.009501421
000030 43 11 f8 bc 9f ae 43 3d 2e c6 5e bd ff 7b 83 bd
       -0.030281669 0.047773954 -0.054388218 -0.06420135
000040 3c 6b 0b 3e df 7b 1d bd 9c c4 03 3d cd af 08 bd
       0.13615125 -0.03844821 0.032169923 -0.03337078
000050 b0 ea d6 3d cd 30 e6 bd 23 dc 70 3d 71 46 22 bd
       0.10493982 -0.11239777 0.05880369 -0.03961796
000060 4c 85 c1 ba 7c 62 86 bd ef a6 a3 bc 07 37 87 bb
       -0.0014764457 -0.06561753 -0.019977061 -0.004126433
000070 02 b6 24 3c a5 d6 e5 bc 69 d1 21 bd f9 f1 6b 3d
       0.01005316 -0.028056452 -0.03950635 0.05760381
000080 e4 51 0c 3d 72 ac 84 3c a0 a7 ac bd 67 58 87 bd
       0.034257784 0.01619551 -0.084304094 -0.06608658
000090 19 97 ea bc 20 ba 9e bc 2e 54 7e bc 27 fe 79 b9
       -0.028636502 -0.01937586 -0.015523 -0.0002384117
0000a0 db aa af 3d 19 b3 f3 bc 4c 6e 87 bc d9 33 7c 3c
       0.0857751 -0.029748486 -0.016532086 0.015393221
0000b0 3f a4 ca bc 2a 03 26 3d e2 ba ec bc c9 eb 29 3d
       -0.024736522 0.04053036 -0.028897706 0.041484628
0000c0 5a 3e ce 3c 10 20 b3 3c fb 84 c3 3b 67 f9 97 3c
       0.025176216 0.021865875 0.0059667802 0.018551541
0000d0 5b fa 5c 3d 26 d3 21 bd a5 b2 c2 bd b0 16 fb 3d
       0.053949695 -0.039508007 -0.0950673 0.12260187
0000e0 5a b5 b5 3b 19 f5 36 3d a9 b0 95 3d 5e 17 13 bd
       0.0055453004 0.044667337 0.07309086 -0.035910957
0000f0 38 c6 64 3d 3d 22 9c 3c 0f 7d 5a 3d 70 da 4f bd
       0.0558531 0.019059295 0.05334192 -0.050745428
