CNN_Closing/Trained Models/model_cnn_5.pth (torch, 156403 bytes, 10 tensors)

conv.0.weight f4 [128, 1, 2]
00000000: 4ea0 bbbe 1c93 8f3e 4134 92bc f1ad 0a3f
00000010: 3b36 013f c8f3 2f3d fba1 b13e d9dd 2cbf
00000020: 0cad b3be 13d0 31bd 5370 9cbe d10b 5bbd
00000030: 584b 0d3f 2f78 2d3e a83e bdbe 1557 39bd
00000040: 2185 fabe 300a 12bf 2bc9 273f 2a82 12bf
00000050: 9cba 103f 68ff ba3d 0d96 8b3e da1d 6b3e
00000060: af65 863e 04c3 9d3e 9a68 0cbf bf52 ed3e
00000070: c24c b43e b4d6 813e 0061 10bf 6ab0 78be
00000080: 4409 1cbf ca32 e03e 097c d1bd 0cfb f7bd
00000090: a73c 27bf 2e98 143e c998 cf3e 5090 9fbe
000000a0: e2ea 163f b811 283f 61e6 fcbe b7e6 bcbc
000000b0: 6e1e d1be 6f5d 8f3d 975e 243f 8ce6 023f
000000c0: 65d6 923e d2c0 653e 5164 253f a913 f3ba
000000d0: 8931 263f 1264 43be 67ef e33e 5306 c53e
000000e0: 28de cfbe 2c86 6f3e 514a 033f b7ea 6b3e
000000f0: 8089 0dbf 139c 203e ae46 613d 34b9 0dbe
00000100: 9474 ec3d de50 f83e 6c56 8f3e 4d9a 7d3c
00000110: 8cb1 283f 56a6 b9be 8cd7 24bf c61e 0bbf
00000120: 6296 643e e272 e43d de0d be3e 76ae 20be
00000130: b7b7 2dbf 96d3 bebe 2a03 fabe 269e ad3d
00000140: 87ff c9bd 7c3a 9c3e 0b1c 583d de88 183f
00000150: 05fb 0e3f a390 943e 07aa 623e 8904 9dbe
00000160: b9b2 f73e ea30 00be 8cbf 24bf a191 073f
00000170: e657 773e 0db5 183f dd3a f73c 12ab ad3e
00000180: 39a3 343f 65eb 38be 21d2 d63e d12c 993e
00000190: 7b1b b3be ac9a 2b3f b3d0 c6be 5509 79be
000001a0: 91c6 c83e dd02 7ebd dd5b 933e 7b8d 88be
000001b0: 409d 1bbf 6e91 623e b96d f53e 4f56 03bc
000001c0: d49a c5be a0e7 23bf f9fa 8a3e 070d 0bbf
000001d0: d3a6 983e 08bf 933e a5b2 3d3e 40de 0d3f
000001e0: be4e d2be 4982 f43e 7801 ca3e a699 bcbd
000001f0: 974a 13bf da08 d6be c096 ccbe 750b 533c
00000200: 3158 c0be 063b 1a3f bc58 903e f8fc d23e
00000210: e94c 0ebf a8ca 4e3d 0d03 193f 3b80 2a3f
00000220: 22bc 3ebe a195 dabe dfb6 093f 4d27 21bf
00000230: d1bf 1fbf a39b 2b3e 1a80 8f3e c404 203f
00000240: 4d08 31bf 4134 09bd 1ad9 46be d655 71be
00000250: 5d27 a9be 962f eebe e6ce 33bf 0a49 103f
00000260: 5845 c0bd 16cf 6ebe bd86 1d3f aee6 e83e
00000270: 1b82 c9be 5043 0d3f 21f1 febe e335 eabe
00000280: aa04 51be b04d 063f 8ac1 0fbf d9d5 bbbe
00000290: 17e0 ce3e 3082 0bbf 2a15 cd3e 20f4 bb3d
000002a0: a667 25bf df26 253e 4b0f f33e 65fc 16bf
000002b0: 7486 943e e579 f3be 88e0 8a3e f85b 123f
000002c0: 277e a83d 0a12 163f 1a06 073f 4fe1 4dbe
000002d0: ed76 d5be 554e 093e 84f7 32bf d8b9 08be
000002e0: 0ae4 1ebd f9e9 0ebe 7d07 67be 5395 07bf
000002f0: 95f2 443e 585f f43e f586 283f ffbd a93e
00000300: f097 873e 375e 20bf 8a89 8e3e d99e 8b3c
00000310: a56f d2be fe65 273f d9ee 823e 44a3 8dbd
00000320: 6099 30be 3bfa c53d 39c1 c0be eb5b f9be
00000330: 2387 66bd 59c1 1e3f 88bd dd3e b128 a3be
00000340: 8d88 f43e dc88 323f e2e7 0bbf d081 293e
00000350: e7e4 1b3f b724 d8be 3799 08be beb4 b73d
00000360: 27ee a73e 93c2 c73e 70b7 1b3e 9dcb 753e
00000370: 6038 123f f998 d23e b53d 2f3f b347 f93a
00000380: 8aec 0abf 0096 e73e 2461 ef3e c80a 24be
00000390: 03cb 04bf 3ff5 99be f0d3 2f3f 4564 bdbe
000003a0: 834c 59be 9239 1d3f c421 3ebe 8ee3 6dbe
000003b0: a492 c73e adfd 9e3d 8ddc 15be d93e 1abf
000003c0: 7189 c43e c2a0 a43e 6eac 2b3f 9655 1c3e
000003d0: f388 4a3e 05d3 223f 0227 223f d7fd 2e3f
000003e0: dcbc 2c3f 2549 0bbf f8f4 253f cbd7 143f
000003f0: 1e60 27bf ccb0 303d 9b94 d63e bc51 063f
-0.3664574 0.28041923 -0.017847182 0.54171664 0.50473374 0.042957097 0.34693894 -0.6752601
-0.35092962 -0.043411326 -0.30554447 -0.053478066 0.5519309 0.16940378 -0.36961865 -0.045249064
-0.48929694 -0.57046795 0.6554133 -0.57229865 0.56534743 0.09130746 0.27262917 0.22960606
0.26249453 0.30812848 -0.5484711 0.46352193 0.35214812 0.25359118 -0.5639801 -0.24286047
-0.6095164 0.4378875 -0.10228736 -0.1210843 -0.65326923 0.14511177 0.40546253 -0.3116479
0.5895215 0.65652037 -0.49394515 -0.023059232 -0.40843529 0.07000243 0.6420683 0.51133037
0.28679195 0.22436836 0.64606196 -0.0018545288 0.64919335 -0.19081143 0.44518587 0.38481387
-0.4059918 0.23391026 0.5128527 0.23038755 -0.55287933 0.15684538 0.054999046 -0.1384018
0.11545673 0.48499197 0.27995622 0.015478683 0.65895915 -0.36259717 -0.643914 -0.5434383
0.22322991 0.11154725 0.37119955 -0.15691552 -0.6785845 -0.37270802 -0.4883054 0.0847743
-0.09863191 0.3051337 0.05276112 0.5958384 0.55851775 0.290166 0.22135173 -0.30667523
0.48378542 -0.12518659 -0.6435478 0.5295659 0.24154624 0.5965126 0.030179435 0.3391958
0.7056156 -0.18058546 0.4195719 0.29917005 -0.34981903 0.67032886 -0.388311 -0.24319966
0.39213994 -0.06201445 0.28781024 -0.2667044 -0.6078682 0.2212579 0.47935274 -0.008016183
-0.38594687 -0.64025307 0.27144602 -0.54316753 0.29814777 0.28856683 0.18525179 0.5541725
-0.410757 0.4775565 0.39454246 -0.092089936 -0.5753569 -0.41803628 -0.39958763 0.01288115
-0.37567285 0.6024631 0.281927 0.41208625 -0.55586106 0.050486237 0.5977028 0.66601914
-0.18626454 -0.42692283 0.53794664 -0.62950593 -0.62402064 0.1675859 0.2802742 0.6250727
-0.6915329 -0.0334971 -0.19418755 -0.235679 -0.33037844 -0.4652068 -0.70237577 0.5636145
-0.09388226 -0.23321185 0.6153372 0.45488495 -0.39357075 0.55180836 -0.49793342 -0.45744237
-0.20411935 0.5246229 -0.5615469 -0.3668659 0.40405342 -0.54495525 0.4005521 0.091774225
-0.6461128 0.1612811 0.47472605 -0.58978873 0.2900883 -0.47553936 0.2712443 0.57171583
0.08227187 0.58621275 0.52743685 -0.2010548 -0.41692296 0.13408788 -0.6990893 -0.13352144
-0.038791694 -0.13956441 -0.2256145 -0.52962226 0.19233163 0.47728992 0.6583093 0.33152768
0.26483107 -0.6264376 0.2783931 0.017043518 -0.41100803 0.6539 0.2557285 -0.06915906
-0.17246008 0.09666868 -0.37647417 -0.4870294 -0.05628122 0.62013775 0.43308663 -0.31866983
0.4776043 0.6974008 -0.546507 0.16553426 0.6089615 -0.4221551 -0.13339697 0.08970021
0.32798883 0.39015636 0.15206695 0.24003454 0.5711727 0.41132334 0.6845353 0.001901856
-0.5426718 0.45231628 0.467538 -0.16019738 -0.5187227 -0.3006992 0.68682766 -0.36990562
-0.21220593 0.6141597 -0.18567568 -0.23231336 0.38979065 0.077632286 -0.14634915 -0.6025215
0.3838611 0.32153898 0.6705998 0.15267023 0.19778804 0.6360324 0.6334077 0.6835608
0.67475677 -0.54408485 0.6482692 0.58141774 -0.6538104 0.043137357 0.41910252 0.52468467

conv.0.bias f4 [128]
00000000: cdfc 303f ca60 733e 32c5 c53e dcaa 2d3f
00000010: c3d8 8abd b97f d0be 17f7 10bf 47a1 963e
00000020: 0b40 413e 5cda 0b3d c5fd 25bf e692 04bf
00000030: a3fe 4ebc f2fe f83e c713 fb3e 0aee 283f
00000040: 6651 90be 0286 603e 045c c5bd 87a7 b13e
00000050: cd14 1ebf b234 2e3f 9991 ed3e dd7b 253f
00000060: 92d9 05bf ddc9 023f 61ea 063f 5612 b5bd
00000070: 5d6d f03e 2353 a63e f4f5 f8be 169a f33d
00000080: a97b e13e a892 173f 0000 21bd 3775 d13e
00000090: b529 13bf 2628 123f f360 033f 744e 6ebe
000000a0: 12f2 abbd c16a 98be 5b20 68be aa2d d1bd
000000b0: dadc 003f 8dfa 913e 5357 ea3e 4825 01bd
000000c0: 223b ffbd f174 24bf ef59 a43d 6886 b6be
000000d0: 1a70 df3e 906f 1cbf e641 1abe ac4c c83e
000000e0: bf70 99be fc85 15bf 3087 e03e 67d1 c0be
000000f0: 9e3d cabe efa0 673e a8ce 1bbe 01a2 253f
00000100: d55c fe3d de47 0b3f 2667 dcbe e781 4e3e
00000110: f331 043e c3c8 ed3e 4664 01bf 8828 e33e
00000120: fa95 1cbe 15a7 e0be b8f3 ed3e 1a88 213f
00000130: 5acb 2a3f ffa7 bbbe fdfe 283f 8276 c7bd
00000140: 9ca3 223d 4652 9cbe bac6 8b3e 243c 1a3f
00000150: b1f2 eb3e 6464 c5be 1481 00bf 278d e43e
00000160: e379 febe 6a05 143f 7090 d4bd 1df6 0fbd
00000170: b6d3 e5be 63d7 1b3f c3e5 2dbf ab53 0f3f
00000180: daa9 ffbe 0f31 1ebf 6c68 de3d 0862 1dbf
00000190: e460 bbbe c726 e73e ded0 0c3e 9a0f 13bf
000001a0: 48aa bf3e 904c 253d 4e61 8a3e 1648 c6bd
000001b0: d501 113f 888d 053f 3790 0abf 87dc d0be
000001c0: 2efb 80be 09fb 223b bfa4 c13e 2ddd e23e
000001d0: b073 733e e10b a7be 1567 19be fa99 013f
000001e0: 41a3 2d3e 57f9 08bf b6ac 1abf 5f58 88be
000001f0: 0b5b 903d e57d dcbe ff18 21bf 631e 983d
0.69135743 0.23767391 0.3862701 0.67838836 -0.06779625 -0.40722445 -0.5662703 0.2941992
0.18872087 0.03414379 -0.64840347 -0.5178665 -0.012633952 0.48632008 0.49038526 0.6598822
-0.28187102 0.2192612 -0.09636691 0.34698126 -0.6175049 0.68049157 0.46400145 0.64642125
-0.5228511 0.5108927 0.52701384 -0.08841388 0.46958438 0.32485303 -0.48625147 0.11894624
0.44039658 0.59208155 -0.03930664 0.4090974 -0.57485515 0.5709251 0.5131981 -0.23272115
-0.083957806 -0.29768947 -0.22668593 -0.10213788 0.5033699 0.28511468 0.45769748 -0.031529695
-0.124624506 -0.6424094 0.08024966 -0.3564942 0.43640214 -0.6110773 -0.15064201 0.39120996
-0.2996883 -0.5840757 0.4385314 -0.3765976 -0.39500135 0.22619985 -0.15215552 0.64700323
0.1242005 0.54406536 -0.43047446 0.20166741 0.12909679 0.46442232 -0.5054363 0.4436686
-0.15291587 -0.43877473 0.46475005 0.630983 0.6671654 -0.36651608 0.6601408 -0.097394004
0.03970681 -0.3053152 0.27300054 0.6024802 0.46083596 -0.38553154 -0.5019696 0.4463894
-0.49702367 0.5782076 -0.10379112 -0.03514682 -0.44888085 0.6087553 -0.67928714 0.5598704
-0.49934274 -0.6179361 0.10859761 -0.6147771 -0.3659736 0.45146772 0.13751552 -0.5744568
0.37434602 0.04035622 0.27027363 -0.09681718 0.5664342 0.52169085 -0.54126304 -0.4079325
-0.25191635 0.0024868867 0.37821004 0.4430937 0.237746 -0.3262625 -0.14980729 0.50625575
0.16956808 -0.5350546 -0.60419786 -0.26629922 0.07048615 -0.430648 -0.62928766 0.07427671

conv.2.weight f4 [64, 128, 2]
00000000: 1a24 483d cc19 953c d943 5f3d 12fb 18bd
00000010: 5e57 bc3c 3c37 47bd 6b33 73bc c3f3 80bb
00000020: 3a2d 15bd 3ffc 1d3d 895c 19bb efa5 643d
00000030: c05f 7cbd e67b 44bd 71b5 483d f8e5 4ebc
00000040: 2b08 5d3d 5a67 c1bc 6999 5bbd fe30 9b3c
00000050: 7898 3e3a 660e 21bd e954 8dbc 9e3b 5cbd
00000060: 8a1d 073d 432f 77bd e109 76bc 6745 51bc
00000070: 8122 7a3d 8c8b 3dbd a3da df3b dffa 57bc
00000080: b5f1 8bbc 3457 edb9 141a 3abd 4a62 bbba
00000090: d351 74bd e3f2 abbb 7fe1 b93c 2ecc 0f3d
000000a0: e07e 21bc 35aa b0bc e670 6b3d 9a7f c139
000000b0: 3e98 8dbc e07d c8bc 1d84 193d 188e 353d
000000c0: d9f2 08bd 0eea 21bd 2f66 2abd 9509 dfba
000000d0: b34c 013c e300 28bc 0dbf 143d 1894 863c
000000e0: cf2f 3abb dc2a 8ebb a6b7 54bc 65e4 20bc
000000f0: 8f43 a33c 77e5 383d 4022 2dbd f029 baba
00000100: df8e 173d 3f23 593d d8ca 323d 9827 2c3d
00000110: 4a07 4f3d 65bf 6e3d 44e6 5cbd 4a18 223d
00000120: c369 2abd e9e1 3ebd 4c04 3a3d 0c9b 6fbd
00000130: 38c6 db3c 41fb 6dbd 4059 0e3d afc6 703b
00000140: c7cf 683d 9a35 27bc 36ff 5ebd 927c 11bd
00000150: 0a4d 00bb 6240 7cbd 1774 313d c75f ddbc
00000160: 75cd 6d3d 854b 28bd 7a80 0e3b d941 b2bc
00000170: f44a 11bd 6604 33bd 40ff 203d 48de 39bd
00000180: 88f9 2d3d a849 7ebc de66 3abd 7846 763d
00000190: 0a97 6c3d e350 87bc 09f0 093d 50e7 49bd
000001a0: 6731 573c 8487 33bd f9a6 563d 2e65 ad3b
000001b0: 83c0 103d ee84 ad3b 3adf 1d3d 6cfe e43c
000001c0: 2d46 543d 3d76 73bd 732e a43c c523 72bd
000001d0: 1d5c 4dbd b47b 523d 6a23 333d bf81 0dbd
000001e0: 14f9 af3c 7443 2c3d 0e2f 32bd 38de a8bc
000001f0: 2c66 243d bf12 16bc 5209 663d ad6e e43c
00000200: 7a0a 39bc b1d0 71bd 8983 e2bc 62a6 a0bb
00000210: 0789 4abd 8352 c63b 1cf8 99bc 5e98 48bd
00000220: baf7 db3c 7c20 a5bc 3c5f 26bc a177 91bc
00000230: 63d9 3bbd f07f 153d 5796 f2bc e646 743d
00000240: af60 06bd ffb5 933c 1f20 7e3d 7d2b 2a3d
00000250: 10cb b0bc d651 0cbd 9b3c c2bc 0476 523d
00000260: be50 19bb 617f 623d ccd8 c6bc 4eeb f4bb
00000270: 85c1 a2bc b1df 913c 8140 b63c 1983 4c3d
00000280: 86b5 a6bc da91 7a3c 4173 0dbb 758e edbc
00000290: d3c7 6d3d a4e8 64bd 1c47 64bd c9d3 133d
000002a0: bceb 473d a2b2 57bd ae89 63bd 7618 743d
000002b0: b8c2 793d cb92 e3bb 96f7 a7bc ec60 5fbc
000002c0: 456c 3cbd 85ec e3bc 6429 d6bc fcfe 71bc
000002d0: d18d e43c d715 ba3c bc3a 5b3d 5125 203d
000002e0: ca72 7ebd cfbe 223d 9903 393d 0741 16bd
000002f0: ac7b 323d a58f c93c 17ff 8cbc 6317 d8bc
00000300: 3901 eabc 8b36 bf3c 3231 033d c44a 343d
00000310: dc22 833c c28d ee3c ab4c 4cbd 69be 9ebc
00000320: d484 233d 6e1e d8bc c04c 313d 8241 603d
00000330: 8b21 fabc 7441 643c b7c8 da3c f340 5d3d
00000340: 19f3 4abd c7e2 763d 6906 ec3b 0af8 163d
00000350: d098 7ebd b0c5 643d 15fc 7b3d 1e92 843b
00000360: 4251 043d d212 02bc 1615 2d3c 72c9 0abd
00000370: c9cf 77bd ef96 51bd ad91 743d b874 3f3d
00000380: 0db8 e43c 620d 453c b6c2 013d d1ae 34bc
00000390: 4272 153d 2cdc 733d 2b0a c0bc e522 673d
000003a0: 47ba 003d 3589 41bd 4a2c 443d 21c4 74bc
000003b0: 941e cb3c 8e8c 01bd ad4e eb3b 0664 473d
000003c0: 8db1 6e3d 329b 1fbc a365 9cbb 2e48 4dbd
000003d0: 4f8f 90bc e3e1 843c c3e0 213d 408d 8b3c
000003e0: 6c69 f1bc ec1b 3f3d 9c3e 413d 456e ea3b
000003f0: 7fe0 1abd aac9 093d 87ce 5dbd 5663 3dbc
0.048862554 0.018200777 0.054508064 -0.037348814 0.022990879 -0.04863666 -0.014843802 -0.0039353087
-0.036420085 0.03857064 -0.0023401103 0.05582231 -0.06161475 -0.04796972 0.04900116 -0.012628071
0.053962868 -0.023608852 -0.0536131 0.01894426 0.00072706444 -0.039320372 -0.017252402 -0.053767793
0.032987155 -0.060347807 -0.015017004 -0.012772894 0.06106806 -0.04627566 0.0068314834 -0.013182371
-0.017083028 -0.00045269134 -0.045435026 -0.001429626 -0.059648346 -0.00524746 0.022690533 0.03510683
-0.0098569095 -0.021565536 0.057480715 0.000369069 -0.017284509 -0.024474084 0.03747951 0.044324964
-0.033434723 -0.039529853 -0.041601356 -0.0017016405 0.007891822 -0.010254118 0.036315013 0.016428038
-0.0028409844 -0.0043386053 -0.012983238 -0.0098200785 0.019929675 0.04514071 -0.04226899 -0.0014203172
0.037001487 0.05301213 0.043650478 0.042029947 0.05054406 0.058287997 -0.053930536 0.039573945
-0.04160477 -0.046602163 0.045414254 -0.058497474 0.026827917 -0.058100943 0.034753084 0.0036739518
0.056838777 -0.010205651 -0.054442607 -0.03551919 -0.001957717 -0.061584838 0.043323603 -0.02702321
0.058057267 -0.041087646 0.0021744058 -0.021759914 -0.03547187 -0.043705367 0.039305925 -0.045378
0.0424743 -0.015520491 -0.045508258 0.060125798 0.05776123 -0.016518062 0.03367618 -0.049292862
0.013134337 -0.04383041 0.05240533 0.0052916026 0.035339843 0.0052953875 0.038542964 0.027953349
0.051824737 -0.059438933 0.02004168 -0.059116144 -0.050136674 0.051387504 0.043734945 -0.034547564
0.021481074 0.042056516 -0.043501906 -0.020613775 0.0401365 -0.009159743 0.056161232 0.027884806
-0.011294002 -0.059036914 -0.027650611 -0.004902647 -0.049447086 0.0060523166 -0.018795066 -0.048973434
0.026851524 -0.020157091 -0.010154542 -0.017757239 -0.045861613 0.036498964 -0.029612703 0.059637927
-0.03280705 0.018031118 0.06204235 0.04154538 -0.021581203 -0.034257732 -0.02371054 0.05138208
-0.0023394073 0.05529726 -0.024273299 -0.0074743396 -0.019867668 0.01780686 0.022247555 0.049929712
-0.020350229 0.015293563 -0.002158359 -0.028998593 0.058051895 -0.055885926 -0.055731878 0.036090646
0.0488088 -0.052660592 -0.055551223 0.05959364 0.060976714 -0.0069449893 -0.0205038 -0.013633948
-0.04600169 -0.027822742 -0.026142783 -0.014770266 0.027899655 0.022715492 0.05352281 0.039098088
-0.06212119 0.03973275 0.045169447 -0.03668311 0.043574974 0.024604628 -0.01721148 -0.02637834
-0.028565036 0.023341438 0.03202934 0.044016615 0.016007833 0.02912033 -0.049877804 -0.019377904
0.039921597 -0.026381698 0.043286085 0.054749973 -0.030533573 0.013931621 0.026707036 0.05401702
-0.049548242 0.060274865 0.0072029126 0.036857642 -0.062157452 0.055852592 0.0615197 0.004045739
0.032304056 -0.007939057 0.010564109 -0.03388352 -0.060500894 -0.051169332 0.05970924 0.04674217
0.027919794 0.0120271165 0.03167983 -0.011028008 0.036485918 0.059536144 -0.023442348 0.056429762
0.031427648 -0.04724999 0.0478938 -0.014939339 0.024794854 -0.031628184 0.0071810097 0.048679374
0.058274794 -0.009741591 -0.004772858 -0.050117664 -0.01764646 0.016220992 0.03952099 0.017035127
-0.029469214 0.046657488 0.04717885 0.0071542584 -0.037811752 0.033639587 -0.054152038 -0.011559328

conv.2.bias f4 [64]
00000000: dd85 613d e626 e23d 7a68 febb dca4 c9bd
00000010: 2f29 9e3d 96b3 2a3d 0e13 f4bd 2d57 b3bc
00000020: 20c1 f6bd 1578 5bbd 22b0 6a3d 45af 94bc
00000030: 434c 8e3d 4f02 c6bc cfaa 6d3d 689b ee3d
00000040: f5d6 953d b7e1 5f3c 3fb2 7d3d 198c 013e
00000050: 501c c23d 73f0 debd 7c06 353d c273 bb3d
00000060: df40 51bc f6bf 88bd 2866 9bbd 6c71 033d
00000070: 7010 503a aefc 4fbd b41a afbc 5ad4 c83d
00000080: 5794 1fbd 3797 663d 22ee 6ebc 362d d1bd
00000090: d1e8 9abb 154c 44bc 3647 953d d141 8cbd
000000a0: 3e82 88bd baa1 8dbd 17dc 6e3d 4068 c8bd
000000b0: 7a9b 4cbd a855 ecbc 6df0 30bd 2ce5 123d
000000c0: d57d 3f3b 5c7b c33d 220a 82bb ecc2 8b3d
000000d0: 4d44 703c ac10 a4bd 5eb2 9fbd 81c3 aabd
000000e0: 6bc5 bc3d cf17 403d 6590 5ebd a396 d6bd
000000f0: d6fc 02bc 7232 44bd b938 dd3d 7ecb e0bd
0.055059303 0.110425755 -0.0077639194 -0.098458976 0.07722699 0.041675173 -0.11917697 -0.021892155
-0.120485544 -0.053581316 0.05729688 -0.018149981 0.069481395 -0.024171023 0.058024224 0.11650735
0.073163904 0.013664654 0.061937567 0.126511 0.094780564 -0.10885706 0.044195637 0.091529384
-0.012771814 -0.06677239 -0.07587844 0.03209059 0.00079370197 -0.050778084 -0.021375038 0.09806128
-0.038959827 0.056296553 -0.0145831425 -0.102137014 -0.004727461 -0.01198103 0.07288973 -0.06848491
-0.06665467 -0.069156125 0.058315363 -0.09785509 -0.04995296 -0.028849438 -0.043198038 0.035863087
0.002921929 0.09545013 -0.003968493 0.06824288 0.014664722 -0.080109924 -0.07797693 -0.08338071
0.09217342 0.046897706 -0.054336924 -0.104779504 -0.007994851 -0.04789967 0.108018346 -0.10976313

conv.4.weight f4 [32, 64, 2]
00000000: 2c44 a6bd e4e7 8dbd 00ef 1fbd d2d8 3fbd
00000010: 5a17 9cbd cab5 61bc c5d0 78bd 5d82 15bd
00000020: ef2a 4d3c 8bac 7cbd 4c2d 42bd 08d1 1dbd
00000030: 6663 a1bd 0417 00bc 7686 01bd 20ed f1bc
00000040: caf7 cbbc 5244 393c 4437 54bc 854a 8cbb
00000050: 5305 18bc 0513 b8bc 640b 803d 7edc 7dbd
00000060: 1c0a a8bd 1d3c a6bd 9635 0d3d 36d2 15bb
00000070: 16f2 4f3d 697d 8b3d 53b6 9f3d 52b6 d13c
00000080: 1b9a 5c3d f861 38bd 3246 de3c 47a9 a6bd
00000090: aae8 34bc e744 983b 54f9 c73c 07c5 a93d
000000a0: 3b08 8d3d 58d3 273d 4707 2cbb 510a 9e3c
000000b0: 5826 083c 3fb4 0fbd a8bc 9a3d 3a66 113d
000000c0: dc55 8abc d008 1dbb 48e0 ccbc 7b58 d93c
000000d0: ecfb f2bc dd9f 533d 3f66 ee3c 3bfc 973d
000000e0: ab8d bbbc 9f42 fa3b cb7d f53c e993 6a3d
000000f0: ec7c 013d ae7b 963d d231 393a 9e0e c3bc
00000100: c5b7 813d f1ac 29bd 4d0a 0b3d 4aa5 45bd
00000110: d8f9 8dba 9a0a 8a3a c6fa a13d 52fd 23bd
00000120: 8703 993d a3c3 a33d d134 1e3d c700 993d
00000130: bda9 663d a838 843d 6b07 a33d 00b4 dd3a
00000140: dcb4 533c b80b 98bc d8e7 aebd 6795 9cbd
00000150: 795b bbbc 16b1 a8bd cbf6 3e3d a370 acbd
00000160: 29d4 963c 63fd 26bc 122a 1e3d 8bec 12bd
00000170: 79b3 ac3b 5a59 133d d91b 60bc 80df 98bd
00000180: fe29 c03c 5cd6 9b3c 76a9 37bc c46b a03d
00000190: c5ba 693d 3329 aebd 8f8a 503d 6764 74bb
000001a0: 00dd 953d 57cf b93c 2790 4abd 5a88 563d
000001b0: 5e53 693d 612b 06bd 096d 4b3d eba5 58bd
000001c0: a219 543d 3994 f83c 2718 d5bc e347 84bd
000001d0: 4735 91bd cb01 b2bd 5e39 6fbc be2b a83d
000001e0: 0886 38bd 0726 8dbd ed86 8fbd ac4e 693c
000001f0: f265 d13c 0852 1c3d 2060 0bbc eaf2 3e3d
00000200: 9a18 933c 55db 9dbd 0b95 92bd e02f 13bd
00000210: 3e7b 19bc 3b5d 84bc 1a90 3b3d 8ff3 30bd
00000220: 3d6b 213d 67c5 6abb 4545 3d3d c27f 58bd
00000230: 1af8 4dbd e9cf 483d 0814 6d3d 8bf2 3b3d
00000240: 1795 3e3d 8f49 0bbc 1e49 30bd 7e7d 203d
00000250: 82b4 0abc 46af 303d 2031 56bd 633e f4bb
00000260: 6d0a 8e3d bd73 afbd d8ae 43bd 0cb8 9abd
00000270: 04e3 b0bd 1288 6b3d 68dd a2bc 20fd b13d
00000280: ec61 133d 4056 9f3d 2a7c ad3b e9b0 293d
00000290: 3d65 74bd 61a0 afbc 3f8f 643d 8565 333d
000002a0: b9b5 65bd 558a 8b3d a3ea 0f3d 9f00 a73d
000002b0: 5123 afbc 3f29 afbd 389b d53c cff3 ee3c
000002c0: 3481 06ba deac 9e3b 2e9e 463d 4a52 ae3d
000002d0: d8c3 91ba fc3c 8abd 3181 9abc 116c 7f3d
000002e0: 7e98 883d 6cc4 9d3c cb38 cabc 47b2 2b3c
000002f0: f773 a33d a179 b3bd 4e2e c1bc 2627 5ebd
00000300: 6413 18bd 1a3f 3bbd 0428 793d 56f1 7d3d
00000310: 4088 62bd 7cd4 cfbc e25f 18bd 7264 7b3d
00000320: 751e efbc 8b5e 97bc 6a66 053b 00d0 a4ba
00000330: 5d35 b03d 7448 89bd 1856 95bd 851a 1e3d
00000340: 1289 4c3d 0e07 a1bd e710 b23d 0b6b 42bd
00000350: 398d 5fbd 9507 873d 1b55 63bd 481c cdbc
00000360: 3f04 e73b ac01 75bb ffbd ff3c 3ce7 673d
00000370: e724 9b3d 0779 b5bd a4c7 1e3b 8b0d 923d
00000380: 2970 513d d66a 47bb 6e2c 22bc 13cf 543d
00000390: f559 893d a8a8 23bc d2e2 aebd 4a4f 9abd
000003a0: 8a83 923d 41d1 edbc 11fb d63c a446 843d
000003b0: ae80 9abd ccf1 96bd 47f6 5cbd 8605 3fbd
000003c0: 2b74 bebb 2ee0 9c3c f988 ac3d 1599 afbd
000003d0: 58ba 8cbb d8c1 faba 586a 313d 61fa a3bd
000003e0: 9bb1 9bbc cd8d 6f3d 0e30 9bbc dd3d 6dbd
000003f0: bb03 553b 6d54 aabc 8762 543b 4b1d a73d
-0.081184715 -0.06928995 -0.039046288 -0.046837635 -0.076216415 -0.013776252 -0.060745973 -0.036501277
0.012522443 -0.061687987 -0.04740648 -0.038529426 -0.07880287 -0.007817987 -0.031622373 -0.029532015
-0.024898428 0.011307793 -0.0129526295 -0.0042813444 -0.009278613 -0.022470007 0.062521726 -0.061977856
-0.08205053 -0.081169344 0.03447493 -0.0022860891 0.05076798 0.068110295 0.077984475 0.025599632
0.053857904 -0.045015305 0.027133081 -0.08137756 -0.0110418 0.0046468857 0.024410881 0.08289533
0.068863355 0.040973037 -0.0026249455 0.019292029 0.008309923 -0.035084005 0.075555146 0.03549788
-0.016886644 -0.0023961551 -0.02500929 0.026531449 -0.029661141 0.05166613 0.02910149 0.07421156
-0.022894701 0.0076373364 0.02996721 0.057269964 0.031613275 0.07347809 0.0007064614 -0.023810681
0.063338794 -0.041424695 0.03394537 -0.048253335 -0.0010831906 0.0010531724 0.07909159 -0.040036507
0.07471376 0.07996299 0.03862459 0.074708514 0.05631422 0.06456119 0.07960399 0.0016914606
0.012921538 -0.018560275 -0.085403144 -0.07645684 -0.022870766 -0.082369015 0.04662208 -0.08419921
0.018411713 -0.010192248 0.03861434 -0.035870116 0.0052704182 0.035973884 -0.013678514 -0.07464504
0.023457523 0.019023113 -0.011209836 0.07833055 0.057062883 -0.08503952 0.05091339 -0.003729129
0.07317543 0.022681875 -0.04945388 0.05237613 0.05696427 -0.032756213 0.04966453 -0.052892607
0.051782258 0.030344116 -0.026012493 -0.06459024 -0.0709024 -0.08691748 -0.01460108 0.08211468
-0.045049697 -0.06892019 -0.07008157 0.014239948 0.025561307 0.03816417 -0.008506805 0.04661838
0.017956067 -0.0770785 -0.07157334 -0.03593433 -0.009367762 -0.016157737 0.045791723 -0.043201026
0.03940891 -0.0035823227 0.04620864 -0.052856214 -0.050285436 0.049026404 0.05788043 0.045885604
0.046528902 -0.008501424 -0.04303848 0.03918218 -0.008465888 0.043135904 -0.052292943 -0.007453726
0.06935582 -0.08566997 -0.047774166 -0.075546354 -0.0863705 0.057502814 -0.019880965 0.08690858
0.035982057 0.07780123 0.0052943425 0.04142848 -0.05966686 -0.02143878 0.055800673 0.04379799
-0.056081507 0.06813494 0.035135876 0.08154415 -0.021379145 -0.08552789 0.02607499 0.029168991
-0.0005130947 0.0048423847 0.048490696 0.08511789 -0.0011120988 -0.06749913 -0.018860431 0.06235892
0.066697106 0.0192587 -0.024685284 0.010479516 0.07981103 -0.08763433 -0.02358165 -0.054236554
-0.037127867 -0.045714475 0.060829177 0.061997734 -0.05530572 -0.025369875 -0.037200816 0.06137509
-0.029189328 -0.018477699 0.0020355233 -0.0012574196 0.08603928 -0.067032725 -0.07291812 0.03859951
0.049935408 -0.07862674 0.0869463 -0.047465365 -0.05457804 0.06593243 -0.055501085 -0.0250379
0.0070500667 -0.003738503 0.031218527 0.056617007 0.07575398 -0.08860975 0.0024227882 0.07131489
0.051132355 -0.003042867 -0.009898288 0.051955294 0.06706611 -0.009988941 -0.08539356 -0.075346544
0.07153995 -0.029030444 0.026242765 0.06458786 -0.07544075 -0.07370338 -0.053945806 -0.046636127
-0.005812188 0.019149866 0.08424563 -0.0857412 -0.004294675 -0.0019131256 0.043314308 -0.0800674
-0.019005587 0.05848484 -0.018943813 -0.057920326 0.0032503444 -0.02079221 0.003240736 0.08159884

conv.4.bias f4 [32]
00000000: 201e 993c 03f8 323d 6ecd 083d d6aa 983d
00000010: 790c b4bc 5a23 593c cd0b 8e3d b2f0 563d
00000020: 97c0 b13d eb84 86bc b769 61bd fdba 9bbd
00000030: f4f3 8c3c b1f2 debc d748 e63c 85a1 82bb
00000040: 84fc a4bd a3b9 06bd c44f 553d 2d5f 933d
00000050: c2c5 573d 810a 18bc cb02 023d 5681 9cbb
00000060: a400 973d 31ee 3c3d 2433 463c 2108 79ba
00000070: 541a af3d f6d0 b1bd 190d 0f3d f610 c33b
0.018691123 0.043693554 0.033399038 0.07454459 -0.021978604 0.013253057 0.069358446 0.05247564
0.08679312 -0.016420802 -0.05503246 -0.076040246 0.01720617 -0.027215334 0.028110905 -0.00398654
-0.08055976 -0.03289188 0.052078024 0.07195888 0.05267883 -0.009279848 0.031740945 -0.00477616
0.07373169 0.046125595 0.012097154 -0.00094998075 0.085499436 -0.08682434 0.0349246 0.0059529496

fc.0.weight f4 [256, 64]
00000000: bbd1 8d3d 8e94 c3bd 7323 8b3d 1647 4fbd
00000010: 64e1 dabd 7971 9fbd c765 fdbc fbeb c33d
00000020: 4307 aebc 2bf1 36bd fc4c e63d 3e1d 99bd
00000030: a2d4 2bbd f407 c6bd b9cf 133d 3266 553d
00000040: 76ef b4bd 9d57 213c eb90 793c cd7d c3bc
00000050: 3454 bdbc cb0f 313d 3dae d9ba 9a12 bdbc
00000060: 6b4f f7bd bf77 ee3d b53e 2f3d 2e43 f1bc
00000070: ce02 7e3d d720 00bd d5a0 6d3d 71f1 c63d
00000080: bb0a cb3d 7bdb e2bc e141 f8bd e98d 29bd
00000090: 35d0 523d a5d0 09bc 8602 ce3d 568b c83c
000000a0: 1f5e b1bd 37b8 293d 9e0b 37bd f0dd 18bd
000000b0: 5bfc db3d 5ab2 cf3d d66c 34bc 3cec 923d
000000c0: 8b88 863d 4d9a 013d c80d adbc 9a1a d43d
000000d0: ada9 abbc 28f1 b43d 13cb f7bd 0805 a03d
000000e0: 79ff d83d aeb6 4dbd 1a75 93bd acf6 38bd
000000f0: 04b4 e7bd 74af 88bd 6a4a 9d3d 1b7b 733d
00000100: 3d15 933d 37cb b4bd 582e b3bd 9976 573d
00000110: 84bd 183d 2531 a1bd af48 87bd 7404 2d3d
00000120: 44e1 a7bd 52f8 a4ba 328a 2bbd 6dae e63d
00000130: fc3e 8c3d 5b92 be3c 6dad 703d 5cf6 fbbc
00000140: 4dad dbbc dd53 1c3d 1870 bdbc e0e5 e0bd
00000150: 3f0c b5bb 0275 a3bd 4cc8 f5bc ab64 4e3c
00000160: 8bc0 d7bd 338c e0bd f106 c4bd 7cde 343d
00000170: 346c 4e3d 338e 3bbd 7f20 d73c 86f7 97bb
00000180: 3a49 953d 9e03 9a3d 35eb e53c ec68 393d
00000190: ee88 8ebd 2c7b a1bd 55d0 e2bc 9696 3fbd
000001a0: 2ed8 0cbd 0295 ccbc e2a0 003c 4c4b e03d
000001b0: 7257 b23d 46ef d1bd 520e e0bb 1d0b 79bc
000001c0: 5625 9abb a3cb 30bd 2560 4d3c c51c f43c
000001d0: 6225 7f3d 5404 923d 0e71 54bc f5dc 1abd
000001e0: 5f7c 803d 49d3 fbbd de34 abbd afdf fabc
000001f0: 0d89 523d 17ae 803d ac91 da3d 3ca6 ea3d
00000200: 231a 6e3d 2d54 5c3d 44a1 a23c aeed 50bd
00000210: 9114 1cbd 1a16 fb3c 27c2 f4bd fe4b d1bd
00000220: 3479 e23c f548 3ebd 05ff ee3d 38cd 31bd
00000230: db9d b43b 9fbc 75bd e2b9 1b3d 9d65 99bd
00000240: 71ec bbbd 283b d13d 0484 89bd 50e3 88bc
00000250: 6100 f0bd 5088 88bc f8b8 86bd 20cb a43d
00000260: 91f5 eb3d 4806 babd 2454 0f3d dc9e 043d
00000270: 682c d33d 2522 1cbd a39c 70bd d426 b83d
00000280: e5d8 553d d8ad 453c b514 b4bd b0b1 423d
00000290: 1cb6 06bd 58a2 e93d 101d 00bd e3d7 ec3d
000002a0: 74a2 df3d 887b 5fbd 9c6b 08bd d2f2 393d
000002b0: 4445 e3bd aac9 b73c 7f26 c93c 308e 64bd
000002c0: 34e7 86bd e53f f4bd 4c9f e73d 801b 113b
000002d0: 33b7 6ebd 0026 8c3a 2218 c4bd df41 2aba
000002e0: a0fb abbd 8346 483d 9dea 57bd 4021 973c
000002f0: 2544 b0bd 4cbc 8c3d d720 c8bb f25f 7cbc
00000300: 6611 603d f78f a5bd c08b b3bd 3a30 a63d
00000310: baa0 bcbc 5705 b23d be7c df3d 03cd 9e3d
00000320: a3ba d3bd 957c 2c3d e8a6 833c 065d 933d
00000330: 9653 c53d 3ef1 aabd cb61 6a3c 3934 8eba
00000340: 88da 60bc 9d76 b1bd ded8 ac3d d863 cd3d
00000350: 35d5 8b3d c85d 6bbd d667 a4bd 3c8e 193d
00000360: e139 493c fdff 2bbd 3339 e9bc 79a7 0cbd
00000370: f83b f53d c28e 493d dc8d 563c 9bb3 dbbb
00000380: c3c8 d9bd f577 0abd b4bd ed3c 538b bcbd
00000390: f4df 9b3b 3109 653d 5b45 0a3d 1ed4 92bd
000003a0: 90ff 043d d8c6 67bc 13f5 c83d b471 443d
000003b0: b97f debd 4587 dfbc dd17 b0bd cb18 5dbb
000003c0: bb5c fc3c df96 00bd 19dc a93d 449f 1f3b
000003d0: b40a 093d 52e8 92bc 5803 273c 303d b6bd
000003e0: 068c d2bd 2554 ef3d 5419 463d 73e7 c73d
000003f0: 331c 59bd 0304 903d d8e6 9cbd 87e2 c9bd
0.069247685 -0.09549819 0.06793871 -0.050604902 -0.10687521 -0.07785315 -0.03093232 0.09566494
-0.021243697 -0.04466359 0.11245152 -0.07476281 -0.04195083 -0.09669486 0.03608677 0.052099414
-0.08834736 0.009847549 0.015232305 -0.023863697 -0.02311144 0.043227952 -0.0016607713 -0.023080159
-0.12075695 0.116439335 0.04278441 -0.02945098 0.062014394 -0.03128132 0.05801471 0.0971402
0.09914156 -0.027692547 -0.121219404 -0.0413951 0.051468093 -0.008411561 0.10059075 0.024480503
-0.0866053 0.041435447 -0.044688813 -0.03732103 0.10741492 0.1014144 -0.011012277 0.071739644
0.06569012 0.031641293 -0.021124735 0.10356636 -0.020954931 0.088350594 -0.1209928 0.0781346
0.105956025 -0.050223045 -0.0720007 -0.04515712 -0.11313632 -0.0667409 0.07680209 0.059443574
0.07181785 -0.08827823 -0.08749074 0.052603338 0.03729011 -0.07870702 -0.0660566 0.042240575
-0.08197263 -0.0012586212 -0.04187984 0.11263738 0.06847951 0.023263147 0.05875914 -0.030757122
-0.026816035 0.038165916 -0.02312474 -0.10981345 -0.0055251415 -0.07981302 -0.030002736 0.012597243
-0.105347715 -0.10964241 -0.095716365 0.04415749 0.05039616 -0.04578991 0.026260613 -0.0046376614
0.072893575 0.07520221 0.028066257 0.045266077 -0.06959711 -0.07884821 -0.027687231 -0.04677447
-0.034385853 -0.024973396 0.007850857 0.10951862 0.08708085 -0.10250716 -0.0068376446 -0.0152004035
-0.004704158 -0.043162953 0.01253513 0.029798875 0.06229151 0.07129732 -0.012966407 -0.037808377
0.06273722 -0.12296159 -0.08359693 -0.030624239 0.051400233 0.06283205 0.10672316 0.11457488
0.058130395 0.053791214 0.019852288 -0.05100792 -0.03810555 0.030650187 -0.11951094 -0.102195725
0.027645685 -0.046456296 0.11669735 -0.043408602 0.005511982 -0.059994336 0.03801907 -0.07490084
-0.09175957 0.10216361 -0.06714633 -0.016709954 -0.11718822 -0.016666561 -0.06578249 0.080465555
0.115214474 -0.09083229 0.034992352 0.032378063 0.10311204 -0.0381185 -0.05874313 0.08991781
0.0522088 0.012065373 -0.08793012 0.047532737 -0.032888517 0.11407918 -0.031277716 0.115646146
0.10919657 -0.054561168 -0.03330575 0.045397587 -0.11097196 0.022435028 0.02455449 -0.055799663
-0.06587067 -0.119262494 0.1130968 0.0022141635 -0.05828018 0.0010692477 -0.095749155 -0.0006494801
-0.08397603 0.04889537 -0.05271398 0.018448472 -0.086067475 0.06871852 -0.0061074304 -0.0154037345
0.054704092 -0.080841 -0.087668896 0.08114667 -0.02302586 0.08692425 0.109124646 0.07753947
-0.103383325 0.042111 0.016070798 0.07195477 0.096350834 -0.083467945 0.014305542 -0.0010849304
-0.013723977 -0.08665202 0.08439802 0.10028809 0.068277754 -0.057462484 -0.08027618 0.03748916
0.012281866 -0.041992176 -0.028469658 -0.034339402 0.11974329 0.04920841 0.013095345 -0.0067047602
-0.106339954 -0.033805806 0.029021122 -0.092062615 0.004756922 0.05591697 0.03375755 -0.071693644
0.032470286 -0.014146529 0.09812369 0.04796 -0.10864205 -0.027286181 -0.085983016 -0.0033736702
0.030805936 -0.031393882 0.082939334 0.0024356404 0.033457473 -0.017933045 0.010193668 -0.08898389
-0.102806136 0.11685971 0.048364 0.09760942 -0.05300541 0.07032015 -0.076612175 -0.0985766

fc.0.bias f4 [256]
00000000: 619e 7dbb f4d7 7f3d 6ad5 373d 6272 febc
00000010: bb3d 4d3d ce1b 513e 320a 403d e2d0 033d
00000020: 1f71 803b 3c27 6a3d b12c d73c 1797 043d
00000030: 52ef 943d e7c6 c0bb 6ce6 743d 2680 61bd
00000040: 9020 63bd 0c01 f0bc 35c7 2fbd 835f 86bb
00000050: 55d7 cbbc a4d3 a9bc 40df 9e3e f253 603d
00000060: 62d6 23bc 5add 1ebd 918d 3c3d 2aac 3bbc
00000070: c062 04bd eed9 8d3d d62b 883d 3565 c03d
00000080: e306 1e3d a8d3 2f3d d7d3 99bc bd93 7cbb
00000090: 80f3 5bbd 6613 2cbc df1d 103d b824 29bd
000000a0: 8582 b53d ed5a 4fbd 5443 0fbd be15 56bd
000000b0: ee11 52bd 76d2 60bd a648 72bd de10 8e3d
000000c0: 6a50 44bd 147b 21bc 0060 3dbd c4d4 243d
000000d0: b394 8e3d 5c30 603d b4d3 8b3d 0c09 0c3d
000000e0: 2812 cf3d d5bd 5f3d 30cd d43b e925 9d3d
000000f0: b121 c9bc 6450 78bd feb6 94bb 18d4 54bd
00000100: 19ba 87bc b051 433d cf50 4b3c f17b a23e
00000110: 9a74 763d 246b 9a3d 49a4 b2bb bae5 fd3b
00000120: bcd3 7b3d c3c9 303d e66b 35bd 7501 83bc
00000130: 4a27 52bd c38e 323d 17e9 91bc 5f13 09bd
00000140: 1ffc 2abd 0289 0d3d 1e92 a43d c81c 673d
00000150: 97ff cd3c 89ec 153b b2ce 613d 2f77 85bc
00000160: a891 06bd 7877 64bd 0157 b7bc 881c ad3e
00000170: 5b8b 2f3d a0c8 073c cad5 023d 9c6f 90bc
00000180: 6c79 2ebd 2e0b f93c ad75 6f3d 40c2 4ebd
00000190: ffaf 213d 9328 e8bc 62ff 55bd 08ec 30bd
000001a0: 41d5 e33d 855f 00bd 7ae1 7b3c 8e44 743d
000001b0: 5e37 cf3d 56ba 2f3d cf24 19bd 3a5a 013c
000001c0: 6b32 903d 37a0 bcbc 0c79 77bd 82a0 a53b
000001d0: 7426 4abd fe15 9f3c 65fa 383d 4a2a 02bc
000001e0: c589 743e a666 d73c bc70 16bd d1ec 44bd
000001f0: bc05 31bd ecc1 183d e967 043d d68b 353d
00000200: f9c4 d83b 1030 cdba ed88 793d e836 c73e
00000210: 2fa2 a2bc 9a7d 1dbd 3ae3 9b3b 8748 8c3d
00000220: 806a 5a3d 67de 8f3d ac64 83bd e23b 623d
00000230: 3c68 8c3d da40 2fbd 08d7 a1bc 5580 91bc
00000240: b78f 1cbd 448e 4fbc 58d9 713d 5e56 c7bc
00000250: f1cf 3a3d ede7 73bd 676d 943d c59e 7dbd
00000260: 0d27 553d 80d8 193d b96d 35bc 3221 05bd
00000270: 0863 7f3d a1d9 9ebc b6ac 6d3e e42a 5c3c
00000280: fe1d 64bd c809 f23c acbd 653d d4ad 833d
00000290: af74 973d fc54 8a3d 859a 47bd 78c8 68bd
000002a0: fe07 31bc b26e 90bc 4d45 6e3d f9a5 653c
000002b0: 8f79 5a3d e105 903c 185f c03c 0192 5d3d
000002c0: d1b0 3f3d c64c 2cbd 83e9 6f3d 077c a33e
000002d0: f02a 873c 44dc e0bc d05d 73bd bcf7 2d3d
000002e0: 845e 44bc 7f9e df3c 5542 23bd 6fcf ef3c
000002f0: f9bc f03c d9d2 8fbc faae 6e3d 6558 2ebd
00000300: ccae 263d 5dd8 8f3d ac35 7bbd e3bd 63bd
00000310: 04a9 2ebd 3409 80bd 7afa 813c 9a8a 973d
00000320: 0d20 9a3d f908 593e c387 be3c a1ba 8b3c
00000330: 68fa e7bc 18ec acbc 0e3c 6b3d 98f3 c93c
00000340: eb54 6dbd aade 13bc 46c6 35bd dd63 82bd
00000350: e949 db3e be98 8bbc ac04 8b3c 637e 5c3c
00000360: a58b 6ebd 0e1b dbbc 0ea4 8c3c 9e4c 133d
00000370: f444 b83c 92c9 61bd 57de 273d 31d5 1c3c
00000380: bea3 9a3d 2d6b 713d 80e9 fbba edb4 ccbc
00000390: f179 243c f5af 5e3c 7327 20bd 13a9 be3e
000003a0: 60ee 293d 3f28 623d ea23 083d fc2a 77bd
000003b0: ad73 e23c 9990 953c a1ac 073b b11b 7e3c
000003c0: 02b5 a6ba 2dda 843d d15c cb3d 7389 febc
000003d0: a390 6c3d cf53 583d bbbf 21bd 00e0 cebb
000003e0: 180c edbc 8374 a33c 34d8 283d 91c9 3d3d
000003f0: 8c06 b93b 8856 4abb 87a8 fe3c 0341 973c
-0.0038699138 0.06246181 0.044881262 -0.031060401 0.0501077 0.20420763 0.046884723 0.032181628
0.003919735 0.057166323 0.026266428 0.032370653 0.07272209 -0.005883086 0.05979006 -0.055053852
-0.055450976 -0.029297374 -0.042914588 -0.0041007414 -0.024882952 -0.0207308 0.310297 0.054767556
-0.009999843 -0.038785316 0.046033446 -0.011454621 -0.032320738 0.069263324 0.06648986 0.09394304
0.038580786 0.04292646 -0.01877777 -0.0038540207 -0.053699017 -0.010502672 0.035184737 -0.041294783
0.08862785 -0.050623823 -0.03497632 -0.05226683 -0.05128663 -0.05488821 -0.059151314 0.06936811
-0.04792825 -0.009856004 -0.04623413 0.04024197 0.06961956 0.05473362 0.068274885 0.034188315
0.10110885 0.054624397 0.006494187 0.076732464 -0.024552198 -0.06062354 -0.004538416 -0.05196008
-0.01656823 0.047685325 0.012409403 0.31735185 0.060169794 0.07539967 -0.005451713 0.007748333
0.061481223 0.043161165 -0.044292353 -0.015991906 -0.051307 0.04359318 -0.017811341 -0.03346574
-0.041744348 0.03455449 0.08035682 0.056423932 0.025146289 0.0022876582 0.05512876 -0.016292183
-0.032853752 -0.055777997 -0.022380354 0.3381083 0.04285751 0.008287579 0.031942166 -0.017631344
-0.042596266 0.030400839 0.058461834 -0.05047822 0.039474484 -0.02833966 -0.052245505 -0.043193847
0.11124659 -0.031341095 0.015373582 0.05963569 0.10117982 0.042902313 -0.03738862 0.007895047
0.070408665 -0.023025615 -0.060418174 0.0050545344 -0.049353078 0.019419666 0.04516067 -0.007944653
0.2388068 0.026294064 -0.036728606 -0.04807741 -0.04321836 0.037294313 0.03232566 0.04432281
0.006615278 -0.0015654583 0.0609216 0.38909078 -0.019852726 -0.03844986 0.004757312 0.06849771
0.053324223 0.07024842 -0.06415686 0.05523289 0.06855819 -0.042786457 -0.019755855 -0.017761389
-0.038222995 -0.012668196 0.059045166 -0.024333175 0.045608465 -0.059547354 0.07247429 -0.061918993
0.052039195 0.037559986 -0.011073523 -0.03250236 0.062350303 -0.019390883 0.23210415 0.01343796
-0.055692665 0.02954568 0.05608909 0.064296395 0.073953025 0.06754491 -0.048731346 -0.056831807
-0.010805128 -0.017630909 0.05817156 0.014016622 0.053338584 0.017580928 0.023482844 0.05409432
0.046799485 -0.042065404 0.058572304 0.31930563 0.016499966 -0.02744878 -0.05941564 0.042472586
-0.011985425 0.027297257 -0.03985818 0.029273717 0.029386984 -0.017556595 0.05827234 -0.04256477
0.040694043 0.0702369 -0.061330482 -0.055601012 -0.042641655 -0.06251755 0.015866507 0.07399483
0.075256445 0.21194829 0.023258096 0.017056765 -0.028317645 -0.021108672 0.05743032 0.024652287
-0.057942312 -0.009025255 -0.04437854 -0.06366704 0.42829826 -0.017040607 0.016970001 0.013457867
-0.058238644 -0.0267463 0.017168071 0.03596174 0.022493817 -0.055123873 0.040983524 0.009572313
0.075507626 0.0589401 -0.0019219369 -0.024988616 0.010038839 0.013591756 -0.03910012 0.37238368
0.041487098 0.055214163 0.033237375 -0.060343727 0.02764305 0.018257426 0.002070226 0.015509532
-0.001271874 0.06486926 0.09929813 -0.0310714 0.057755124 0.0528143 -0.03948949 -0.006313324
-0.02893643 0.019953018 0.041221812 0.046334807 0.0056465324 -0.003087433 0.03108622 0.018463617

fc.3.weight f4 [1, 256]
00000000: a24e 223c eb72 e13d 019e 47bd 290e 4c3b
00000010: b263 813d 7e77 78be 5ff0 2cbd 19b0 b1bd
00000020: c48d d7bd 485e bb3d 2403 9abd ebc2 0bbd
00000030: 12ca f23d 2c5c aabc c615 5cbd 3b08 0a3d
00000040: 7c07 dbbc 8fe5 1e3d a0aa 0b3d 1ebe 84bd
00000050: 0e47 1b3d b322 fa3c 21b6 6fbe d708 9cbd
00000060: ad6c 2b3d 30ad 7bbd 5c4f 23be db86 0e3d
00000070: 7c6c 013d 6b2b f7bc 53d7 3fbd e9d7 033e
00000080: 92a4 09bd b945 3bbe 8ed0 cb3c 2146 88ba
00000090: 7da3 753d 4009 883c 796d ef3c 9c08 43bd
000000a0: dac7 09be fc0c af3c 1c3f 6c3d df72 443d
000000b0: 72dc 78bd e0ed 4cbd ff12 4dbd 338f e2bc
000000c0: 9fd6 f63c c7f2 c33c 5857 31bd 48b9 cdbd
000000d0: 2e9b e63d b22a 27bd 207c debc bb7e e3bd
000000e0: ef1c b3bc 26cd 3e3d 4b45 90bd a34f 93bc
000000f0: d8eb 3dbc 8168 483b f32d d4bd 13ea 573d
00000100: 088e de3c 8539 8abd e214 98bd 7d9d bcbe
00000110: 91bc 75bd 139d e83d a87d 2dbc d369 50bd
00000120: 2130 92bd 031e b8bd f2b7 21bd 9ac2 af3c
00000130: ffa8 06bd 8e5a c0bd 900d d83b 8e9a 873b
00000140: c5c6 0b3d 6f4e 9f3c 4615 863d 10be 543d
00000150: b873 c7bd 14d3 eebd f5cb 63bd 99d1 31bd
00000160: 800d 16bb c9ec 53bd ec4c a13b 460f bebe
00000170: 1599 e0bd 509c 50bc 07ac a1bd 709f 853c
00000180: aec1 743d 7757 b9bd a7c2 94bd 9820 87bc
00000190: c0bf 34bd 9a74 68bd 1893 04bc e4d8 edbc
000001a0: 9506 ccbd 100a a2ba ac48 9ebd 2084 39bd
000001b0: 4b1f 113e b96a a4bd 8bfe 173d 8e93 86bc
000001c0: 0f20 7e3d dd82 013c 00a1 96bb b956 32be
000001d0: 5af9 f53c bb1b 6abd c7be c7bd cea2 c53c
000001e0: c019 bbbe 4b46 b6bd dc2c 0bbb 658c 42bd
000001f0: a46b 35bd 2f7d 3d3d f893 efbd 5196 8cbd
00000200: 29a7 bebd adbb fa3a 67bc a53d d432 eebe
00000210: 68af 7f3b 5b5b c73b 6629 afbd 1892 c8bc
00000220: d65c 60bd 5126 96bd b349 5f3d ce6f 36bd
00000230: 8d4c 90bd 1db0 a3bc c01a ca3c cfe8 1c3d
00000240: 0e74 223d 75cf f33c 47e6 033d afd4 583d
00000250: ab6c 99bd 36f7 223d 1ba0 a0bd 356d f9bc
00000260: 321d 69bd 09bf dabd 60e2 b73c 0405 35bb
00000270: dfa4 0abd df8a 77bd 9445 84be 0f2f cfbd
00000280: 7ab9 21bd 0be5 173c 0faf 683d 64ba b6bc
00000290: 60d0 e83d 083b 663d 8800 e13c 3e84 093d
000002a0: 4f4d 16bd df43 27bd a894 08bd 6936 b7bd
000002b0: 1bc2 a2bd 252d 66bd 7147 adbd 1285 8a3d
000002c0: a31e 18be 2361 0c3b d1d2 edbb c6b8 86be
000002d0: e4b8 dfbd fdfa 243d 52cf 3d3d abb3 f93c
000002e0: 781d 053d b866 b2bd e865 17bc 98bc 8cbd
000002f0: ba71 9e3c c62e 253d 6c2b 1d3d 1fa1 1c3d
00000300: 87b2 f9bc 50ef 23bd 200e 283d ea4b cf3b
00000310: 405c 353c 24a2 013d 42af 6c3b 268d 1abd
00000320: a3ce e4bc 9935 1fbe 75f7 8dbd 023d aabd
00000330: 99b6 5b3d 66fb adbb 1e25 8bbc c86e 293d
00000340: b7e0 2e3c 839a f43b a60e 023d b754 873c
00000350: 5dae b6be 80c5 f8bc 1d00 e4bd 112c d4bd
00000360: 886f 133d 710e bb3b dd8c edbd 3122 e2bd
00000370: 2367 15be 09a0 56bd f26b b3bd 8d19 a1bd
00000380: b15f b1bc 182c 3fbd 7637 93bd 1617 00bd
00000390: 15ff d1bc f42e 30bd 9476 d9bc 49ee e8be
000003a0: 975f 82bd 169f 1c3d e98f 213d 3ef7 3dbd
000003b0: d2b7 2bbe abf2 c2bd e97c 2dbe 0c9b 9a3c
000003c0: 0cdc 6ebd 4b2c 1bbd a2cf 76bc 19a2 093c
000003d0: ad01 9f3d a3fe 9c3d 3477 633d b20d 303c
000003e0: 7460 733d 37c5 0ebd 96f4 583d d832 82bd
000003f0: e4d1 63bc 877e f8bd 0390 76bd 84cf e3bd
0.009906443 0.11008247 -0.04873467 0.003113637 0.063178435 -0.24264333 -0.042221423 -0.08676166
-0.105250865 0.09148842 -0.0752013 -0.034121435 0.11854948 -0.020795904 -0.053731702 0.033699255
-0.026736967 0.038793143 0.034098268 -0.064815745 0.03790956 0.030534124 -0.2340932 -0.076188736
0.04185169 -0.06144446 -0.15948242 0.034796577 0.0315976 -0.03017207 -0.04683621 0.12875332
-0.033604212 -0.18288316 0.02487972 -0.0010396877 0.059970368 0.016605973 0.029227005 -0.047615632
-0.13455144 0.021368496 0.057677373 0.047961112 -0.060757108 -0.050031543 -0.050066944 -0.027656173
0.030131636 0.023919476 -0.043296188 -0.10045105 0.11260067 -0.0408122 -0.027158797 -0.11108156
-0.021864383 0.046582364 -0.070444666 -0.01798231 -0.011591874 0.0030579867 -0.103603266 0.052713465
0.027167335 -0.06749252 -0.07425858 -0.36838904 -0.059994284 0.113580845 -0.010589041 -0.05088217
-0.07138086 -0.08990099 -0.039482065 0.021455098 -0.03287601 -0.09392272 0.0065934137 0.0041382974
0.03412511 0.01944658 0.06547026 0.05193907 -0.097388685 -0.11661354 -0.05561443 -0.04341278
-0.002289623 -0.051739488 0.0049225 -0.37121028 -0.10966698 -0.01273258 -0.0789414 0.016311377
0.05975502 -0.09049886 -0.072636895 -0.016495034 -0.04412818 -0.056751825 -0.0080917105 -0.029034086
-0.09962193 -0.0012362618 -0.07728705 -0.04529202 0.14172094 -0.08028168 0.037107985 -0.016427781
0.062042292 0.007904735 -0.0045968294 -0.17415895 0.030026127 -0.057155352 -0.09753185 0.024125483
-0.36543083 -0.08900126 -0.0021236455 -0.047497172 -0.044292107 0.046261963 -0.11698145 -0.06864608
-0.09309227 0.0019129418 0.080925755 -0.46523154 0.0039014462 0.0060838885 -0.08552818 -0.024483725
-0.054776035 -0.07331527 0.054513644 -0.04454022 -0.07045851 -0.019981438 0.024670959 0.03830796
0.03966146 0.02976201 0.03220203 0.052937206 -0.0749143 0.03978654 -0.07843038 -0.030447582
-0.05691261 -0.10680968 0.022446811 -0.0027621398 -0.03384864 -0.060435172 -0.25834334 -0.101163976
-0.039483525 0.009270917 0.056807574 -0.022305675 0.113678694 0.05620864 0.027466074 0.03357338
-0.03669482 -0.04083621 -0.033344895 -0.08945925 -0.07947179 -0.056195397 -0.08460892 0.067636624
-0.14855437 0.0021420203 -0.0072577973 -0.26312846 -0.10923937 0.040278424 0.046340294 0.03048118
0.032498807 -0.08710998 -0.009240605 -0.06871909 0.019341338 0.04032781 0.03837149 0.038239595
-0.030480636 -0.040023148 0.041029096 0.0063261883 0.011069357 0.03164877 0.0036115204 -0.037732266
-0.027930563 -0.1554779 -0.06931964 -0.083124176 0.053640936 -0.00530951 -0.016985472 0.041365415
0.010673693 0.0074647083 0.03175225 0.016519887 -0.35679904 -0.030367613 -0.11132834 -0.103599675
0.035995036 0.0057085087 -0.11599133 -0.11041678 -0.14590125 -0.052398715 -0.08760823 -0.078662015
-0.021652075 -0.04667291 -0.07188313 -0.031272016 -0.025634328 -0.043013528 -0.0265458 -0.45494297
-0.063658886 0.038237654 0.039443884 -0.046378367 -0.1676934 -0.095189415 -0.1694218 0.01887276
-0.05831532 -0.037884038 -0.015064152 0.0084004635 0.077639915 0.076657556 0.055533603 0.010745453
0.059418157 -0.034856047 0.05296763 -0.06357354 -0.013905022 -0.12133508 -0.060195934 -0.11123565

value_head.weight f4 [1, 64]
00000000: a3d1 b6bd 0b20 053c 4e34 e83d dc29 a73c
00000010: e56f e83d b613 3c3c 710d ba3a 25a9 133d
00000020: f0db 173d 35b4 acbd 49ee 433d 34c7 0a3d
00000030: 60ef 8dbd ab54 6e3d dbcc 923d 3912 e1bd
00000040: fd49 d63c b20d b8bd c359 f1ba 8956 593d
00000050: 6f5a 023d 2cad 8d3c f5d6 fd3c babd 703d
00000060: f828 833d 7949 213d 71d6 4dbc 3ee4 e73c
00000070: 6578 8dbc 36a8 23bd 0c1f bd3d dbec 193d
00000080: 4650 283d cf30 ebbd ba77 58bd 424f b03d
00000090: 3d89 27bd 310f ca3d ab70 f53c d719 8cbd
000000a0: e164 90bd 6106 0c3d aade ebbd b037 1cbd
000000b0: dc42 d3bd c4a8 cabd d544 f0bd 079a c1bd
000000c0: e100 c13d 110d 913c ceb6 73bd 9140 6cbd
000000d0: b16b 5f3d cfd7 323d 3a4f 3a3d 5bdd b03d
000000e0: 05c1 053e a5c7 ebbc b541 f0bd b51c 063d
000000f0: 7e52 cabd e3a9 d13c a390 273d aee1 e0bd
-0.08926704 0.008125315 0.11338101 0.020405702 0.11349467 0.011479309 0.001419468 0.03604998
0.037074983 -0.08432809 0.04783467 0.03388138 -0.06930423 0.058186214 0.07167979 -0.10989804
0.026158327 -0.08986987 -0.0018413592 0.053061042 0.031824525 0.017294489 0.030986289 0.058774687
0.064042985 0.03937671 -0.012563334 0.028307077 -0.017269323 -0.03995534 0.09234437 0.0375794
0.04109218 -0.11483919 -0.052848555 0.08608867 -0.040902365 0.09866179 0.02996095 -0.06840866
-0.07050491 0.03418577 -0.11517079 -0.038139045 -0.10315487 -0.09895471 -0.11731879 -0.094532065
0.09423996 0.017706426 -0.059500508 -0.057678763 0.054546062 0.043662842 0.045485713 0.0863597
0.13061912 -0.028781721 -0.117312826 0.03274222 -0.098790154 0.025593704 0.04090942 -0.10980545
