CNN_Closing/Trained Models/model_cnn_GOOD.pth (torch, 6454 bytes, 11 tensors)

conv1.weight f4 [2, 1, 1, 1]
0	0xbed6d0ff	-0.41956326
1	0xbe2324dd	-0.15932031

conv1.bias f4 [2]
0	0x3f4566bc	0.77109885
1	0x3f439ed8	0.7641425

bn1.weight f4 [2]
0	0x3f7ff1ca	0.99978316
1	0x3f7fdfc4	0.99950814

bn1.bias f4 [2]
0	0xbc4df411	-0.012570397
1	0x3c7e1f15	0.01551034

conv2.weight f4 [32, 2, 1, 1]
0	0x3eedd390	0.46450472
1	0x3e8985f8	0.26860023
2	0xbf14d38b	-0.5813529
3	0xbcae2554	-0.021258034
4	0xbee520e1	-0.44751647
5	0xbf08837c	-0.5332563
6	0xbe0d99b7	-0.13828169
7	0xbef84b89	-0.4849513
8	0xbf2c660d	-0.6734322
9	0x3f2142df	0.6299266
10	0x3c886b1a	0.016652633
11	0x3e0670c0	0.13128948
12	0xbea0400c	-0.31298864
13	0x3e892dba	0.267927
14	0x3f01a974	0.5064919
15	0x3f021f55	0.5082906
16	0x3e83592e	0.25653976
17	0x3e54d205	0.20783241
18	0x3dec092a	0.115251854
19	0xbef4a639	-0.47783068
20	0xbecd8c81	-0.40146258
21	0x3efa7b5f	0.4892225
22	0x3f0c1840	0.547245
23	0xbe2b7d55	-0.16747029
24	0x3e3daa53	0.18522005
25	0xbebc9789	-0.36834362
26	0xbec8e8e4	-0.3924018
27	0x3e057960	0.13034582
28	0xbdf00f7f	-0.11721706
29	0x3dbbb45a	0.09165259
30	0x3efce631	0.49394372
31	0x3ebf7ca2	0.37399775
32	0xbf10f74c	-0.56627345
33	0xbe522573	-0.20522098
34	0xbf2e6bb9	-0.6813312
35	0x3ed28697	0.4111831
36	0x3ee7de7c	0.4528693
37	0xbdbef919	-0.09324855
38	0xbd1543d7	-0.03644165
39	0xbe51bbed	-0.20481844
40	0xbf0c00b8	-0.54688597
41	0x3d976545	0.073923625
42	0x3ec93a0c	0.393021
43	0x3d27b199	0.040940855
44	0x3ea9d5c2	0.33170897
45	0x3e403ec1	0.18773939
46	0xbe034c68	-0.12822115
47	0x3e9ba791	0.3040128
48	0x3ebfb90a	0.3744586
49	0x3ec4d81c	0.38446128
50	0x3f12b1b3	0.573024
51	0xbf206256	-0.6265005
52	0x3d62803f	0.055298086
53	0xbd2b3a30	-0.04180354
54	0x3f03a488	0.5142293
55	0xbd3c2e71	-0.045942727
56	0xbf1eeb44	-0.62077737
57	0xbf012063	-0.50440043
58	0x3e7ecb05	0.24882133
59	0x3df1a81b	0.11799642
60	0xbf126d8f	-0.57198423
61	0x3dcc8899	0.099869914
62	0xbf19e4de	-0.6011485
63	0xbe841be5	-0.25802532

conv2.bias f4 [32]
0	0xbe0d628e	-0.13807127
1	0xbd291bfa	-0.041286446
2	0xbecd2160	-0.40064526
3	0xbef42075	-0.47681013
4	0x3e782ecb	0.242366
5	0x3f327a9b	0.6971833
6	0x3f014e07	0.50509685
7	0xbee400f4	-0.44531977
8	0x3ed89570	0.42301512
9	0x3db902f8	0.09033769
10	0x3e713f39	0.23559274
11	0xbc4820c8	-0.012214847
12	0xbf29b422	-0.66290486
13	0x3f2ec099	0.6826263
14	0x3e88a1cd	0.26685944
15	0x3f2efbbf	0.68352884
16	0x3d6907f1	0.05689234
17	0x3e8619d4	0.2619158
18	0x3f05896c	0.52162814
19	0xbbf43b4d	-0.0074533583
20	0xbe9aea7b	-0.3025702
21	0xbdb5c4de	-0.0887544
22	0x3e078fa5	0.1323839
23	0xbf065908	-0.524796
24	0xbe68fcdb	-0.22752707
25	0xbd0b4029	-0.033996735
26	0xbed60ccf	-0.41806647
27	0x3ecc6d1e	0.39927
28	0xbf282097	-0.6567473
29	0x3f027058	0.5095267
30	0x3e952251	0.29127744
31	0x3e9bc4ab	0.30423483

bn2.weight f4 [32]
0	0x3f7fd90f	0.9994058
1	0x3f7fed58	0.9997153
2	0x3f7fe000	0.9995117
3	0x3f7fe674	0.9996102
4	0x3f7fdc1e	0.9994525
5	0x3f7fef8c	0.99974895
6	0x3f7fdc44	0.99945474
7	0x3f7fef8a	0.9997488
8	0x3f7fdb4f	0.99944013
9	0x3f7fdf13	0.9994976
10	0x3f7fe2c9	0.9995542
11	0x3f7fd901	0.99940497
12	0x3f7fea4c	0.99966884
13	0x3f7fdbd4	0.99944806
14	0x3f7fec5f	0.9997005
15	0x3f7fe272	0.99954903
16	0x3f7fde41	0.9994851
17	0x3f7fe2ef	0.9995565
18	0x3f7fe28e	0.9995507
19	0x3f7fe2a7	0.9995522
20	0x3f7ff06e	0.9997624
21	0x3f7ff220	0.9997883
22	0x3f7fe967	0.9996552
23	0x3f7fe13b	0.9995305
24	0x3f7ff1a8	0.99978113
25	0x3f7fd43a	0.9993321
26	0x3f7febc2	0.9996911
27	0x3f7fe17b	0.9995343
28	0x3f7fdc17	0.99945205
29	0x3f7fedf9	0.9997249
30	0x3f7febd3	0.99969214
31	0x3f7fed6f	0.9997167

bn2.bias f4 [32]
0	0xb9f37c00	-0.0004644096
1	0x39a8e85c	0.00032216578
2	0xb931ab8b	-0.0001694394
3	0x38a8be52	8.046314e-05
4	0xb89d3b6b	-7.497411e-05
5	0x39e40631	0.00043492162
6	0xb999e96a	-0.0002935634
7	0x39e1e70d	0.0004308749
8	0xb9c7f93f	-0.0003814194
9	0xb95392e5	-0.0002017725
10	0xb99e93a3	-0.00030246106
11	0xb9dee081	-0.00042510408
12	0x395d62a5	0.0002111295
13	0xb9a7d866	-0.00032013952
14	0x3994bee1	0.00028370976
15	0xb8af119a	-8.347929e-05
16	0xb9724efb	-0.00023108341
17	0xb8617eb3	-5.3762178e-05
18	0xb8642aaa	-5.439917e-05
19	0xb8815b71	-6.1682316e-05
20	0x39df7600	0.0004262179
21	0x3a04afaa	0.00050615764
22	0x3941d6a6	0.00018485877
23	0xb92f5647	-0.00016721441
24	0x3a083612	0.00051960454
25	0xba8bb97e	-0.0010660139
26	0x399180d8	0.0002775255
27	0xb901d8df	-0.0001238319
28	0xb9a2ccc2	-0.00031051604
29	0x39b8e2e8	0.00035264273
30	0x398853b0	0.00026002293
31	0x39aaedfe	0.00032602245

conv3.weight f4 [1, 32, 1, 1]
0	0xbe1d76f2	-0.15377405
1	0xbde0d34a	-0.109778
2	0x3d659300	0.056048393
3	0xbcdd3a61	-0.027005376
4	0x3e054e85	0.13018234
5	0x3e165235	0.14679797
6	0x3ddf6d99	0.10909576
7	0x3e139a4e	0.14414331
8	0xbdfee22c	-0.124454826
9	0x3d8ad92d	0.06779704
10	0xbe16c946	-0.14725217
11	0xbe136f6e	-0.14397976
12	0xbd97d094	-0.0741283
13	0x3de0b75d	0.10972474
14	0xbdcd102a	-0.10012849
15	0xbcd4ef34	-0.025992967
16	0x3d9db281	0.077000625
17	0x3c977d8d	0.018492484
18	0xbc8a4e96	-0.016883176
19	0x3ca7b8ef	0.020473925
20	0xbe15c038	-0.14624107
21	0x3e31992f	0.17343591
22	0x3d814e07	0.06313711
23	0xbd62167e	-0.05519723
24	0x3e31cf87	0.17364322
25	0x3d86f2ed	0.06589303
26	0x3dca9da1	0.098933466
27	0xbd26dd03	-0.040738117
28	0x3dd24ce3	0.10268571
29	0x3df3ef9f	0.119109385
30	0xbdb6a39e	-0.08917926
31	0xbde08109	-0.109621115

fc_actor.weight f4 [1, 5]
0	0x3ea1032b	0.3144773
1	0xbeb0263f	-0.3440418
2	0x3edeaf43	0.4349309
3	0xbdd91f45	-0.10601667
4	0xbe750434	-0.23927385

fc_critic.weight f4 [1, 5]
0	0xbc9f22a7	-0.019425703
1	0xbc16c3b0	-0.009201929
2	0xbc5716b8	-0.013127975
3	0xbcbd1dfb	-0.023085585
4	0xbb8183cd	-0.0039524795
