CNN_Closing/Trained Models/model_cnn_1.pth (torch, 7159 bytes, 11 tensors)

conv1.weight f4 [2, 1, 1, 1]
00000000: 321d 0dbe 81b8 e33d
-0.13780668 0.11119176

conv1.bias f4 [2]
00000000: 6558 da3e 4613 343f
0.42645565 0.7034191

bn1.weight f4 [2]
00000000: 465f 7c3f 267d 803f
0.98582876 1.0038192

bn1.bias f4 [2]
00000000: 258d 96bc 0207 dd3c
-0.01837785 0.02698088

conv2.weight f4 [64, 2, 1, 1]
00000000: 3621 fcbe bfff 0a3f f126 8d3d 58bd a63e
00000010: 2b5c 1bbd d3e5 893e d437 9fbd f613 7dbe
00000020: e724 003e 1360 b33e 9e0f aabe ee85 78be
00000030: f81b e73e c080 093e fc8e 2abf ba22 32be
00000040: 4acc 1b3f dd2f 073f 6281 d23e 5888 13bf
00000050: 21a7 273f a39f 4a3e 4234 5abe 8a44 b0be
00000060: 1c23 cabe f1ff a9bd d38f 4dbe fcd6 d9bd
00000070: 9a04 edbe d5fc c63e 2e12 973e 073b e83e
00000080: b895 3ebd e71d 96be 7138 943e 34a8 14bf
00000090: 7765 2b3f e202 583e 5b80 bebd 6b03 7ebc
000000a0: b82f 9c3e 2d99 213f 7dc2 dd3e 164e ea3e
000000b0: dbcf 84be 626d 1bbf e0cc 2bbd d942 013f
000000c0: 26d6 1b3f bca0 693d 7621 323f 777a ddbe
000000d0: bb88 9e3e adf2 cebe 83c0 953e b6eb b83d
000000e0: 4ee3 293f ad26 0ebf 0d38 5bbe 3601 a83e
000000f0: f72c 5abe 9aed 2bbf 19e7 623d aea5 c9bc
00000100: dfde 023f 0731 cf3e 42c9 20bf fa47 bcbd
00000110: 8bdd 14bf 9499 863e 7326 d2be 99c1 b33e
00000120: f4bd 10bf b3fd 0cbf edb0 5ebd 1e7b aabe
00000130: 2b64 2f3f 9a7f 7ebe 1032 79be bdd2 86bb
00000140: f2ad 9e3e c53a f9be d40e 42be 80a5 3d3e
00000150: 417a 30bf dc78 f53e 359f 21bf 1fbd 783e
00000160: 0a8b 1a3f bfd3 7cbd ec69 2d3f 0211 ffbe
00000170: bcda b03e cb63 543c 2a95 873e 90c7 19bf
00000180: 3c5f 9f3d 0858 d2be 9ec4 d1be 6756 da3e
00000190: 1a86 c4be e933 0a3f ebb8 153f f372 0fbf
000001a0: e1fe 2dbf 3467 8b3e 1100 903c 1756 ec3e
000001b0: 7b89 e7be 5d7c 093f 9df0 49bd 02ca b8bd
000001c0: e002 1e3e 4f25 1f3e c3d6 f23e 2d45 a53b
000001d0: 0619 a0be 5d37 173f 786a cdbe e7cd f2be
000001e0: 03eb a1bd 21f7 04bf 72b7 de3b 9a7a 74bd
000001f0: dc5b 31bf 41ee aebe 88ae 03be f9f8 0c3f
-0.49244088 0.5429649 0.06892193 0.32566333 -0.037929695 0.26933154 -0.0777432 -0.24714646
0.12514077 0.35034236 -0.3321504 -0.2426984 0.45138526 0.1342802 -0.66624427 -0.1739606
0.60858595 0.5280741 0.41114336 -0.5762992 0.65489393 0.19787459 -0.21308997 -0.3442729
-0.3947991 -0.0830077 -0.20074396 -0.10636708 -0.46292573 0.3886477 0.29506058 0.45357534
-0.0465295 -0.2931969 0.2894931 -0.5806916 0.669517 0.2109485 -0.093018256 -0.015503745
0.30505157 0.6312435 0.43312445 0.457627 -0.2593983 -0.6071378 -0.04194343 0.50492626
0.6087364 0.057038054 0.6958231 -0.43257496 0.30963692 -0.40419522 0.29248437 0.09029333
0.66362464 -0.55527765 -0.214081 0.32813424 -0.21306215 -0.67159426 0.055396173 -0.024615135
0.51121324 0.40467092 -0.62807095 -0.09193416 -0.5815055 0.26289046 -0.4104496 0.3510864
-0.56539845 -0.55074614 -0.05436795 -0.33297056 0.6851222 -0.24853364 -0.24335504 -0.0041144774
0.30992085 -0.4867765 -0.18950969 0.18520164 -0.68936545 0.4794377 -0.63133556 0.24290894
0.60368407 -0.061725374 0.6773975 -0.49817663 0.3454188 0.012963246 0.2648099 -0.60070133
0.077818364 -0.41082788 -0.4097032 0.42644045 -0.3838356 0.5398546 0.5848529 -0.56034774
-0.6796704 0.27227175 0.017578157 0.4615943 -0.45222077 0.5370539 -0.049301732 -0.09022905
0.15430784 0.15541576 0.47429475 0.005043647 -0.3126909 0.5906885 -0.40120292 -0.47422716
-0.07906153 -0.5193959 0.0067967707 -0.059687234 -0.6928079 -0.34166148 -0.12859547 0.550674

conv2.bias f4 [64]
00000000: ea10 b93e d0e1 303f 52e3 063f ac3b 78be
00000010: ba48 e73e 569a 0f3e 33e8 1bbf ea35 00bf
00000020: 4e63 cdbb e643 863e 3656 31bf fa8a cfbe
00000030: 5f8d a53d eab9 2a3f 77ce 22bd 8128 20bf
00000040: 2ade 3b3d 302c 00bf cffe de3e 4318 d2be
00000050: 6494 78be 5707 303f 1ae6 333f 174b 533d
00000060: e0d1 003f 8875 343e 4a73 10bf 3ed0 613e
00000070: a214 36be 8162 103f 91d1 83be 8de0 133e
00000080: 196b 293f 8a03 2ebf 612f 353e 6b8e a7be
00000090: 10a6 e4be 1523 1f3f d5b6 f1be 63dd be3e
000000a0: 793a f6be 755a abbe 8208 2b3e 2297 063f
000000b0: 9b43 2b3f b9cd eabe 266d d2be 36c2 9abe
000000c0: dd62 e13e e67b 1d3f 9b71 27bf d561 b43e
000000d0: 2769 9bbe d3ce 8e3d 5efd 1c3f 5bb9 0a3e
000000e0: 65de 0c3e 2362 e03e 5a29 0c3f 431a 313e
000000f0: 3744 fb3e be18 e73e 70ae 1d3f 6c5a cd3e
0.36145717 0.6909456 0.52690613 -0.24241513 0.45172673 0.14023718 -0.6090118 -0.50082266
-0.0062679416 0.26223677 -0.6927217 -0.40535718 0.08083605 0.6668993 -0.03974768 -0.62561804
0.04586617 -0.50067425 0.4355378 -0.41034135 -0.24275357 0.687612 0.7027298 0.051585283
0.50320244 0.1762296 -0.5642592 0.22052094 -0.17781308 0.56400305 -0.25745824 0.14441128
0.66179043 -0.6797415 0.17693855 -0.32725844 -0.44657946 0.62162906 -0.47209802 0.3727828
-0.48091486 -0.3346745 0.16702464 0.5257436 0.6690003 -0.4586008 -0.410989 -0.30226296
0.4402074 0.6151718 -0.65407723 0.3523089 -0.30353662 0.06973042 0.6132411 0.1354727
0.13756712 0.43824872 0.547506 0.17295174 0.4907548 0.45136064 0.61594296 0.4010805

bn2.weight f4 [64]
00000000: 048f 7e3f 9ff1 7e3f 4b50 7e3f ae6b 7e3f
00000010: d873 7e3f 21a6 7e3f e3ef 7e3f 7eba 7e3f
00000020: 842d 7f3f 8ead 7e3f 1dee 7e3f 6e0a 803f
00000030: 75bf 7e3f 84b9 7e3f c2f1 7e3f a5e5 7e3f
00000040: 1f2b 7e3f e5bb 7e3f 657b 7e3f f6bf 7e3f
00000050: 26f9 7e3f 47df 7e3f 5d03 7e3f 224e 7e3f
00000060: f763 7e3f 616f 7e3f 57ce 7e3f d413 7f3f
00000070: 9d99 7e3f 6563 7e3f c1ef 7d3f ecf1 7e3f
00000080: c472 7e3f 66cd 7e3f b172 7e3f 28e3 7e3f
00000090: 325e 7f3f 8663 7e3f 3423 7f3f 0bb9 7e3f
000000a0: 0ebe 7e3f ed2b 7f3f 91c1 7e3f a76d 7e3f
000000b0: a1b6 7e3f e1a5 7e3f 9c4b 7f3f aaa9 7e3f
000000c0: 949e 7e3f 5c60 7e3f dbd9 7e3f cad7 7e3f
000000d0: 6492 7e3f 7f4c 7e3f 946d 7e3f 2700 7f3f
000000e0: 8dc4 7e3f 6826 7f3f 19c2 7e3f 8d0b 7f3f
000000f0: 7f29 7f3f e9cf 7e3f d9bb 7e3f e491 7e3f
0.99436975 0.99587435 0.9934127 0.99383056 0.99395514 0.9947224 0.9958479 0.99503314
0.99678826 0.99483573 0.9958208 1.0003183 0.9951089 0.99501824 0.99587643 0.9956916
0.9928455 0.99505454 0.99407035 0.9951166 0.9959892 0.99559444 0.9922388 0.9933797
0.99371284 0.993887 0.995336 0.9963963 0.99453145 0.99370414 0.9919396 0.99587893
0.9939387 0.99532163 0.99393755 0.9956536 0.99753106 0.9937061 0.9966309 0.99501103
0.9950875 0.996764 0.9951411 0.99386066 0.9949742 0.9947186 0.99724746 0.99477637
0.9946072 0.9936578 0.9955117 0.9954802 0.99442124 0.99335474 0.9938595 0.9960961
0.9951866 0.9966798 0.9951492 0.99627 0.99672693 0.99535996 0.9950538 0.9944136

bn2.bias f4 [64]
00000000: 747a 73ba 7f08 a23a 2e41 beba af3f 93ba
00000010: 04eb ffba 9c11 bbb9 cc82 133a 3e77 a8b8
00000020: bdaa cb3a 6644 093b 0433 0c3a 017d 283b
00000030: ddfa 86b9 9078 3b3a 704b 833a 9c2c 4b3b
00000040: 6cf3 05bb d8e5 2a3a 41bb 16ba aa47 84b9
00000050: 0828 1c3b e56c e8ba e492 10bb f3fc 8dba
00000060: c7b6 25b9 56cc d13a 4180 33bb b1d7 463a
00000070: 71cb 883a 68f9 ceba 034a 35bb bb3d 09bb
00000080: b747 52ba 5550 a6b9 3e6d 23ba e24c 4d3a
00000090: a440 c43a 6b5f a2ba 4723 73ba 45e7 ce36
000000a0: 3e72 a3ba eb8b 1d3b c07b 4239 e4c7 1bba
000000b0: 20a9 ffb7 7ebb 163a d190 88b9 ae94 ddba
000000c0: 4fe1 6fba 09b0 fdba 9c3b 3c3a a8c6 cfba
000000d0: f054 99b9 506a 3eba e0ef d4ba 008c 053a
000000e0: 1e54 f438 107d 61b8 de04 8339 d773 ba39
000000f0: f54a 143a 0670 b33a 6c19 95ba aeb8 15ba
-0.00092879613 0.0012362151 -0.0014515275 -0.0011234189 -0.0019524996 -0.0003568054 0.0005627095 -8.033075e-05
0.0015538555 0.002094531 0.0005348178 0.0025709274 -0.0002574538 0.0007151449 0.0010016989 0.003100193
-0.002043928 0.0006519235 -0.0005749949 -0.00025230396 0.0023827571 -0.0017732648 -0.002206021 -0.0010832831
-0.00015803716 0.0016006331 -0.0027389678 0.0007585241 0.0010436607 -0.0015790882 -0.0027662523 -0.0020941335
-0.00080215506 -0.0003172184 -0.0006234235 0.0007831586 0.0014972878 -0.0012388056 -0.0009274971 6.1662017e-06
-0.001246996 0.0024039696 0.00018547382 -0.0005942567 -3.0477124e-05 0.00057499844 -0.00026047838 -0.0016905272
-0.00091507 -0.0019354831 0.00071805133 -0.0015852051 -0.00029245717 -0.00072637666 -0.0016245805 0.0005094409
0.00011650495 -5.3760654e-05 0.00024989893 0.00035562992 0.00056569214 0.0013690002 -0.0011375374 -0.00057114183

conv3.weight f4 [1, 64, 1, 1]
00000000: 5371 043d 9e1a 68bd fc21 ba3d 73ac a2bc
00000010: 4ce2 753d 5ba5 17bd 8575 42bd 47bb 28bc
00000020: ac22 01be 70f9 cb3d 0a11 3dbd f9f2 073e
00000030: 3844 0abd d98b 353d 1c8b 74bd 6bde e6bd
00000040: a2d6 b2bd 1ac0 103d ae07 093d 8ac3 4abd
00000050: 046e aabd 42e8 b0bd 975b 45bd 200c bb3d
00000060: 8fdc 643d ae9b d13d 836b fcbd ea89 97bd
00000070: 5d13 713d 7ccd 973d 0137 a7bd 2e54 f8bd
00000080: 9a71 603d 7a72 9bbd 591e 863d 15ec 3bbd
00000090: 8c30 0b3e add3 56bd c0d7 f7bd cae2 8c3b
000000a0: 7703 74bd ff19 e7bd 602b 7cbc aa22 993d
000000b0: 6560 9cbb 235d 003d 58e6 fcbd 798e aabd
000000c0: e1bb 39bd 3fde 993d 114e 1bbd ec74 93bd
000000d0: 8ffb 103d ce1a b33d 5ec3 823d ba41 443d
000000e0: 6def a6bc 4129 c4bd 3e11 80bc 5700 583d
000000f0: 18a0 c63d 49aa cc3d 3afa 80bd 72f5 f43c
0.032334637 -0.05666601 0.09088513 -0.01985762 0.060030267 -0.03702293 -0.047475357 -0.010298557
-0.12610883 0.09959686 -0.046158828 0.1327628 -0.033756465 0.044322822 -0.059702978 -0.112728916
-0.08732344 0.035339452 0.03345459 -0.049502887 -0.08321765 -0.0863805 -0.04818305 0.09133172
0.055874404 0.10234772 -0.12325194 -0.07399352 0.058856357 0.0741224 -0.08164788 -0.12125431
0.05479584 -0.07590194 0.06548757 -0.045879442 0.13592738 -0.052447964 -0.12101698 0.0042994963
-0.059573617 -0.11284255 -0.015391201 0.07477315 -0.0047722333 0.031338822 -0.12348622 -0.08327956
-0.04534519 0.07513093 -0.037916247 -0.072000355 0.035396155 0.08745347 0.063849196 0.047914244
-0.020377839 -0.09578181 -0.015633222 0.0527347 0.09698504 0.09993417 -0.06297727 0.029902194

fc_actor.weight f4 [1, 5]
00000000: c3f1 87b9 a631 ffbc ec19 f9bd e988 f23e
00000010: dbe1 033f
-0.00025929333 -0.031151604 -0.12163147 0.4737008 0.51516503

fc_critic.weight f4 [1, 5]
00000000: ecdf 0a3d e5bc 853d b95f 583d a72a 923d
00000010: 7082 373d
0.033904955 0.065301694 0.052825663 0.071370415 0.04480213
