CNN_Closing/Trained Models/model_cnn_2.pth (torch, 353011 bytes, 10 tensors)

conv.0.weight f4 [32, 1, 2]
000000 d3 f3 2d 3f d7 88 2a 3f 92 52 a8 bd a9 89 71 be
       0.6795017 0.6661505 -0.08218874 -0.2358767
000010 e3 9d 80 3e 71 76 09 3f a9 83 b7 3e d6 f3 16 3e
       0.25120458 0.5369635 0.35842636 0.14741454
000020 63 16 48 bd a2 2b aa 3e 03 94 b2 bd 8e 1c 2d 3f
       -0.048849475 0.33236414 -0.08719637 0.67621696
000030 70 26 c7 bd 0d d9 f8 3e 93 f0 a9 3d aa 77 a7 be
       -0.09724128 0.48603097 0.08297839 -0.32708484
000040 3d f1 ff 3e 82 ef 31 3e 08 f5 e1 3d f8 79 bf 3e
       0.49988738 0.17376521 0.11033064 0.37397742
000050 2a ec e7 3e 16 62 0d bf 67 bd c2 3e 88 7e df 3e
       0.45297366 -0.5522779 0.38035128 0.43651223
000060 e1 a2 fb be 0e ba 88 3e ef d5 8c bc 47 e2 df be
       -0.49147704 0.26704448 -0.017191855 -0.43727323
000070 c3 c7 9a 3e 0c f4 25 3e b2 40 e0 be f8 d5 16 3e
       0.3023053 0.16206378 -0.4379936 0.1473006
000080 78 70 c0 be bc c9 03 3f b2 ae 0b bf ff aa 29 3f
       -0.37585807 0.514797 -0.5456344 0.66276544
000090 6b e7 20 be 04 39 26 bf 9e 03 eb be da 86 b3 be
       -0.15713279 -0.6493075 -0.45901197 -0.3506382
0000a0 bf f5 e7 3d d2 01 11 bf e9 39 1f 3f 39 92 c0 bd
       0.11326169 -0.566434 0.6219774 -0.0940289
0000b0 4d e8 77 3e 86 30 16 39 a4 cc 69 3e 46 a9 47 be
       0.2420971 0.00014323191 0.2283197 -0.19498166
0000c0 94 80 ad be 16 cb b2 be 9d 55 ba 3d 73 59 ec 3e
       -0.3388716 -0.34920567 0.09098361 0.46161994
0000d0 d0 1f 09 bd c9 bb 0b bd f7 5a 55 be de 75 4e 3e
       -0.033477604 -0.034114633 -0.20835482 0.2016215
0000e0 be 0f ae 3e 53 b4 ea 3e 45 a7 c5 be 73 1c 1a 3f
       0.33996385 0.458407 -0.3860418 0.6019966
0000f0 1d e8 5d be ba 96 80 3e ed 85 20 bf a9 a0 12 3f
       -0.21670575 0.25114995 -0.62704355 0.572764

conv.0.bias f4 [32]
000000 3d ab 09 be 21 c2 09 bf 4a 34 0a 3f 22 aa 13 bf
       -0.13444228 -0.5381184 0.53986037 -0.5768148
000010 8a 59 cf be 63 69 93 be b0 52 80 be 93 ee 46 3e
       -0.40498 -0.2879134 -0.25063086 0.19426946
000020 da e4 ca bd a6 3a 18 bf 41 b8 ff be 50 c3 df 3e
       -0.09906931 -0.5946449 -0.49945262 0.437037
000030 49 a1 f6 3d a7 d3 e8 3e 48 06 c8 be 64 a4 50 3d
       0.120424815 0.45473978 -0.39067292 0.050938025
000040 23 3f 9c be b9 77 38 be eb 74 b6 3e 9f e3 cb bd
       -0.3051692 -0.1801442 0.35636076 -0.09955525
000050 87 7b 82 be 6f e1 50 3e 17 c8 f4 bd 94 cc 17 bf
       -0.2548487 0.20398496 -0.119522266 -0.59296536
000060 35 ae e6 3e 9d 11 ff 3e 68 74 11 3f 39 f8 e0 3e
       0.45054784 0.49818125 0.56818247 0.4393938
000070 0e 28 d2 be 74 1d 5a 3e 2d 7d 11 bf 53 37 78 3e
       -0.41046184 0.21300298 -0.5683163 0.24239855

conv.2.weight f4 [64, 32, 2]
000000 b2 d9 8e bc a4 fc 83 3d 6e 73 9c bc fe f8 b2 3c
       -0.01743779 0.06444672 -0.01909801 0.021847244
000010 a1 d5 c6 bd 87 45 91 bd 20 56 7a 3d af 90 a7 bd
       -0.09708715 -0.070933394 0.06111729 -0.08181893
000020 bd ee a3 bd a0 be c8 bc f5 66 bc bc 32 cc c3 3d
       -0.0800452 -0.02450496 -0.022998312 0.095604315
000030 ac 2b 45 bc 02 05 ad bd c0 7b 98 3b b3 16 91 3d
       -0.012034338 -0.08448221 0.004653424 0.07084408
000040 04 72 8b 3d 76 f3 bf bd f9 51 79 3d f7 ac a9 bd
       0.06808856 -0.09372608 0.06086919 -0.082849436
000050 74 52 78 bd af 51 b7 bc 46 5f d2 3d d5 db f0 3d
       -0.06062551 -0.022377817 0.10272078 0.1176068
000060 76 f1 c9 3d 30 c5 88 bd 4f 21 ea bd 7c bc 9b bd
       0.09860508 -0.066782355 -0.11432134 -0.0760431
000070 7c 95 59 bc 85 ee 74 bd e0 cf a1 bd 80 54 e4 bd
       -0.013280269 -0.059797782 -0.07900977 -0.111489296
000080 43 3a 99 bd 43 3c 0e bd d1 9d 9e 3d 14 ec 52 3d
       -0.07481816 -0.03472544 0.07744945 0.051494673
000090 b2 99 a7 bc 6f ff 4a bd 5f bb ba 3d db 37 89 bd
       -0.02045903 -0.049560007 0.091177694 -0.06700107
0000a0 64 ce e1 3d 7e 73 90 bd 9c 87 d3 bd ce 8f 27 bb
       0.11025694 -0.070532784 -0.103286 -0.0025567892
0000b0 43 d5 72 3b 18 a6 1e 3d e8 62 d0 3d 6f 8b d7 3c
       0.0037053383 0.038732618 0.10175115 0.026311604
0000c0 3a 5f d2 3d cf 84 ad bd c9 18 00 bd 48 bc fc 3c
       0.10272069 -0.08472597 -0.031273637 0.030851498
0000d0 b2 ca eb bd eb f1 46 3d db b6 58 bd 80 e3 f5 3b
       -0.115132704 0.048570555 -0.05290876 0.0075039268
0000e0 56 4b 8d 3d 31 89 ed bd 26 1d 16 bd c8 5d aa bd
       0.06899135 -0.11598433 -0.036648892 -0.083186686
0000f0 26 66 8c bd f4 89 54 3d f7 bb a1 bd fc a7 1d 3d
       -0.06855421 0.051889375 -0.078971796 0.03849028
000100 f4 f1 3d 3d 21 a3 a1 bd 6c 43 43 3d e0 16 f2 bd
       0.046373323 -0.078924425 0.04767172 -0.11820769
000110 f3 10 f1 bd fd 75 01 bd de b4 a6 3d 06 22 e9 3c
       -0.11770811 -0.031606663 0.081399664 0.028458606
000120 15 cf 22 3d 60 e1 ea bd 2c 74 81 3d 3a 74 6b 3d
       0.03974827 -0.11468768 0.06320986 0.05748389
000130 13 aa 0a bc 18 06 a3 3d 0c 43 0b bd e8 89 87 bd
       -0.0084634 0.07960147 -0.033999488 -0.066181004
000140 6b 3d ba 3d 1e c2 72 bd 39 09 0f bd a6 f6 89 bd
       0.09093746 -0.059267156 -0.034920905 -0.067364976
000150 3c 15 cc 3a fc 83 23 bc 0a 90 c1 3d 2f c0 c6 bd
       0.0015570293 -0.009980198 0.094513014 -0.09704625
000160 1f c6 9f bd 45 a1 a1 3c 1e 39 06 3c dc 31 e4 bc
       -0.078014605 0.01973022 0.008192329 -0.027855806
000170 57 14 45 bd da 5b 0a bd 44 96 d5 bd 6c 23 d5 bc
       -0.0481151 -0.033779003 -0.104290515 -0.026017867
000180 d9 76 c9 bd 34 1a f0 3c 24 71 24 3d df ee 9c 3d
       -0.098371215 0.02930937 0.04014696 0.076627485
000190 0e fc cd 3c 93 04 5c 3c 6c 01 84 bd 5f ae a1 3d
       0.025144603 0.013428825 -0.06445584 0.07894587
0001a0 4e 5a 15 3d 23 ca 93 3d 1a 84 3d bd 75 25 ed bd
       0.036463074 0.07216289 -0.04626856 -0.1157941
0001b0 8e 5e 2c bc 07 98 3e bd 88 5b 5b bd 29 b8 6e 3b
       -0.0105205905 -0.046531703 -0.053554088 0.0036425686
0001c0 55 7b 4c ba 35 e5 ae 3b a9 17 86 bd 48 33 c1 bc
       -0.00078003603 0.005337382 -0.065474816 -0.023584023
0001d0 97 e7 aa 3d ef 3d f8 bd 2e f3 de 3c 04 1c ba bd
       0.083449535 -0.12121188 0.027215566 -0.09087375
0001e0 c7 f6 ca bd 11 3a 9f 3c ae dd 99 bc bc fc 8e bb
       -0.0991035 0.019436868 -0.018782463 -0.0043636244
0001f0 9c d5 cc bc 8c 07 d2 bd d3 b5 aa bd 4e 86 b9 3b
       -0.0250042 -0.10255346 -0.083354615 0.0056617623
000200 d2 af e0 bd ca bc ad bc e6 0a 82 3d 75 15 e8 bc
       -0.10971035 -0.021208186 0.06349735 -0.028330544
000210 1e ff d2 3d 5a d4 a6 bd c0 94 b0 3d 5d e0 ce bd
       0.10302566 -0.081459716 0.08622122 -0.10101388
000220 10 95 f8 3d e4 08 2d bb 0d 56 e8 3d ad 56 84 3d
       0.121378064 -0.0026403004 0.11344538 0.064618446
000230 97 24 d8 bd c8 c6 3c 3d ec bb 95 bc 25 8f f9 bc
       -0.10553854 0.04608801 -0.018278085 -0.030463764
000240 ed 3a 9e bd 26 65 c4 bd 9d 0f de 3d d1 29 a1 bc
       -0.07726083 -0.09589605 0.10842822 -0.01967326
000250 9d 94 9f bd f3 7e 2b bd 2a a6 83 3d 31 55 b3 bc
       -0.077920176 -0.041869115 0.06428178 -0.021891208
000260 99 d1 3a 3d f0 0c 80 bd 0a fc 9b bd dc 56 99 bd
       0.045610044 -0.06252468 -0.07616432 -0.0748727
000270 c1 39 d7 3d 9a 17 c5 bc 43 88 12 3d 6a 52 89 3d
       0.105090626 -0.024059106 0.03577448 0.06705172
000280 7d a2 c6 3d 82 fe ef 3d da c5 96 bd 61 bb 7a 3a
       0.09698961 0.117184654 -0.07361956 0.0009564665
000290 aa 37 8d bc 99 73 70 bd 89 6d 8a 3d e0 18 ac bd
       -0.017238457 -0.058703993 0.067591734 -0.08403182
0002a0 4a 03 b8 bd 9d 06 ba 3d 51 8a 3e bd 4d 5e d2 bd
       -0.08985002 0.09083293 -0.046518628 -0.10271893
0002b0 80 22 ad bd dc 1e 92 3b 0c f2 21 bb c9 d8 d2 bd
       -0.08453846 0.004459245 -0.0024710922 -0.10295255
0002c0 58 ae 11 bd 46 4e f3 bd d1 c7 94 3b b4 51 bb 3d
       -0.035566658 -0.11880164 0.0045404215 0.09146443
0002d0 55 07 ab bd c8 b8 28 3d 41 cb c7 3d 1f e4 9e bb
       -0.08351008 0.041191846 0.097555645 -0.0048489715
0002e0 b3 34 74 3c a5 b6 6a bd 70 0b b9 3d 08 12 32 bd
       0.014905143 -0.05730309 0.09035385 -0.043474227
0002f0 09 04 aa 3c fc 70 db 3c 78 93 36 bd 18 29 db 3d
       0.020753877 0.026787274 -0.04457423 0.107011974
000300 78 59 e4 bd f3 44 30 3c 7e 11 b0 bd a5 b6 5d bd
       -0.11149877 0.010758626 -0.08597086 -0.05412926
000310 22 7f ac 3d d4 5a c2 3d d0 79 f9 3d e5 2a 0c 3d
       0.08422686 0.0948998 0.12181437 0.034220595
000320 eb df aa 3d 11 74 fd bc 1b 99 6c bd c8 9b a5 3c
       0.0834349 -0.030939134 -0.0577632 0.020215884
000330 82 a7 31 bd bc 77 3a bd ca 5e 6f 3c 6b 4b f4 3d
       -0.04337264 -0.045524344 0.014610002 0.11928447
000340 d4 52 36 bd dd 73 ea 3d 0a 86 e0 bd ec 16 9b bd
       -0.044512585 0.114478804 -0.10963066 -0.075727314
000350 20 d9 86 bc ea ee bd bd be f5 16 bc 88 b2 8f bd
       -0.016460955 -0.09274085 -0.009213863 -0.07016474
000360 7c 47 5a bd d7 c0 c9 3d a4 7d 92 3d f7 a7 88 bc
       -0.05329083 0.098512344 0.0715287 -0.016681654
000370 46 82 2d bd 8c c6 be bd 3c 61 b2 bd 48 bd e9 bc
       -0.042360567 -0.093152136 -0.08709952 -0.02853264
000380 e6 99 d3 bd fe 81 0e bd 2e 6e f5 bd 4b 35 e8 bd
       -0.10332088 -0.03479194 -0.11983906 -0.1133829
000390 f1 b8 99 bd 5e be 7a 3d 40 a7 02 3d f8 a5 9f bd
       -0.07505978 0.061216705 0.031897783 -0.07795328
0003a0 ba b2 d6 bd 3f 26 fd bd be cf d6 3d 98 d0 ee bb
       -0.10483308 -0.123608105 0.104888424 -0.00728805
0003b0 11 c8 26 3d 1f 73 2b 3d 5a 8e 84 3d a1 b6 fb 3d
       0.040718142 0.041857835 0.06472464 0.12290693
0003c0 d2 8e 7d 3d 40 a7 74 bc df fd 9a bd 8c 8e c9 bd
       0.061903782 -0.014932454 -0.07567953 -0.09841642
0003d0 72 62 80 bd d4 f1 3e 3d 3d 06 fc bd c3 1c 85 3d
       -0.06268777 0.046617344 -0.12305877 0.064996265
0003e0 c6 2b 85 3c c8 1f 99 3d af ba d2 bc 8a 56 2c 3d
       0.016256224 0.07476765 -0.025723783 0.042074718
0003f0 29 ac 81 3d 89 39 e3 3d 13 41 ea 3d 1b f0 53 3d
       0.06331665 0.11094958 0.11438193 0.051742654

conv.2.bias f4 [64]
000000 ca c5 98 3d 2f 34 dd ba 6e d7 72 3d 7d 3a a4 bd
       0.074596 -0.0016876514 0.05928748 -0.08018968
000010 06 d3 0a bd a5 df 08 bd 15 57 a2 3c 95 d7 ae bc
       -0.033892654 -0.03341641 0.019816915 -0.021343032
000020 7f c5 c7 3c 21 93 e4 bd 05 87 b3 3d 9a da cc bd
       0.024386166 -0.11160875 0.08765987 -0.100026324
000030 5c 12 d0 3a dc c2 15 3d 7b 49 02 bd 43 f4 40 3b
       0.0015874612 0.036562786 -0.031808358 0.0029442466
000040 3b 43 b7 bd c6 90 95 bd 43 40 a7 bd fd 99 21 bd
       -0.0894837 -0.07303004 -0.08166554 -0.039453495
000050 7f c5 9c 3d 31 87 5b 3d 28 aa 9f 3c 0f d0 f5 bd
       0.07654857 0.053595725 0.019490317 -0.12002575
000060 ba 8a 2e bd 59 e0 04 3d c4 ae 05 3d 05 b5 ba 3d
       -0.04261277 0.032440517 0.032637373 0.09116558
000070 f4 48 4b bd 59 f6 a1 bc 50 e9 89 3d 8b d2 36 3d
       -0.04963012 -0.019770788 0.06733954 0.044634383
000080 3e 0f ca 3d 81 f6 ed 3d 0a f6 88 3d 39 95 a2 3d
       0.098661885 0.116192825 0.06687553 0.07938618
000090 15 bf 77 bd 33 a5 cc 3d b0 55 86 bc 58 5b c9 bd
       -0.060484964 0.09992447 -0.01639828 -0.098318756
0000a0 b9 7d bc bc 76 df f2 3d 36 47 73 bd e6 17 ee 3c
       -0.023009168 0.11859028 -0.059394084 0.02906413
0000b0 02 b0 d9 3d 9f fe 44 3c 3a 22 73 3d 0c 41 9a bd
       0.10629274 0.012023597 0.059358813 -0.07531938
0000c0 b6 b7 f1 bd ba 07 76 bd 8f 63 90 bd fa 92 2b 3d
       -0.11802618 -0.060065962 -0.07050239 0.041888215
0000d0 6e c8 6c bd a3 ca 46 3d e7 e9 7c 3d 2b 2f 25 3d
       -0.057808332 0.048533093 0.061746504 0.040328186
0000e0 5d ea 80 bd 71 db 95 bd 53 7d 96 bd e6 44 b2 3d
       -0.06294701 -0.07317246 -0.073481224 0.087045476
0000f0 b4 52 22 bd b0 17 84 3c 59 c1 7b bd 9e a0 e9 3d
       -0.039629653 0.016124576 -0.061463688 0.114075884

conv.4.weight f4 [128, 64, 2]
000000 59 90 a7 bc 6e a3 8f 3d ad 8e b3 3c b9 50 97 3d
       -0.020454573 0.070135936 0.021918619 0.073884435
000010 51 4e 31 bc 88 fc e6 39 8d 7a 0e 3d c5 ea 9c bd
       -0.010821895 0.0004405717 0.034784842 -0.07661966
000020 0e 1e a7 bc 31 2b 01 bc 71 59 d3 3c f6 b5 56 bd
       -0.020400073 -0.007883833 0.025799485 -0.052419625
000030 f7 24 53 bc 60 5c ea bc 95 c2 55 3d 2c ba 97 bd
       -0.012887231 -0.028608501 0.05218752 -0.07408556
000040 56 5a 30 b9 01 2c 9c 3d fc 3e 93 3d 4d d2 19 3c
       -0.00016818321 0.076255806 0.07189748 0.0093885185
000050 ca 0f 37 bd 7e 56 37 3d 6a 10 f7 bc 4e 87 21 bd
       -0.044692792 0.04476022 -0.030159194 -0.039435677
000060 fa e3 30 bd c9 15 e8 bc 88 45 72 3c 4c fa 6d bd
       -0.043186165 -0.0283307 0.014787085 -0.05810003
000070 5f cd d9 3c 36 ff 09 3d 61 72 ba bc 05 d4 9a bd
       0.026587186 0.033690654 -0.022759618 -0.07559971
000080 25 54 36 bd 68 33 b3 bd ba ef b1 3d 16 17 31 3d
       -0.04451384 -0.08750039 0.08688302 0.043234907
000090 9b 2e 49 bd 8d 73 98 3d 72 ee b1 bd ff 70 80 bc
       -0.049116712 0.074439146 -0.08688058 -0.01567888
0000a0 ea 37 30 bc 34 73 7e 3c 49 d2 47 bd f0 0c ae bd
       -0.010755518 0.015530396 -0.048784528 -0.084985614
0000b0 e0 84 40 3d 89 a3 4b 3d 47 ff eb bc fc 03 96 bd
       0.04700172 0.049716506 -0.02880825 -0.07324979
0000c0 f5 ca 60 bd 12 88 ae 3b d5 3a a9 3d 8a 35 a5 bd
       -0.054881055 0.0053262794 0.082631744 -0.080668524
0000d0 ad b3 39 3d f5 86 b1 bd 27 a7 87 bb f6 ef 2b bc
       0.045337368 -0.08668319 -0.004139799 -0.010494223
0000e0 a7 de 23 3c db 2d 88 3d a5 7c df 3c 71 96 0c 3d
       0.010001815 0.06649371 0.027281115 0.03432316
0000f0 9b 43 4c 3d 9c 58 af bd a1 f6 a7 bd a0 43 9c 3b
       0.04986916 -0.08561823 -0.082013376 0.0047688037
000100 23 24 2c 3c 3a 36 98 3c fd cb 7f bd d5 3a af 3d
       0.010506663 0.018580545 -0.062450398 0.08556143
000110 ae 54 b1 3d b6 18 1d bc d3 e8 81 3d a4 e2 42 3c
       0.086587295 -0.009588411 0.06343236 0.011894856
000120 81 1e e8 3c 52 85 2a 3d 06 cb 83 3b 45 2b d9 bc
       0.028334858 0.04163105 0.004022005 -0.02650989
000130 a8 c6 f6 3c 96 4c 95 3d a6 5d b8 bb 26 85 e9 3a
       0.030124024 0.07289998 -0.005626398 0.0017816171
000140 b8 bf 33 3d 41 1d b0 bc e3 16 6a bd 5b 53 b0 bd
       0.04388401 -0.021498324 -0.057150733 -0.08609649
000150 89 b4 a1 3d 17 ca 8c bd c9 00 a0 bd b3 65 6b bc
       0.078957625 -0.06874483 -0.0781265 -0.014367509
000160 85 8e 4e bb 41 7b 5b 3d 1d b5 3f 3c 66 13 01 bd
       -0.0031518054 0.05358434 0.011700896 -0.03151264
000170 83 6b dd 3c 2f 29 94 3c 1d e6 a3 3d e1 07 b9 38
       0.027028805 0.018086044 0.08002875 8.822955e-05
000180 02 11 97 bc b5 40 3b 3d 0d ab 5c bd dd 77 20 3d
       -0.018440727 0.045716006 -0.053874064 0.03917681
000190 8e 2f 96 bd a0 c7 11 bd f8 2e ed bc 08 b7 21 bd
       -0.07333289 -0.035590768 -0.02895306 -0.039481193
0001a0 ad 99 96 3d bf b6 27 3d 95 ad 9d 3c cc 7e 59 3d
       0.0735353 0.040945765 0.01924781 0.05309944
0001b0 3d 80 f9 bb d3 02 5d 39 5e c4 89 3d 4d e5 3f bc
       -0.007614164 0.00021077254 0.06726907 -0.011712384
0001c0 97 e7 b2 bd 55 fd 8a 3d c1 8f a5 3d d8 cf 0e bd
       -0.087355785 0.067866005 0.080840595 -0.034866184
0001d0 31 20 8a bc b6 8f ba bc 18 c7 a7 bd e4 9c d5 bc
       -0.016861053 -0.022773605 -0.08192271 -0.026075788
0001e0 eb 1e 2a 3d 9a 3f 5c bd a9 97 5e 3d 5b ab 2f bd
       0.041533392 -0.053771593 0.054343853 -0.042888027
0001f0 e4 2a 4f 3d b8 dc a5 bc da 0c a4 bd 73 34 9a bb
       0.050578013 -0.020246848 -0.08010264 -0.0047059595
000200 ca 2a 68 bd d0 84 43 3c a3 e9 e0 3c 9b a2 d4 bc
       -0.05668143 0.01193352 0.027455157 -0.025956443
000210 37 4c 5f bd 5e 2d ab 3b 34 c8 a8 3c fe d6 a8 bd
       -0.054516044 0.005223914 0.020603277 -0.082441315
000220 0b 02 92 bd d7 7d 1a bd 67 78 9a 3d 2a 60 13 bc
       -0.07129296 -0.037717666 0.07542496 -0.008995095
000230 84 fa 40 3d 01 52 87 3d 51 8a ee 3c 00 0d 00 bd
       0.04711391 0.06607438 0.029118689 -0.031262398
000240 36 99 dd bc 3e bf 40 bc 7b 78 a5 bd 56 a1 ae 3c
       -0.027050596 -0.011764346 -0.080796205 0.021317165
000250 07 1a 88 bd 54 ab 9e 3d 51 73 85 3d ec 4b c8 3c
       -0.06645589 0.07747522 0.065161355 0.024450265
000260 c5 4c 03 bd 5a 46 00 bd a7 04 89 3d fd 08 15 3d
       -0.032055635 -0.031317092 0.066903405 0.036385525
000270 e0 5a 71 3d 97 20 a1 3d 06 ae 77 3b 3b ab 52 3d
       0.058924556 0.07867544 0.0037792935 0.05143283
000280 e8 cc f8 bc 0f 1b 82 3d e0 d5 8b bd 81 83 ff 3b
       -0.030371144 0.06352817 -0.06827903 0.007797659
000290 4a 7f 72 bd 65 b9 23 bd c8 33 09 bd 6b 7f 10 bd
       -0.059203424 -0.039971728 -0.033496648 -0.035277765
0002a0 b0 20 87 bd 62 94 6f 3c 73 38 90 bd e8 8a 72 3c
       -0.065980315 0.01462278 -0.07042017 0.014803626
0002b0 4b cb 77 bc f2 22 3e 3d d6 90 b4 3c 7a 76 0f 3d
       -0.015124152 0.046420045 0.02204172 0.035025097
0002c0 91 f0 17 bd d5 3e b3 3c 59 2a 99 3d 80 51 b8 3c
       -0.037094656 0.021880547 0.0747878 0.0224998
0002d0 e5 74 ce bc 28 85 8c 3d 9f 59 75 bd 95 98 67 bd
       -0.025202224 0.06861335 -0.059899922 -0.056541998
0002e0 ba 65 5c bd 70 2c a5 bd 09 0d 71 3d d9 58 a0 bd
       -0.05380795 -0.080651164 0.058850322 -0.07829446
0002f0 cf af 10 bd 01 cd 6a 3d 1a 14 07 bd 6f fb 33 bd
       -0.035323914 0.057324413 -0.032978155 -0.043940958
000300 16 73 90 3d c6 a6 81 bd 6d 67 37 bd 04 5a a4 3c
       0.07053201 -0.06330638 -0.04477637 0.020062454
000310 c7 ff 87 bc e8 48 86 3c 4b 37 86 bb d1 84 3f 3d
       -0.016601456 0.016392186 -0.004095947 0.046757523
000320 28 ab f3 3c 1a ad 5d bc e5 e3 26 bd bf ae 6f bc
       0.0297447 -0.01353004 -0.04074468 -0.014629065
000330 68 95 67 bd e6 90 6b 3d 63 ce 99 bd a7 e4 ae 3d
       -0.05653897 0.057511233 -0.07510068 0.08539706
000340 54 8d ad 3d 95 7c a8 3d ed 63 91 3d 12 06 3b bd
       0.08474222 0.08226887 0.070991375 -0.045660086
000350 24 29 27 bd 4f c9 55 bd 16 f6 e4 3c 8c 0a 8c bd
       -0.04081072 -0.052193936 0.027949374 -0.06837949
000360 ef 2c b0 3c ae 93 75 bd b5 29 45 bb 52 ee b3 bb
       0.021505801 -0.05995529 -0.0030084674 -0.0054910565
000370 4e de b9 3b 3e c1 ec bc 41 8f 79 3d 95 9c a7 3a
       0.0056722527 -0.028900739 0.060927633 0.0012787754
000380 dd d3 5d bd 4a 9b 16 3d 05 29 89 bd 31 fe ad bd
       -0.054157127 0.03676919 -0.06697277 -0.08495749
000390 c2 0c c8 3b 87 26 8d bd 31 01 ab 3d 0a dc 80 bc
       0.0061050365 -0.06892114 0.083498366 -0.015729923
0003a0 f9 f1 96 ba 47 bc ee bc 37 8b 64 3c 4c f6 c6 bc
       -0.0011516205 -0.029142512 0.013949207 -0.024287365
0003b0 c5 12 84 bd 59 88 b4 bd fe bd a4 b8 c5 6b a4 3d
       -0.064488925 -0.08815069 -7.855518e-05 0.08028368
0003c0 0e 21 35 3d 6a 96 8a 3c b7 1b 1d ba d3 7c b2 b9
       0.044220977 0.016917426 -0.00059932045 -0.00034043807
0003d0 5e 26 b5 3c a6 df 5f bb 29 7a 0a bd 4c 67 87 bc
       0.022113021 -0.0034160404 -0.033807907 -0.016528748
0003e0 c7 65 9b bd 34 02 3a bd 6d c8 8d 3d 93 16 c5 3c
       -0.07587772 -0.045412257 0.06922994 0.024058616
0003f0 af 84 2e 3d 36 39 50 3c 31 0c 5c 3d d1 94 1e 3c
       0.042607006 0.012708953 0.053722564 0.009679035

conv.4.bias f4 [128]
000000 6b de 1d 3d d8 d4 b0 bd 10 8c 0b bd 11 d7 4a bb
       0.038542192 -0.08634347 -0.03406912 -0.0030950943
000010 b5 f6 d0 bc 6c d1 18 bd 4a 2c d3 3c 24 c1 4d bd
       -0.025508264 -0.037309095 0.025777955 -0.05023302
000020 6d 98 5f 3c db 57 92 bd f3 b3 4c 3d a4 b2 df ba
       0.013647181 -0.07145663 0.0499763 -0.0017066789
000030 52 b0 f9 3c 3d 47 04 3d 61 46 7e 3d be e0 9e 3c
       0.030479584 0.0322945 0.062078837 0.019394275
000040 29 71 22 bd 7c 06 a0 bc c1 bc 38 bd ea 72 ab bd
       -0.0396587 -0.019534342 -0.045101885 -0.083715275
000050 c0 04 a1 3d 45 69 45 3d 7a af d6 3c ba 7b 18 bd
       0.07862234 0.048196096 0.02620672 -0.03722737
000060 99 04 a1 bd 91 1b 8c bd 3d 8b dc bb 5a bd 55 3d
       -0.07862205 -0.068411954 -0.0067304657 0.052182533
000070 ee fc 85 3d c7 82 39 3d 80 c0 80 bd 8b 12 ac bd
       0.06542383 0.045290735 -0.062867165 -0.08401974
000080 e8 13 b0 bd 76 a7 57 3d e5 22 c2 bc 5b 46 b3 bd
       -0.08597547 0.052649938 -0.02369828 -0.087536536
000090 5e 52 41 3c fe 4e 86 bd 5f 53 d9 3c 8e 68 85 bc
       0.011799423 -0.06558035 0.026529012 -0.016285207
0000a0 72 48 61 bc 2c 44 59 bd 74 df 3c 3d 19 f2 7e 3c
       -0.013750182 -0.05304353 0.04611154 0.01556065
0000b0 b0 2c bf 3c f2 82 64 3d 69 8e 82 bc c8 7b 5c 3d
       0.023336738 0.05578894 -0.015937047 0.053828984
0000c0 eb b6 81 bc 4b 24 a8 bd 4c d4 8f 3d 18 94 80 3c
       -0.015834292 -0.08210047 0.07022914 0.015695617
0000d0 cc e8 82 bc a3 7e 9a 3d 74 0d 11 bd 36 30 22 bd
       -0.015980147 0.07543685 -0.03541322 -0.03959676
0000e0 c6 03 af 3d f3 f1 90 bd a2 ad 70 3d b2 35 52 bd
       0.085456416 -0.07077398 0.05875934 -0.05132074
0000f0 42 e3 b1 bd 68 0e 14 3d 22 b2 17 3d 42 6f 88 bd
       -0.08685924 0.03614655 0.037035115 -0.06661846
000100 40 14 7d bd 60 f6 b7 bb 43 cb fb 3c 41 2e 04 3d
       -0.06178689 -0.005614087 0.030736571 0.032270674
000110 6c a3 d4 3c d5 4b af bd 2b 1d 47 bd d2 20 7b 3c
       0.025956832 -0.08559386 -0.0486118 0.015327649
000120 03 cd 60 bd d4 6b 81 3c 15 55 b0 3d 1b 9a aa bd
       -0.054883014 0.015798487 0.08609978 -0.083301745
000130 8e 8c 7a bd e8 cf 57 3d 03 11 91 3d 37 79 a7 3c
       -0.0611692 0.05268851 0.07083323 0.020443542
000140 ca 20 86 bd ff 9d 16 bd 44 ce 7e 3c 88 a0 e6 bc
       -0.06549223 -0.03677177 0.015552107 -0.02815272
000150 9d 63 4f 3d a9 f3 64 bd 5d 5f 44 3d 7b 7c 1b bd
       0.050632108 -0.055896435 0.047942508 -0.03796051
000160 d9 1f b1 3d bb 4c 54 bd 35 fb 92 3d 73 97 8d 3d
       0.086486526 -0.05183099 0.0717682 0.06913652
000170 c5 6f ca bc 2e 50 ae bd 4c 3a a5 3d 4e a2 22 3c
       -0.024711499 -0.08511387 0.0806776 0.009926392
000180 68 31 35 bd ba b7 0d 3c cf 90 b4 3c 7a 66 9d 3d
       -0.04423657 0.008649761 0.022041706 0.076855615
000190 a0 02 29 bc d5 3a 39 bb 80 b4 84 3d c6 91 7f 3d
       -0.010315567 -0.0028263826 0.0647974 0.06239488
0001a0 08 ac 5e 3d 38 2f 6e bd 2a 68 85 bd 50 73 25 bd
       0.05436328 -0.0581505 -0.06514008 -0.040393174
0001b0 92 66 6e 3c 80 b7 48 3c 71 f4 1f 3b ac 47 27 3d
       0.014550822 0.012250781 0.0024407173 0.040839836
0001c0 79 b9 b3 bc ec 4e 94 3d bd 9f a4 3d c1 66 94 bd
       -0.021939026 0.07241616 0.0803828 -0.07246161
0001d0 29 61 45 3d 15 cc b5 bd 90 22 67 bd 6e 53 43 3c
       0.048188362 -0.08876816 -0.056429446 0.011921747
0001e0 02 7a 14 bd 2e fd 93 bd d2 f9 7d 3c 24 3b 73 bc
       -0.03624917 -0.072260246 0.015501456 -0.014845643
0001f0 6a 56 a5 bc d2 26 00 3d 90 f2 8a 3c 83 9a 39 3d
       -0.020182807 0.031287022 0.016961366 0.04531337

fc.0.weight f4 [256, 256]
000000 33 b1 40 bd a1 a8 10 bd 97 b1 63 bd 19 3d df bc
       -0.04704399 -0.035317067 -0.055589285 -0.027250813
000010 77 55 e2 3b 2f ee 53 bd d7 7b 36 bd 75 ce 3d 3d
       0.006907161 -0.05174082 -0.044551697 0.04633947
000020 5a b1 30 3d de 2a 2b bd a5 f4 5f 3d 3b 71 47 3d
       0.043137886 -0.04178893 0.05467667 0.04869197
000030 99 3c 6d bd 3a ae 1b bd ff 03 19 bd 6c 83 0d bb
       -0.05791912 -0.038007952 -0.037357327 -0.0021593226
000040 c7 e8 9d 3c fb 2e 47 bd bb 5e 4e bc e2 d8 58 bd
       0.019276036 -0.04862879 -0.012595828 -0.05294121
000050 d0 6d 37 3d f2 60 e0 3c a1 d4 9e bc e3 60 3c bd
       0.04478246 0.027389977 -0.019388499 -0.045990836
000060 1e a7 69 3d 17 ae 56 bd a3 c1 f9 3c ea d2 13 bd
       0.05704414 -0.05241212 0.030487841 -0.036089815
000070 e3 06 f5 3c 22 5b 28 3c 85 0f 91 3b e2 ab df 3c
       0.02991051 0.010275634 0.004426899 0.02730364
000080 c0 ee 73 bd 76 a8 13 3d 84 51 6b 3c a7 3f 02 3d
       -0.05955386 0.03604933 0.014362697 0.031798985
000090 ae aa 1d bd 04 73 a7 3c 6d cb 2c bd 45 bf 15 bc
       -0.03849285 0.020440586 -0.04218619 -0.0091398405
0000a0 06 e4 0f 3c 5a 13 dc 3b 74 a7 3f bc 41 e4 18 bd
       0.008782392 0.006716174 -0.011697639 -0.037327055
0000b0 ad 62 07 3c 44 59 91 bc 6b b8 09 3d e3 b8 a2 bc
       0.008263272 -0.01774276 0.03362314 -0.019863551
0000c0 20 f0 74 3d 9d 0c 6b bd f9 77 01 bd 4c 03 72 bb
       0.059799314 -0.057385076 -0.031608555 -0.0036928235
0000d0 6e c0 e5 bc 56 b3 32 bd e1 90 45 3c 90 e5 c6 bc
       -0.02804586 -0.04362806 0.012058468 -0.024279386
0000e0 24 eb 72 bd 91 95 d8 3c 8d 45 1c 3c ef 2a a9 bc
       -0.05930628 0.026438506 0.009538067 -0.020650355
0000f0 36 5b 53 3d f5 6c 29 3d ad 49 05 bd 3b 61 fb 3b
       0.051600657 0.041363675 -0.032540966 0.007671503
000100 46 2c 72 3d 2f db 2b 3c 7e 31 5d bd 7d 07 91 bb
       0.059124254 0.010489269 -0.054002278 -0.0044259415
000110 e0 17 a7 bc d6 36 91 bc c0 d8 77 3d bb 83 4f 3d
       -0.020397127 -0.017726343 0.060509443 0.050662737
000120 9f e1 d0 bc 69 89 fa bc 39 b4 6f 3d d9 58 8a 3c
       -0.02549821 -0.0305831 0.058521483 0.016888069
000130 26 f1 39 3d e6 eb 88 3c ec 89 7e bc 3b 0c 1d 3d
       0.045395993 0.016714048 -0.015535813 0.038341742
000140 b4 26 29 3d 5e 15 05 3d cd 7d 52 3d d5 67 66 3d
       0.041296676 0.03249108 0.051389504 0.056251366
000150 39 d5 44 3d e8 c9 f9 3c 49 4d 36 bd 79 d5 05 3d
       0.048054907 0.030491784 -0.0445073 0.032674287
000160 75 2e 3c bc 57 d6 7e 3d 3a f8 44 bc 79 60 71 bd
       -0.011485686 0.06221613 -0.012022072 -0.058929894
000170 75 ec 17 bd 00 b1 98 bc eb b9 63 bd 2a 7a 3e 3d
       -0.037090737 -0.018639088 -0.055597227 0.046503223
000180 b1 11 2a 3d 09 22 80 3c b6 09 6a bc 76 18 21 3a
       0.041520778 0.01564123 -0.014284542 0.00061453076
000190 e9 3a a2 bc de 7d 7c bc 92 ff 18 3d e1 14 6b 3d
       -0.019803481 -0.015410868 0.037353106 0.05739296
0001a0 29 c9 8b bb b6 7d 36 bd e2 97 8d 3c 29 74 78 bd
       -0.0042659235 -0.04455348 0.017284337 -0.060657654
0001b0 98 61 72 3c 55 8a 25 3c 50 b5 c1 bc ea e1 e2 3c
       0.014793776 0.010103782 -0.023646027 0.027695615
0001c0 3f 0c b6 bc 0b 68 a8 3c 0a d9 63 3d 99 8c 0a bd
       -0.022222636 0.020557424 0.055626906 -0.03382549
0001d0 29 40 e1 3c b3 a2 4d 3d c7 b0 70 3d 98 7c d9 bc
       0.027496414 0.05020399 0.058762338 -0.026548669
0001e0 16 f3 37 3c 27 3b 4f bc bd 4f 43 bd 76 b6 60 3d
       0.01122739 -0.01264838 -0.047683466 0.05486151
0001f0 c0 d8 50 3c f7 82 a6 bb 48 d5 7c 3d 3e d2 23 3c
       0.01274699 -0.00508153 0.06172684 0.009998856
000200 73 c1 96 3c f1 38 11 3c 89 39 22 3d 1d f9 3e bd
       0.01840279 0.008863674 0.03960565 -0.04662429
000210 e8 6e 5c bd dc ce 55 3d fa 9c 9b 3c 74 dd e7 bc
       -0.053816706 0.05219923 0.01899575 -0.02830384
000220 97 45 72 3d 4b e0 81 bc 9d 17 f2 bc 90 14 9b bc
       0.059148397 -0.015854022 -0.029552275 -0.018930703
000230 f2 c3 eb 3c 4c 9f 0e bd 6f aa 56 3d 4e 3a 4b bd
       0.028779957 -0.034819886 0.052408632 -0.04961615
000240 ed 2b a6 3c 78 34 ad bc 78 b9 15 3a ca 4c 11 3a
       0.020284617 -0.021143183 0.0005711536 0.00055427535
000250 0c 7d 40 bd 4f b1 fb bb 86 c8 62 3c 17 4a 49 bd
       -0.046994254 -0.007681049 0.013841754 -0.049142923
000260 6d 05 a9 bc ca 23 46 3d 6f 6b f8 bc d3 47 19 3d
       -0.02063247 0.048373975 -0.030324666 0.037422013
000270 98 70 28 bc bc 5c 3e bd e1 2c 55 bc 03 bf 2d 3d
       -0.010280751 -0.046475157 -0.013011188 0.04241849
000280 6e bb a0 3c 85 7b 67 bd b5 57 dd 3c 30 82 33 3c
       0.019620623 -0.05651428 0.027019361 0.010956332
000290 29 66 f4 bc fc 0f 06 3d 39 6e e6 3b 39 cd 59 bd
       -0.02983387 0.032730088 0.0070321825 -0.05317423
0002a0 fd ac 8d bc 94 a5 17 3d 84 54 f7 bc 13 e4 4b 3d
       -0.017294401 0.037023142 -0.030191667 0.049778055
0002b0 75 3e 41 bd 7c fa 66 3d 1d 55 04 3d e7 25 7b 3b
       -0.047178704 0.056391224 0.032307733 0.0038322152
0002c0 43 10 7a 3d bc ba e0 bc dd d3 7e 3d 32 50 c2 3b
       0.061050665 -0.027432792 0.062213767 0.00592997
0002d0 9c 6b 77 bd cf 2a fd ba dc c5 09 bd 59 8e bc 3c
       -0.06040536 -0.0019315126 -0.03363596 0.023017095
0002e0 7a bf 0d bd 40 7b dc 3c b4 a6 5b 3b 76 fe 0d bd
       -0.034606434 0.026914239 0.003351611 -0.0346665
0002f0 74 6a 52 bd ad 9f 09 bd 99 15 63 3d b0 4f 31 bd
       -0.051371053 -0.033599544 0.05544052 -0.043288887
000300 02 fa 24 bd 28 75 92 3c 7e b4 8e 3b 2f f1 ac 3c
       -0.04027749 0.01787813 0.0043550124 0.021111099
000310 58 5e 4e 3d 74 09 54 bd 43 2a 2f 3d 22 91 09 bd
       0.050382942 -0.051766828 0.042764913 -0.033585675
000320 40 c0 38 3a 05 fb 30 3d 42 4f a8 3c 4b 61 0c 3d
       0.00070476905 0.04320814 0.020545606 0.034272473
000330 cc 9c 7c 3c 22 f4 a2 3c cc 28 a1 3c af 61 58 3d
       0.015418243 0.019891802 0.019672774 0.052827533
000340 ef 48 24 3c 3e ae 0f bc 7c 6e 0e 3c d3 f3 77 bd
       0.010027154 -0.00876957 0.008693334 -0.060535263
000350 74 fa cc 3c 38 3b f4 bb 29 9a 34 bd cc 3e 72 bd
       0.02502177 -0.0074533485 -0.04409233 -0.05914192
000360 b8 57 6e bc 3a be c4 3c 98 7d 90 3c 60 9a 1b 3d
       -0.014547281 0.024016488 0.017638013 0.03798902
000370 aa 02 48 bd 85 c0 0c bb b1 63 27 bd 80 24 0a 3d
       -0.048830666 -0.0021477055 -0.040866558 0.033726215
000380 2e 4a 7b bd 58 c1 5e bd 73 2e 93 3c dd d6 8d bc
       -0.06135004 -0.054383606 0.017966485 -0.017314369
000390 73 51 fc bc df c3 2a bd 75 2d 05 bd e8 5a 73 bb
       -0.030800557 -0.041690703 -0.032514054 -0.0037133042
0003a0 0a 10 8c bc f1 79 9d 3b 3e 3d ab bc ba cc b0 3c
       -0.017097492 0.0048057963 -0.020903226 0.021581996
0003b0 0e 94 58 bd 2d 87 5b 3d d1 23 0b 3d e5 0d 10 bc
       -0.05287557 0.05359571 0.033969704 -0.008792375
0003c0 f3 79 8e bc 5d d8 7a 3d 66 3c 9a bc f6 2a 53 bc
       -0.017392134 0.061241496 -0.018827628 -0.012888661
0003d0 0a f4 5f bd 92 f4 18 bd f9 4c 98 3c d6 35 32 3c
       -0.054676093 -0.037342615 0.01859139 0.010877093
0003e0 3e f6 6a bc 6d 98 e1 3c c8 a6 b9 bc db a5 52 3d
       -0.014340935 0.027538503 -0.022662535 0.051427703
0003f0 a0 83 3c 3c 09 a2 88 39 b9 1f 72 bd a7 88 e1 bb
       0.011505991 0.00026060667 -0.059112284 -0.0068827453

fc.0.bias f4 [256]
000000 85 cf 76 3d aa 26 31 3d f2 2e 1a 3d a9 30 c0 3c
       0.0602565 0.043249764 0.037642427 0.023460703
000010 51 34 42 3d bc 89 a3 3c 0d ba 00 bc e5 4f 2d bd
       0.047413174 0.019963138 -0.007856858 -0.04231252
000020 e8 64 1c bd d7 72 70 bd ba 61 9c bc be e3 d3 bb
       -0.03818217 -0.05870327 -0.019089568 -0.006466358
000030 57 b5 0d bd ad b6 3c 3d 40 2e ab 3c 31 12 7a 3d
       -0.034596767 0.04607265 0.020896077 0.061052505
000040 e2 e7 f7 3c 5f 7d 36 bd 84 24 4f bc 47 46 5f bc
       0.030261938 -0.044553157 -0.012642983 -0.013627595
000050 82 e3 e1 bc 4b 43 a4 bc 3d f6 f4 bc d5 d6 ec bc
       -0.027574304 -0.020051619 -0.029902572 -0.028911034
000060 e2 b4 37 3d 5f c5 b6 bc 1b a6 26 3d 10 c8 fc 3c
       0.044850238 -0.02231091 0.040685754 0.030857116
000070 6d 0a 40 bd e2 b1 e0 bb 62 6b 40 3c b7 c9 fb 3c
       -0.046884943 -0.006857143 0.011744352 0.030735834
000080 41 ae 7a bd 83 cc 25 bd 40 74 64 3d a4 11 04 bd
       -0.061201338 -0.04047824 0.055774927 -0.032243386
000090 70 fc 72 3d 6f d8 7a bc 20 85 5e bc a7 31 6d bd
       0.059322774 -0.015310391 -0.013581544 -0.05790868
0000a0 d9 7d 04 3d 56 1a 71 bd e9 94 5e bc 8b 30 27 3d
       0.03234658 -0.058863007 -0.013585308 0.04081778
0000b0 2f 3c 6c 3d 1c 27 f7 bc 6b 08 d7 3c 9e 16 d7 bc
       0.057674583 -0.030170016 0.026249131 -0.026255902
0000c0 13 43 7e bd 28 c5 18 bd 09 4f 6f bd 84 3d 35 bc
       -0.062075686 -0.037297398 -0.058424983 -0.01106203
0000d0 f3 d3 31 3d a2 a5 93 bb 83 da e2 bc aa 9c 3e 3d
       0.04341502 -0.004505829 -0.027692085 0.046536125
0000e0 5a 7d 59 3d 41 22 0d 3d f6 94 ea bc 86 75 d8 ba
       0.05309806 0.034456495 -0.028635483 -0.0016514517
0000f0 ff 6e 31 bc c6 e1 19 3b 6d eb f6 3c eb 1d 70 3c
       -0.010829686 0.0023480519 0.030141557 0.0146555705
000100 00 a6 54 bd 06 06 83 3c d5 07 f1 3c f0 73 78 3d
       -0.051916122 0.015994083 0.02942268 0.06065744
000110 75 3c 83 3c 05 04 64 3c 5f 32 6b 3c 61 ba e3 3c
       0.01602004 0.013916974 0.014355271 0.027798833
000120 81 53 d9 3c 78 cd 64 bb 43 79 ea bb 24 8c e8 3b
       0.026529076 -0.0034912508 -0.007155569 0.007096784
000130 9e 30 4f 3d 33 a8 cc bb 97 e4 22 bd 61 85 50 3d
       0.050583474 -0.006245637 -0.03976878 0.05090845
000140 94 b2 d7 3c 6e f7 de 3c c6 41 4f bc 0d bd 08 bd
       0.02633027 0.027217593 -0.012649959 -0.033383418
000150 1d 39 55 3d 98 bb 4a 3d cd f6 02 3d 18 de d6 b9
       0.05205642 0.04949531 0.03197365 -0.00040982733
000160 5c 1a 5a bd 4f c7 68 3d f0 b6 1c bd 8a ec 89 3c
       -0.053247795 0.0568307 -0.0382604 0.016836423
000170 82 6f 15 3d fe d9 46 bd 32 8e 14 3d 69 20 36 bd
       0.036483295 -0.048547737 0.03626842 -0.044464502
000180 44 28 56 3c 8a 26 f9 3c 6a b1 65 bd 3f f8 1d 3a
       0.0130711235 0.030413885 -0.0560774 0.0006026066
000190 15 d0 74 3b 71 a7 12 3d 1b 6c db 3c 3c 0c 51 3d
       0.0037355472 0.035804216 0.026784947 0.05103706
0001a0 11 45 64 3c 4f a5 ca b9 13 c7 4f bd 90 d2 a1 bc
       0.013932482 -0.00038651607 -0.05072696 -0.019753724
0001b0 35 fa 2f 3d 35 6f e1 bc aa c3 2e bd 5e 8c 1d 3d
       0.042963225 -0.027518848 -0.04266707 0.038463943
0001c0 a4 a4 69 3d 76 f4 64 3d c8 e6 66 3b 56 c7 f6 3c
       0.05704178 0.0558972 0.0035232771 0.030124348
0001d0 8e 59 ec 3b d6 e6 56 3c 2f 3d 4c 3c f6 bd c1 bc
       0.007212824 0.013116559 0.012465759 -0.02365015
0001e0 2a 32 fa bc 40 a1 44 bd 58 d7 11 3d 6f ac 55 bd
       -0.030541498 -0.048005342 0.03560576 -0.0521664
0001f0 86 49 f7 3c 30 3a 06 bc 9f 24 55 bc 40 fd 14 bc
       0.030186426 -0.008192584 -0.013009219 -0.009093583
000200 65 34 1c 3d e2 11 e1 3c 75 d5 ff 3c 7a 2d 9b 3c
       0.038135905 0.027474348 0.031229714 0.018942583
000210 ff a3 53 3d 7a dc 33 3d 7d fb 9c 3a a7 1f 38 bc
       0.05167007 0.043911435 0.0011976805 -0.011238015
000220 9e dc 73 3d 95 13 19 3c 40 da ec bc a1 ba 2a bd
       0.05953657 0.009343048 -0.028912663 -0.04168189
000230 46 bf 37 3d 15 e6 87 bc 06 33 31 3d 7f 2b b5 bc
       0.044860147 -0.016589204 0.04326155 -0.022115467
000240 2c 72 5d bd 5d 5c ea bc 73 90 4f bd bc 5d cb bc
       -0.05406396 -0.028608495 -0.050674867 -0.02482497
000250 45 43 28 bd 85 a0 e9 bc 8d e7 6a bd 97 f9 a8 3c
       -0.04107978 -0.028518924 -0.05734973 0.020626826
000260 ee c8 03 3c d4 e6 d8 3b 73 73 11 bc 22 7e 17 bd
       0.008043511 0.0066193137 -0.008877623 -0.036985524
000270 c8 18 63 3c f4 96 5d bd 3e 50 24 3d 8c 87 80 3c
       0.013860889 -0.05409904 0.040115587 0.015689634
000280 90 51 47 bb 9c e7 d0 3c 84 af 07 3a bc 7d 2b bd
       -0.0030413605 0.025501065 0.0005175995 -0.041867957
000290 be 96 31 bd 3c e5 cf 3c e3 18 fa 3c 4c 80 28 bd
       -0.04335665 0.025377862 0.030529445 -0.04113798
0002a0 7e 18 42 3d 4c 24 07 3d e4 74 84 3b c0 6d b7 bc
       0.04738664 0.0329936 0.0040422548 -0.0223912
0002b0 ea d5 4f bd b7 92 79 bd 4d 76 a0 bc 6f fc c7 3c
       -0.050741114 -0.060930934 -0.01958766 0.024412362
0002c0 3a 85 e6 bc 3c 9c 19 bd a2 a6 29 3d 84 13 02 3d
       -0.0281397 -0.037502512 0.04141868 0.031756893
0002d0 54 24 08 bd 0c da 44 bd 55 35 02 3c cf bc db 3c
       -0.03323777 -0.04805951 0.007947286 0.02682343
0002e0 ad f0 75 bc 38 fc 99 bc 12 40 58 bd aa 96 5e 3d
       -0.015010995 -0.018797025 -0.052795477 0.054342903
0002f0 b3 6b 1c bd 45 37 6b 3d f6 df e9 bc 70 1b 1e 3d
       -0.038188647 0.057425756 -0.028549176 0.038600385
000300 7d 66 31 3c 79 e2 6d 3d d3 af dc 3b f8 3d cd bc
       0.010827658 0.05807731 0.006734827 -0.025053963
000310 7c cb 26 bd d0 76 42 bd fd 54 6b 3c 1a bc 51 3d
       -0.0407214 -0.04747659 0.0143635245 0.05120478
000320 58 a2 6d bd ad 3f d1 3c 38 55 5d bd 05 bf 1b bc
       -0.05801615 0.025543058 -0.05403635 -0.009505992
000330 65 fd 55 bd 31 84 a7 bb 4e f8 6b bb dd c9 f8 bb
       -0.05224361 -0.005112194 -0.0036006155 -0.0075924234
000340 bf 3e 35 3d 0b a7 2a bc bd 84 d8 3b 70 e3 8e 3c
       0.044249292 -0.010415803 0.0066076205 0.017442435
000350 f9 9a 5e bd c5 ae 68 3d 29 d1 2a bd e8 0f 37 bd
       -0.054347012 0.0568073 -0.041703377 -0.044692904
000360 1d 9d b9 3c 0e 62 1a bd 7d b7 c1 bc 5a fe dd 3c
       0.022657925 -0.03769117 -0.023647064 0.027098823
000370 89 f2 40 3d 15 98 7d bc 30 fc 6c bc c2 fe c1 bc
       0.0471063 -0.015478154 -0.014464423 -0.023681048
000380 8d 55 a6 3c b6 27 4d bd c1 e6 8a bc 09 a1 4f bc
       0.020304466 -0.0500867 -0.016955735 -0.012672671
000390 89 93 24 3c 7c 14 2f bd cf bc 3b bd 94 07 ff bc
       0.010044941 -0.042744145 -0.04583436 -0.031131543
0003a0 4b 46 32 bc d3 6a cb bc fe 6f 1f 3c 39 fe d2 bc
       -0.010881017 -0.024831211 0.009731291 -0.025755988
0003b0 35 fb 33 bc 40 06 55 bd 1b 1c 3b bc 45 a7 9d 3c
       -0.010985185 -0.052007914 -0.011420275 0.0192448
0003c0 24 fb c4 3c 01 4d cb bb 82 50 ca 3c 8c 52 44 3c
       0.024045534 -0.006204248 0.024696592 0.011982571
0003d0 c2 54 52 3d 0f a3 63 bd 82 e4 69 3d c5 85 ab bc
       0.051350363 -0.055575427 0.057102688 -0.02093781
0003e0 aa 10 9c bc 91 a4 ca bc 4e ea 9c 3c 5a df 19 bd
       -0.019050915 -0.024736675 0.019154694 -0.03756652
0003f0 44 83 0d bc 02 a4 4d bc 1d 7a cf 3b 62 4a a5 3c
       -0.008637253 -0.01255131 0.0063316957 0.02017707

fc.3.weight f4 [1, 256]
000000 ca 8a ee bc 6a 2d 5b 3b ee ef 99 bc 8c d1 2e bc
       -0.029118914 0.0033443817 -0.018791165 -0.010670077
000010 c9 60 5f bc 47 83 21 bd 6d 66 8b bc 6b bb 64 bd
       -0.013633915 -0.039431836 -0.017016614 -0.0558428
000020 6e ec 77 3d 5e 0f 62 3c 9c 94 50 3d 1c cf 0c bd
       0.06052821 0.013797609 0.050922975 -0.034377202
000030 6e 6f 41 bd 57 28 9c 3c a1 6f 06 3b d6 17 d3 bc
       -0.04722541 0.019062204 0.0020513313 -0.025768202
000040 60 58 f1 bc 2a 74 1c 3d 0f ab fd 3c d1 f0 2a 3c
       -0.029461086 0.03819672 0.030965356 0.010433392
000050 66 61 73 3d 07 7e f6 bc bc 81 48 3d 8e 7b 26 bd
       0.05941906 -0.030089391 0.04895185 -0.040645175
000060 f5 73 0c 3d 01 b7 e3 3c 17 f4 5e 3d de a1 09 bd
       0.034290273 0.027797224 0.054432 -0.033601634
000070 b0 d4 93 3a 81 80 3c bd 3b 20 96 3b 96 6f ea bc
       0.0011278596 -0.04602099 0.004581479 -0.028617661
000080 29 56 36 bd 41 6c 64 3d 48 6d 30 bd fc 1f ac 3c
       -0.044515762 0.0557673 -0.04307297 0.021011345
000090 8f 93 f3 ba 8c 34 62 bd bd ac 9a bc c4 06 46 bc
       -0.0018583405 -0.055225894 -0.018881196 -0.012086574
0000a0 9b 12 2f 3d c2 09 a4 3c 1d d5 3c 3d 27 51 2f bd
       0.042742353 0.020024184 0.04610168 -0.042802002
0000b0 d4 40 7c 3d e1 10 03 3d 47 aa 1b 3d e0 46 51 bd
       0.061585262 0.03199852 0.038004186 -0.051092982
0000c0 2a 5f eb 3c 1a e8 35 bd 28 22 4f 3d 4d 01 49 bd
       0.028731901 -0.044410802 0.050569683 -0.049073506
0000d0 b8 ac 03 bd fb f5 8d 3c bb 0d 5f 3d d0 9e be bc
       -0.03214714 0.017329207 0.054456454 -0.023269087
0000e0 20 5d 01 3c 82 ab b7 3b 48 bc 02 3d f1 b7 af ba
       0.007895738 0.005605162 0.03191784 -0.0013406259
0000f0 59 54 69 bc 3b 29 45 3c 7f bf 4c bd a1 cc 67 bd
       -0.014241301 0.012033756 -0.049987312 -0.056591634
000100 20 c1 61 bd 9e a3 ec 3c a8 81 0b 3d 3d 72 7d bd
       -0.05511582 0.028886613 0.034059197 -0.061876524
000110 a6 b6 31 3d de 80 04 bd 7c 19 4f bd 3a a1 29 bd
       0.043387078 -0.03234946 -0.050561413 -0.041413523
000120 ed 7c a9 3c 4c 3f c9 3c 91 19 01 bb 9e bf 12 3c
       0.020689452 0.024566315 -0.0019699077 0.008956818
000130 26 0a 74 3d 99 4e 45 bd af 94 05 3d 30 20 2b bd
       0.05957999 -0.04817066 0.0326125 -0.041778743
000140 3d 2a 3c 3b 34 5a 48 bd 5c 4d 04 3d 7f 4c 8f 3c
       0.00287117 -0.04891415 0.03230034 0.01749253
000150 4d 02 57 3d 37 6f 5b bc 9c 46 44 3d 44 7c a0 3c
       0.05249243 -0.013393215 0.0479189 0.019590504
000160 45 51 26 bd 4c c4 74 bc 95 d1 b3 bc fc e0 39 bd
       -0.04060485 -0.014939379 -0.021950522 -0.045380577
000170 3e 97 6e 3d de 56 5d bd 37 54 a8 3c 18 4c b4 bc
       0.058249705 -0.05403792 0.02054797 -0.02200894
000180 8f 74 6c bd fd 01 3b bd b8 6e 3b bd 82 7f 5b bd
       -0.057728346 -0.045656193 -0.045759887 -0.053588398
000190 c4 a8 3e 3d 38 39 6a bd 85 49 f3 3c 66 8e 13 bc
       0.046547666 -0.057183474 0.029698143 -0.009006118
0001a0 d8 23 5c bd 35 06 af bc 17 d4 e8 3c 04 0e 62 bd
       -0.05374512 -0.021365264 0.028421445 -0.055189148
0001b0 dd 4c 00 3c e8 29 79 bd b1 d8 e5 3c cc 7c 99 bc
       0.007830826 -0.06083098 0.028057428 -0.018736266
0001c0 04 e7 2f 3c 17 a8 33 3d 71 a2 18 bc 7c 04 8f bb
       0.010736231 0.043861475 -0.009316073 -0.0043645483
0001d0 1c f1 cb 3c 7c 2c 1f 3d 1b 3f b4 bc c3 e9 db bb
       0.024895243 0.038860783 -0.022002747 -0.006711216
0001e0 37 e8 12 3d a9 c2 35 3d 39 12 52 bd a9 fc 24 3d
       0.03586599 0.044375096 -0.05128691 0.040280018
0001f0 85 e7 35 bd a7 3d 97 3a 11 ef 2b bd 0d 9b 7e 3d
       -0.044410247 0.001153876 -0.04197604 0.062159587
000200 92 8a 7a bd 99 c7 a1 bc da dd 8a bc 6b 58 b9 bb
       -0.061167307 -0.019748496 -0.01695149 -0.005656292
000210 91 3d 6b 3d 8a d0 87 bb d4 a5 31 bc 7a bd 52 3d
       0.05743176 -0.004144733 -0.010842759 0.05145023
000220 97 96 03 bd 9b 39 62 ba b9 1b 42 3d a5 f0 58 3c
       -0.032126036 -0.00086297997 0.04738972 0.013240968
000230 e3 3b bd 3b 51 6b bd bc 0c 6e 37 3d 66 47 48 bc
       0.0057749613 -0.023122462 0.044782683 -0.012224054
000240 24 21 2f 3d e9 ba 30 bd 90 96 0b bd b0 ea 5a bd
       0.042756215 -0.043147 -0.034079134 -0.05344647
000250 db cc 06 bd 58 9a 19 bd 8c f7 9b 3c e9 a7 92 3c
       -0.03291021 -0.03750071 0.019038938 0.017902331
000260 96 8b 6d 3d da ad c8 3a 51 79 eb 3c 9e ad 4a bd
       0.057994448 0.0015310601 0.028744372 -0.04948198
000270 75 a8 15 3d 2c 65 11 bd d9 ce 67 3d d3 7b cf 3c
       0.036537606 -0.035496876 0.05659375 0.025327599
000280 4c 4c db 3c be 19 46 3b 25 cc 74 bd f5 d3 32 bd
       0.02676978 0.0030227746 -0.059765 -0.04365917
000290 72 e2 a3 3c 78 f7 cd bc 2b b6 9f bc e6 db f1 3a
       0.020005438 -0.025142416 -0.019496044 0.0018452376
0002a0 29 a8 65 3c c9 a5 63 bd 66 c1 6c 3a c1 a0 b6 3c
       0.014017143 -0.055578027 0.0009031504 0.02229345
0002b0 b0 54 dc bc 5d c1 81 bb 79 7a 12 3d df c3 c9 bc
       -0.02689585 -0.0039598183 0.03576133 -0.024629531
0002c0 39 44 66 bd 69 f8 3c 3d d3 fe 98 bc b5 da 0b 3d
       -0.056217406 0.04613534 -0.018676197 0.034144122
0002d0 07 0b d0 bc 8b d1 d6 bc bf 61 5c bd e2 6f d3 bc
       -0.025395883 -0.026222965 -0.053804155 -0.025810186
0002e0 09 ae 0f bd dc 79 31 bd 42 53 2b bd 2c 1a 00 bd
       -0.035078082 -0.043329105 -0.041827448 -0.03127496
0002f0 38 76 19 3d 94 ef 7d 3d 32 bb 44 bd 03 ea b5 3c
       0.037466258 0.061996058 -0.048030086 0.022206312
000300 28 1d 60 3d 50 b5 b9 3b 86 ba 5d 3d c6 46 21 bd
       0.054715306 0.005667366 0.05413296 -0.039374135
000310 02 ca 9b bb d6 d8 d6 3b 1e ad 3e bd 01 11 71 bd
       -0.004754306 0.0065566106 -0.046551816 -0.058854107
000320 0a ab 55 3d 7e 4d 28 bd 9c 54 71 bd 1b dd f5 3c
       0.05216507 -0.041089527 -0.05891858 0.030012658
000330 2d ca 32 3c e0 5f 74 3d 2d 1e df 3c a3 3e 65 3c
       0.01091246 0.059661746 0.027236069 0.013991985
000340 75 84 c3 3c 09 c4 f6 3c 3c 96 45 3d 68 8d 0e bd
       0.023866871 0.030122774 0.048238978 -0.034802824
000350 01 d6 1f bc c0 d1 71 3a b3 ae 3a bd 47 3a dd bc
       -0.009755612 0.00092246756 -0.045576762 -0.027005328
000360 0a 81 5e 3c 00 51 c9 3c 72 b6 8b 3c 39 74 7b 3c
       0.01358057 0.024574757 0.01705477 0.015347534
000370 ce 44 12 bd 2f e3 d4 bc c6 e3 00 3d 06 c4 71 3d
       -0.03571015 -0.025987236 0.03146722 0.059024833
000380 8f 45 1c bc ac 7b 7b 3d df 1f 01 bd b3 03 66 3d
       -0.009538068 0.06139724 -0.031524535 0.05615587
000390 98 ce 8b 3b 8e 51 9d 3c 59 8c 7a 3c 3d b6 3c 3d
       0.0042665713 0.019203927 0.015292251 0.046072233
0003a0 16 5b 32 bc f7 52 c3 3a a5 2c 64 3d c6 ce 65 bc
       -0.010885974 0.0014902045 0.05570664 -0.014026349
0003b0 ed 5f 6e bd a1 8c 4e 3c 79 f4 a5 3c dc c3 7b 3c
       -0.05819695 0.012606771 0.020258175 0.015366521
0003c0 7e da 00 3c 89 fa 04 3c 73 0c 68 bd 5a 37 20 3d
       0.007864593 0.008116373 -0.056652498 0.039115287
0003d0 1b ec da bc 66 41 0e 3d e4 b5 51 bc 2a 70 e4 bc
       -0.026723912 0.034730338 -0.012799714 -0.027885515
0003e0 0d 6e 56 3d 8e 5a 32 bb d9 54 54 3d 6e 5f 32 3c
       0.052351046 -0.002721462 0.05183873 0.01088701
0003f0 97 b2 48 bb 43 52 10 3d 12 5a be 3b be ae 1b 3d
       -0.0030624026 0.0352347 0.005809077 0.038008444
