RNN_Features/Trained Models/RNN_Features_3.pth (torch, 75578 bytes, 15 tensors)

attn_vec f4 [64]
0	0x3f8255c6	1.0182426
1	0x3f64ea40	0.8941994
2	0x3f85f413	1.046511
3	0x3d1ddb8c	0.038539454
4	0xbecc7ec8	-0.39940476
5	0xc006d755	-2.1068928
6	0xbfe6f8f2	-1.8044722
7	0xc0504766	-3.2543578
8	0xbb310cca	-0.002701568
9	0xbfe003a9	-1.7501117
10	0xbd82db85	-0.06389526
11	0x3db1a437	0.086738996
12	0x3ffc9411	1.9732686
13	0x3f1b2579	0.60604054
14	0xbe0d48c9	-0.13797297
15	0x3ee3a7cd	0.4446396
16	0x3f8d7475	1.1051165
17	0xbfa0367a	-1.2516625
18	0xbef55e25	-0.4792339
19	0xbf351d1e	-0.70747554
20	0x3f9b56c7	1.2135857
21	0x3eeff596	0.46867055
22	0x3f9b7393	1.2144645
23	0xbf6bc107	-0.9209141
24	0xbffce948	-1.9758692
25	0x3fdda109	1.7314769
26	0x3e723825	0.2365423
27	0x3f16f8e8	0.5897355
28	0x3ee0795f	0.438426
29	0x3f0b4e33	0.544162
30	0x3f621650	0.88315296
31	0x3e57cd39	0.2107438
32	0xbef15330	-0.4713378
33	0xbfed8fb4	-1.855948
34	0xbf0dd0de	-0.5539683
35	0x3f8ff70f	1.1247271
36	0x3f586d8b	0.8454215
37	0x3eae7704	0.34075177
38	0xbcd407b6	-0.025882583
39	0x3eb5bde3	0.35496435
40	0x3f1705a3	0.58992976
41	0x3e610078	0.21972835
42	0x3e4aaeab	0.19793193
43	0xbfed9011	-1.855959
44	0x3f261c79	0.64887196
45	0xbe9811ad	-0.29700986
46	0x3fe23a72	1.7674086
47	0xbf72fd69	-0.94917923
48	0x4018a709	2.385195
49	0x3fbd827d	1.4805447
50	0x3ee174cf	0.4403443
51	0x3d8b84cc	0.06812438
52	0xbfe122af	-1.758871
53	0xbf9a5175	-1.2056109
54	0xbeb87250	-0.36024714
55	0x3e9fa032	0.31176907
56	0x3f52fc2a	0.8241602
57	0xbeafaeb4	-0.34312975
58	0x3fb24435	1.3927065
59	0xbf0a8684	-0.54111505
60	0x3f8be460	1.092907
61	0x3f911ece	1.1337526
62	0xbfa717bf	-1.3054122
63	0xbf75acc0	-0.9596672

input_fc.weight f4 [64, 6]
0	0xba821ca4	-0.0009926748
1	0x3ddb340c	0.107032865
2	0x3da3302e	0.07968174
3	0x3e9f28bb	0.31085762
4	0x3eb78c00	0.35849
5	0x3e157d38	0.14598548
6	0xbd59b7a0	-0.053153634
7	0xbe175664	-0.14779049
8	0x3ee46edd	0.44615832
9	0x3ed05314	0.40688384
10	0xbe28f25c	-0.16498703
11	0x3e442660	0.19155264
12	0xbd5ca195	-0.053865034
13	0xbe5f0a59	-0.21781291
14	0xbe55ade0	-0.2086711
15	0xbe0ebc8d	-0.13939114
16	0x3e0db4d3	0.1383851
17	0xbebe35e4	-0.3715049
18	0x3d5a493d	0.0532925
19	0x3e51c4b4	0.20485193
20	0x3d999552	0.07499184
21	0x3e8ed140	0.2789402
22	0xbf06a61c	-0.5259721
23	0xbd3ab0df	-0.045578834
24	0x3dcb6816	0.09931962
25	0x3d58a0cf	0.052887734
26	0x3ccda7a6	0.025104355
27	0xbec787d1	-0.38970807
28	0x3df56b6e	0.11983381
29	0x3e328ac7	0.17435752
30	0x3eb4c9aa	0.35310107
31	0x3e563edc	0.20922416
32	0x3e81c3b6	0.25344628
33	0x3e9dbe96	0.30809468
34	0x3e928891	0.28619817
35	0xbcd79611	-0.026316674
36	0xbe298a95	-0.16556771
37	0xbe50a85d	-0.20376725
38	0xbe83c2b2	-0.25734478
39	0xbe6cdd37	-0.23131262
40	0x3eafa5b7	0.34306118
41	0xbe958143	-0.2920018
42	0xbe9c157b	-0.30485138
43	0xbe41f41c	-0.18940777
44	0x3ed553f6	0.4166562
45	0x3e0c09ab	0.13675563
46	0x3e9249f1	0.28572038
47	0xbd5baf44	-0.053633943
48	0xbea581c7	-0.32325575
49	0xbe1900b3	-0.14941673
50	0xbb625bf9	-0.0034539683
51	0x3e0b7ae8	0.13621104
52	0x3dbf26c9	0.093335696
53	0x3e74aeb5	0.2389477
54	0xbbc962ec	-0.0061458256
55	0xbe3ccd10	-0.184376
56	0xbefd5e44	-0.4948598
57	0xbe922257	-0.28541824
58	0xbece1e74	-0.4025761
59	0x3ebb3ef1	0.36571458
60	0xbdb104ea	-0.086435154
61	0xbeccc575	-0.39994398
62	0xbcc5bb63	-0.024137205
63	0xbe6fd3ec	-0.23420686
64	0x3d521de6	0.051298045
65	0xbdd0c447	-0.10193687
66	0x3e0b9403	0.1363068
67	0xbe8ef40e	-0.27920574
68	0x3e2fce3b	0.17168514
69	0x3ec06bf2	0.37582356
70	0xbeb2085c	-0.34772003
71	0xbe230374	-0.15919286
72	0xbeb54eb7	-0.35411617
73	0xbe1b36c5	-0.15157612
74	0x3d991f40	0.074766636
75	0xbea50c44	-0.3223592
76	0x3e8c5468	0.27408147
77	0xbe13946d	-0.14412089
78	0x3df44896	0.11927907
79	0xbc2fec0d	-0.010737431
80	0xbe8100da	-0.25195962
81	0x3c8a2e4f	0.016867785
82	0x3eb88669	0.36040047
83	0xbe8f195b	-0.27949032
84	0xbebaeba7	-0.36507913
85	0x3ea76edb	0.32701764
86	0xbef3ecdd	-0.4764165
87	0x3cba7cff	0.02276468
88	0x3df24b6c	0.11830792
89	0x3c3cae22	0.011516126
90	0x39ca34d5	0.00038567805
91	0xbe3ac581	-0.18239404
92	0xbd7d0087	-0.06176808
93	0xbe279881	-0.1636677
94	0xbe41cc5c	-0.18925613
95	0x3ec55b87	0.38546392
96	0xbe253333	-0.16132812
97	0xbda0d744	-0.07853559
98	0xbee60d82	-0.4493218
99	0xbe557e5c	-0.20848984
100	0xbcf5f178	-0.030022368
101	0x3e96fc0e	0.29489177
102	0xbe2acfe2	-0.16680863
103	0x3e4f804e	0.20263788
104	0xbdd15fe2	-0.10223366
105	0xbe171d3d	-0.14757247
106	0x3e79337f	0.2433605
107	0xbea2b49a	-0.31778413
108	0xbee63ef1	-0.44969895
109	0xbea31b40	-0.31856728
110	0x3d7a53b2	0.061114974
111	0xbe130811	-0.14358546
112	0xbe216e5e	-0.15764758
113	0x3cd79914	0.02631811
114	0xbe9c71c0	-0.30555534
115	0xbea02edf	-0.3128576
116	0xbf1d1f40	-0.6137581
117	0x3dec80be	0.11547993
118	0x3de40223	0.1113322
119	0x3e919098	0.2843063
120	0xbdef112f	-0.116731994
121	0x3e83c05c	0.25732696
122	0x3de56824	0.11201504
123	0xbe3579e6	-0.17722282
124	0x3e88518b	0.26624712
125	0xbeb64cf0	-0.35605574
126	0x3e2c7f44	0.16845423
127	0x3d520bcc	0.05128078
128	0xbeaa42d2	-0.33254105
129	0x3e23943e	0.15974519
130	0xbe2fd7b5	-0.1717213
131	0xbe7325f4	-0.23744947
132	0x3ec4a31e	0.384057
133	0xbeca068a	-0.39458114
134	0xbd3c2deb	-0.04594223
135	0x3eaeb615	0.34123293
136	0x3ebbc948	0.36677003
137	0xbed1c4a3	-0.40970334
138	0xbeab29b5	-0.33430257
139	0xbe7f06e7	-0.24904977
140	0x3ecc21bc	0.39869487
141	0xbe2572c7	-0.16157065
142	0xbd5d1f14	-0.053984717
143	0x3e598557	0.21242271
144	0xbe088035	-0.13330157
145	0xbca3b85c	-0.01998537
146	0x3e1e303a	0.15448084
147	0x3dfb65cd	0.12275276
148	0x3ec28ce8	0.37998128
149	0x3e8ed678	0.27898002
150	0x3db7835a	0.089606
151	0x3d84eee6	0.06490879
152	0x3ed80611	0.42192128
153	0x3e940b6d	0.28914967
154	0x3e891ef6	0.26781434
155	0xbd0980ca	-0.03357009
156	0x3eb5732e	0.35439438
157	0xbe4afb7c	-0.19822496
158	0x3e462f8d	0.19354077
159	0xbeb5e8a4	-0.35529053
160	0xbeeeaf95	-0.46618333
161	0x3ea82612	0.32841545
162	0x3ec706be	0.3887233
163	0x3e833af4	0.25630915
164	0x3ef8251a	0.48465806
165	0xbec1600f	-0.377686
166	0x3ebdd5c7	0.37077162
167	0x3e23c712	0.15993908
168	0x3ebc17f1	0.36737016
169	0xbe23004e	-0.15918085
170	0xbdc7a8ee	-0.09749018
171	0x3ed2a27e	0.41139597
172	0xbeb50d78	-0.35361838
173	0xbec0e4be	-0.37674516
174	0xbebaf261	-0.36513045
175	0x3b967206	0.0045912294
176	0xbd83f6d8	-0.06443566
177	0xbed8011d	-0.4218835
178	0x3c4e3d40	0.012587845
179	0xbea96772	-0.33086735
180	0xbe3bcfc1	-0.1834097
181	0x3ea82a91	0.32844976
182	0xbedf8273	-0.43654212
183	0x3ecedc21	0.4040232
184	0x3e1a0d35	0.150441
185	0x3e938ea6	0.2881977
186	0x3ecebb9a	0.40377504
187	0xbe15a017	-0.1461185
188	0x3e4a99c6	0.19785222
189	0xbae6ce78	-0.001760914
190	0x3e657a72	0.2240999
191	0x3ea9c808	0.33160424
192	0xbe846945	-0.25861564
193	0x3e78c706	0.24294671
194	0xbecb9e54	-0.39769232
195	0x3e47d4ef	0.19514821
196	0x3ea1f756	0.31634015
197	0x3e93147b	0.28726563
198	0x3eab5be4	0.33468544
199	0x3d30b762	0.043143637
200	0xbe67bfd5	-0.22631772
201	0x3c48bf96	0.012252709
202	0x3e923fb4	0.28564227
203	0xbe88b07a	-0.2669714
204	0x3d0d791e	0.034539334
205	0x3eb7e4cf	0.35916755
206	0x3ed02eb3	0.4066063
207	0x3ea3309e	0.3187303
208	0x3e9d442a	0.30716068
209	0x3e79d022	0.24395803
210	0xbe39cee1	-0.18145324
211	0xbd931b5f	-0.07182955
212	0x3ed0cba1	0.40780357
213	0x3ead2c09	0.3382266
214	0x3c5b6e99	0.013393068
215	0xbea1daf1	-0.31612352
216	0x3e58c5ab	0.21169154
217	0x3e9eda41	0.3102589
218	0xbe108559	-0.14113368
219	0xbe939a81	-0.28828815
220	0x3e4a97a3	0.19784407
221	0x3e071366	0.13190994
222	0x3ecfdcca	0.40598136
223	0xbe8b588d	-0.27215996
224	0x3ddca737	0.10774081
225	0x3e4988fb	0.1968116
226	0x3ed89e62	0.42308336
227	0xbecf0a06	-0.40437335
228	0xbdbbd098	-0.091706455
229	0x3e47088f	0.19436859
230	0xbb78b4c5	-0.0037949544
231	0xbe549131	-0.20758511
232	0x3e213c0a	0.1574556
233	0x3d25c844	0.04047419
234	0xbe5482c4	-0.20753008
235	0xbdc6298d	-0.09675894
236	0x3e6703b7	0.22560011
237	0xbe9da15b	-0.30787167
238	0xbd53f162	-0.051743872
239	0x3e02c3e6	0.12770042
240	0xbe7cbf38	-0.24682319
241	0x3ebf6646	0.37382716
242	0xbea5989a	-0.32342988
243	0x3e53f7f3	0.20700054
244	0x3ecc5fae	0.39916748
245	0x3e6750cd	0.22589417
246	0xbda46b4e	-0.08028279
247	0x3e909705	0.2824022
248	0x3e049a23	0.12949423
249	0xbec63cf2	-0.38718373
250	0x3e0879fe	0.13327786
251	0xbd0bd43d	-0.034137953
252	0xbe9328e1	-0.28742126
253	0xbe01e579	-0.12685193
254	0x3d417b00	0.047236443
255	0xbddf7cbe	-0.109124646

input_fc.bias f4 [64]
0	0xbec280b5	-0.3798882
1	0xbdb80a1b	-0.089863025
2	0xbe9de9bb	-0.30842385
3	0xbea2c886	-0.31793612
4	0xbea2e7b2	-0.31817394
5	0xbeab0191	-0.33399633
6	0x3dc242cf	0.09485399
7	0xbdfcc12e	-0.123415336
8	0xbebbe57b	-0.36698517
9	0x3e969297	0.29408714
10	0x3d0741c2	0.033021696
11	0xbe7f8a3d	-0.24955077
12	0xbd83982f	-0.06425511
13	0xbe8f88c1	-0.28034022
14	0x3d8c765f	0.06858515
15	0x3ecd980d	0.40155068
16	0x3df5f0aa	0.12008794
17	0x3de77b55	0.113028206
18	0xbe458380	-0.19288445
19	0x3e6778d9	0.22604693
20	0xbd23784d	-0.03990965
21	0x3e590c90	0.21196198
22	0x3dc9ffcf	0.09863245
23	0x3eb9c04b	0.3627952
24	0x3eaeeefc	0.34166706
25	0x3eae21c6	0.34010142
26	0xbea6d98c	-0.3258785
27	0x3e8fb3a4	0.28066742
28	0x3cc43826	0.023952555
29	0xbd836d6b	-0.06417354
30	0x3e9cd55c	0.3063153
31	0xbec740e2	-0.3891669
32	0xbe88d9c7	-0.2672865
33	0x3e458fd7	0.19293152
34	0xbde80b9d	-0.1133034
35	0xbd409802	-0.047019966
36	0xbed337ce	-0.41253513
37	0x3e8610dd	0.2618474
38	0x3eae29c5	0.34016243
39	0x3d5ba1c6	0.053621076
40	0x3c2eb74a	0.010663817
41	0xbe4d386f	-0.20041059
42	0x3e0bce7d	0.13652988
43	0x3ea34409	0.31887844
44	0x3eabf662	0.33586413
45	0xbd73198f	-0.059350546
46	0xbe395db7	-0.18102156
47	0xbf06cf51	-0.5266009
48	0x3e1d1540	0.15340137
49	0xbc544778	-0.012956493
50	0x3c9dbc07	0.019254697
51	0x3e4bb211	0.19892146
52	0x3e2857b3	0.16439705
53	0xbe99e409	-0.3005679
54	0x3dc48986	0.09596543
55	0x3d9c5d1b	0.07634946
56	0xbe94ccdd	-0.29062548
57	0xbca66a78	-0.02031444
58	0xbe528729	-0.20559372
59	0xbece616e	-0.40308708
60	0x3e453e4e	0.19262049
61	0x3bb7ce31	0.0056092967
62	0xbe30619a	-0.17224732
63	0xbe90b67e	-0.2826423

rnn.weight_ih_l0 f4 [64, 64]
0	0x3e46c8de	0.19412562
1	0x3e0220e2	0.12707856
2	0xbe9ea3b3	-0.30984268
3	0xbe3358ee	-0.17514393
4	0x3e2dafce	0.16961595
5	0xbe3c4f0e	-0.18389532
6	0xbd6aec58	-0.0573543
7	0xbd8e5e9b	-0.06951638
8	0x3e56cc32	0.20976332
9	0xbdf065c4	-0.1173816
10	0xbe2b34c1	-0.16719343
11	0x3ea53607	0.32267782
12	0x3e241d39	0.16026773
13	0x3dfa5d59	0.12224836
14	0xbdb99c90	-0.09063065
15	0x3e7dba4b	0.24778096
16	0xbd29abab	-0.04142348
17	0x3e225192	0.15851429
18	0xbdec813a	-0.115480855
19	0x3d002d6f	0.03129333
20	0x3df7bd0b	0.12096604
21	0x3e4c2dd5	0.19939359
22	0x3ca97cc1	0.02068937
23	0xbd0f90fa	-0.03505037
24	0x3e3546cb	0.17702787
25	0xbd136c38	-0.035991877
26	0xbd9c28f7	-0.07625001
27	0x3d69be2a	0.05706612
28	0xbd8eebbd	-0.06978557
29	0x3e03c9ad	0.12869902
30	0x3d391add	0.045191634
31	0xbdfbaaa6	-0.12288408
32	0xbd7bd43a	-0.061481692
33	0x3de2648e	0.110543355
34	0x3f0cf2f2	0.55058205
35	0xbcd8a703	-0.026446825
36	0xbd80e686	-0.06293969
37	0x3d3db60c	0.04631619
38	0x3e0d391b	0.13791315
39	0x3ea6649f	0.32498643
40	0x3d9ed8af	0.07756173
41	0x3eba6baf	0.3641028
42	0x3e9b60e0	0.30347347
43	0xbd912e6b	-0.07088932
44	0xbe374b0b	-0.1789972
45	0xbea356bc	-0.3190211
46	0xbbfb2fcf	-0.0076656113
47	0x3d28c7c7	0.041206148
48	0x3ea1018d	0.31446496
49	0xbe897cf7	-0.26853153
50	0x3d1cb76b	0.03826086
51	0x3dd7f8f4	0.10545531
52	0x3df8f8a8	0.121568024
53	0x3e3bd166	0.18341598
54	0x3d6521e6	0.05594053
55	0xbde7a958	-0.11311597
56	0xbe5ce141	-0.21570303
57	0x3df74d6d	0.12075315
58	0x3c6ac14b	0.014328311
59	0x3e119874	0.14218313
60	0x3d88907f	0.066681854
61	0xbe82b493	-0.25528392
62	0x3d393cee	0.045224123
63	0xbee6d5de	-0.45085043
64	0xbde20117	-0.11035364
65	0x3d1b1180	0.037858486
66	0xbe93edbc	-0.28892314
67	0xbbd03c8d	-0.0063548745
68	0x3eb4e428	0.3533032
69	0x3d56189a	0.052269556
70	0xbe735e71	-0.23766495
71	0x3e5afa28	0.2138449
72	0xbe09a226	-0.13440761
73	0xbd0ad8b9	-0.03389809
74	0xbe16e39d	-0.14735265
75	0xbbc89553	-0.0061213165
76	0x3ea71150	0.32630396
77	0x3d961e66	0.07330017
78	0x3e03c2f1	0.12867333
79	0x3e33c876	0.17556939
80	0xbdd8a6d5	-0.10578696
81	0xbef8b15d	-0.48572817
82	0x3e467d9f	0.19383858
83	0xbd4f18ac	-0.05056064
84	0x3e6b6e80	0.22991371
85	0x3e6e514b	0.23273198
86	0xbea9d3b1	-0.3316932
87	0xbbb34502	-0.005470873
88	0x3e2bd6d5	0.1678117
89	0xbda272d6	-0.079320595
90	0xbd13d080	-0.036087513
91	0x3e6a3263	0.22870784
92	0x3c455be2	0.012045832
93	0xbdf49dc7	-0.11944156
94	0xbde56645	-0.11201147
95	0x3e1266dc	0.1429705
96	0x3e0d9f34	0.13830262
97	0xbe45b294	-0.19306403
98	0xbd2bec29	-0.041973267
99	0xbc119232	-0.008884953
100	0x3db2fb65	0.08739356
101	0xbe695aba	-0.22788516
102	0x3e81aaf9	0.25325754
103	0x3d19ed60	0.037579894
104	0xbec465fd	-0.3835906
105	0x3decf82d	0.11570773
106	0x3daa7b24	0.083242685
107	0xbd9c6775	-0.0763692
108	0x3ec70a97	0.38875267
109	0xbbbb591d	-0.0057174102
110	0x3dbdff05	0.09277157
111	0xbdca0d0f	-0.09865772
112	0xbd3ce559	-0.04611716
113	0x3dd26b6d	0.10274396
114	0xbe056e03	-0.13030247
115	0xbd8c6a0e	-0.06856166
116	0xbd95ed6e	-0.07320677
117	0x3eab6110	0.3347249
118	0x3d289ae1	0.04116333
119	0xbdd86421	-0.10565973
120	0x3e45cac7	0.19315635
121	0x3ed988bc	0.42487133
122	0xbe7d50ed	-0.24737902
123	0x3e8f4827	0.27984735
124	0x3e2985b5	0.16554911
125	0xbd0bb6cd	-0.03410988
126	0xbc4bc455	-0.012436946
127	0x3d4b9e40	0.049711466
128	0x3c8b065a	0.016970802
129	0xbe364ced	-0.17802782
130	0x3e53e34a	0.20692173
131	0xbc46309e	-0.012096552
132	0xbcd35372	-0.025796626
133	0xbe197215	-0.14984925
134	0x3e807d14	0.25095427
135	0xbe4b5ee8	-0.19860423
136	0x3e1ce26f	0.15320753
137	0xbe52b34f	-0.20576213
138	0x3da9bd67	0.08288079
139	0x3e1a198b	0.15048806
140	0xbd1d4f41	-0.03840566
141	0x3e895510	0.2682271
142	0xbea2cf09	-0.3179858
143	0x3d90766c	0.07053837
144	0xbe5e1dee	-0.21691105
145	0xbe930536	-0.28714913
146	0xbd9b3359	-0.07578153
147	0xbeb73990	-0.35786104
148	0xbe09df5d	-0.13464113
149	0x3c429e36	0.011878541
150	0xbd46c3c7	-0.04852655
151	0xbdd96799	-0.10615463
152	0x3c8f44e9	0.017488914
153	0x3dc90dcb	0.09817084
154	0x3dde919a	0.10867615
155	0x3da2caf6	0.07948868
156	0x3e707981	0.2348385
157	0xbe5c300c	-0.21502703
158	0xbe61f351	-0.22065474
159	0x3ea6175a	0.3243969
160	0xbe2848cc	-0.1643402
161	0x3ec9b09a	0.3939255
162	0xbd08b4c5	-0.03337552
163	0xbe04d27f	-0.12970923
164	0x3e0bcd64	0.13652569
165	0x3e3de8ad	0.1854579
166	0x3ce7ecfc	0.028311245
167	0x3e0e4352	0.13892868
168	0x3d9a4474	0.07532588
169	0x3e352bb8	0.17692459
170	0xbd3fd0b0	-0.04682988
171	0x3e672293	0.22571783
172	0xbe625938	-0.22104347
173	0xbe029062	-0.1275039
174	0xbe4612bc	-0.19343084
175	0xbe11de8a	-0.14245048
176	0x3d4e5dfb	0.050382596
177	0x3dbc11b2	0.091830626
178	0x3e76d301	0.24103929
179	0xbd53375b	-0.051566463
180	0x3d5d8d56	0.054089867
181	0x3daa1ff8	0.08306879
182	0xbc8dc811	-0.017307313
183	0xbee69731	-0.45037225
184	0xbe9f5952	-0.31122833
185	0x3e3e4a98	0.18583143
186	0xbe7dcd95	-0.24785455
187	0xbcf31866	-0.02967472
188	0x3e4bfad9	0.1991991
189	0x3e03f225	0.1288534
190	0xbe39e9e6	-0.18155631
191	0x3dddac4e	0.1082388
192	0x3ddc2735	0.10749666
193	0x3e8ea595	0.27860704
194	0xbdc524ad	-0.09626136
195	0x3d0a2aba	0.033732153
196	0xbd741db2	-0.059598632
197	0x3e6b091b	0.22952692
198	0xbf054d6b	-0.52071255
199	0x3e4857fd	0.19564815
200	0xbd8983e2	-0.06714608
201	0x3b2d8a8f	0.0026480292
202	0xbdd2e1f3	-0.10297003
203	0x3ea957c5	0.33074775
204	0xbe356009	-0.17712416
205	0xbe939e5d	-0.2883176
206	0xbe3f5056	-0.1868299
207	0xbd0662b6	-0.03280898
208	0xbca561d7	-0.020188255
209	0x3be6ff22	0.007049457
210	0x3d6ab0c7	0.057297494
211	0x3e258011	0.16162135
212	0xbf0e1537	-0.5550112
213	0x3ebf63b9	0.3738077
214	0x3d72949f	0.059223767
215	0x3e88bb59	0.26705435
216	0xbe4ed7ed	-0.20199557
217	0xbe2d4791	-0.16921832
218	0x3d960ac9	0.07326276
219	0xbe815985	-0.2526361
220	0x3d9de38c	0.07709417
221	0xbd675e65	-0.056486506
222	0x3e24e9c8	0.16104805
223	0xbdc4a6fa	-0.09602161
224	0x3d6dc060	0.05804479
225	0x3d33aa63	0.043863665
226	0xbe1d3407	-0.15351878
227	0x3c47d39f	0.0121964505
228	0x3e8edd5c	0.2790326
229	0xbe907559	-0.2821453
230	0xbe18e692	-0.14931706
231	0x3d792bbf	0.060832735
232	0xbd602918	-0.05472669
233	0xbd2da3a6	-0.042392395
234	0xbb1ba905	-0.0023751867
235	0x3d5e2ee0	0.054243922
236	0xbd9ce073	-0.07659998
237	0x3f23f572	0.64046395
238	0x3e9ef108	0.31043267
239	0xbd103719	-0.035208795
240	0x3dcc76e3	0.09983613
241	0x3e486230	0.19568706
242	0xbb2690a1	-0.0025415795
243	0xbd353396	-0.04423865
244	0x3e81fd9d	0.25388804
245	0x3dd1f00b	0.10250863
246	0x3cb7694e	0.02238908
247	0xbe83a2f8	-0.25710273
248	0xbdf70d77	-0.12063115
249	0x3dd94c62	0.10610272
250	0xbe673594	-0.22579032
251	0x3b6e5f5b	0.0036372754
252	0x3d934a00	0.07191849
253	0x3d46707c	0.048447117
254	0x3e9ad3e0	0.30239773
255	0xbedbb952	-0.42914826

rnn.weight_hh_l0 f4 [64, 64]
0	0xbd109d3a	-0.035306193
1	0x3ea31e2d	0.3185896
2	0xbe05cd30	-0.13066554
3	0xbe933239	-0.28749254
4	0x3e42b7a9	0.19015373
5	0xbd632a83	-0.055460464
6	0x3ea7ad45	0.32749382
7	0x3d3b81e1	0.04577816
8	0xbe5e1c5e	-0.21690509
9	0xba4df33d	-0.0007856375
10	0xbc82ee07	-0.01598264
11	0xbe92aa79	-0.28645685
12	0x3bbbd16d	0.0057317526
13	0xbe658826	-0.22415218
14	0x3dbb1bdb	0.091361724
15	0x3e5984d0	0.2124207
16	0xbe7a4fc3	-0.24444489
17	0xbe1f0615	-0.15529664
18	0xbc2fa14a	-0.010719607
19	0xbdf3906e	-0.11892782
20	0xbd6a69d2	-0.057229824
21	0x3d63acda	0.055584766
22	0xbe281ccf	-0.1641724
23	0xbda43579	-0.080180116
24	0x3e19087f	0.14944647
25	0xbeb92495	-0.36160722
26	0x3e08c005	0.133545
27	0xbdc93da2	-0.09826209
28	0x3d698d0f	0.05701929
29	0xbf083d3a	-0.53218424
30	0x3c4be17f	0.012443899
31	0xbe5bc12d	-0.2146041
32	0xbd732eda	-0.059370853
33	0x3e046410	0.12928796
34	0x3e18cc90	0.14921784
35	0xbe5dde7e	-0.21666905
36	0x3d19c8ca	0.037545003
37	0x3bff0c2d	0.007783434
38	0x3e06d0e4	0.13165623
39	0xbe15a36a	-0.14613119
40	0x3e6eba33	0.23313217
41	0x3e7c4eda	0.24639454
42	0x3e9c66da	0.3054722
43	0x3e3d358f	0.18477462
44	0x3d0e2193	0.034699988
45	0xbe3348ae	-0.17508194
46	0x3bc9b66e	0.0061557805
47	0xbecf74b8	-0.40518737
48	0xbd7fbb6f	-0.06243461
49	0xbd80d850	-0.06291258
50	0x3ee9f139	0.4569185
51	0x3dc5af00	0.09652519
52	0xbe392254	-0.18079501
53	0xbda13699	-0.07871742
54	0xbe744639	-0.23854913
55	0xbe7dd499	-0.24788131
56	0x3e3aff85	0.18261535
57	0xbc7bf9f8	-0.015379421
58	0xbecbc0aa	-0.3979543
59	0xbd0735a9	-0.03301016
60	0xbe400a03	-0.18753819
61	0xbdca2b87	-0.098715834
62	0xbc5b071a	-0.013368392
63	0x3de54547	0.11194854
64	0xbe8dc505	-0.27689376
65	0xbda40dcb	-0.08010443
66	0xbeaee88a	-0.34161788
67	0xbc210855	-0.009828647
68	0xbea3caff	-0.3199081
69	0xbc7a32c6	-0.015270894
70	0xbd8cfe42	-0.06884433
71	0x3df9bac7	0.12193828
72	0xbe4e2392	-0.20130756
73	0xbe402887	-0.1876546
74	0xbcd05e03	-0.025435453
75	0xbe53b5eb	-0.20674865
76	0x3e3846cc	0.17995757
77	0x3ce2d0e7	0.027687503
78	0x3e398b02	0.18119434
79	0xbe11d08f	-0.14239715
80	0xbd71c9cb	-0.059030335
81	0x3c4b65bf	0.012414395
82	0x3e240006	0.16015634
83	0xbd6fe32e	-0.058566265
84	0xbe1ad023	-0.1511846
85	0xbe18e35f	-0.14930485
86	0x3ed3f81c	0.4140023
87	0xbdc642fa	-0.096807435
88	0xbe4b07fe	-0.19827268
89	0xbe67fedf	-0.2265582
90	0xbd465d74	-0.048428968
91	0x3e5c8fdd	0.21539254
92	0xbe4245b3	-0.189719
93	0x3dc5f801	0.096664436
94	0x3e727fbd	0.23681541
95	0xbd5d3454	-0.054004982
96	0x3ebff9f6	0.37495393
97	0x3ecdfdb7	0.40232632
98	0xbd825fe8	-0.06365949
99	0x3c92f574	0.017939307
100	0x3d945e17	0.07244509
101	0x3e87b570	0.26505613
102	0xbd490b44	-0.04908301
103	0xbe641245	-0.22272594
104	0x3c781c61	0.015143485
105	0x3d4c7cc5	0.049923677
106	0x3bc395bf	0.005968779
107	0xbd9a59e0	-0.075366735
108	0xbd3afc81	-0.045650963
109	0x3e3d2592	0.18471363
110	0xbec2ec1e	-0.38070768
111	0xbe02cb8c	-0.1277296
112	0x3e45c1ac	0.19312161
113	0x3bb9752d	0.0056597204
114	0xbcb5620a	-0.022141475
115	0x3e63b0f6	0.22235474
116	0xbe8b2d7f	-0.27183148
117	0xbdd3d651	-0.10343612
118	0xbdb4b5da	-0.08823748
119	0xbdaad2ed	-0.08341012
120	0xbd5095e1	-0.050924186
121	0xbe77f1ef	-0.24213384
122	0x3ec2437a	0.37942106
123	0x3e0fad52	0.1403096
124	0xbd8c558a	-0.06852253
125	0xbe82f0a9	-0.25574234
126	0xbcb7672a	-0.02238806
127	0xbd410a8d	-0.047129203
128	0x3ea0b22e	0.3138594
129	0x3e5064d0	0.20350957
130	0xbd38fc64	-0.045162573
131	0x3cf6060c	0.03003218
132	0x3dcc7bcc	0.0998455
133	0x3d78a5e5	0.060705084
134	0x3d165eb0	0.036711395
135	0xbe545250	-0.20734525
136	0xbc8a3920	-0.016872942
137	0xbe3eb7de	-0.18624827
138	0xbe31a5bd	-0.1734838
139	0x3da309ad	0.0796083
140	0x3cbb6bee	0.022878613
141	0xbcd3adfd	-0.0258398
142	0xbe94bd4e	-0.29050678
143	0x3e2aab22	0.16666844
144	0xbe4fe5f5	-0.20302565
145	0xbd1c5306	-0.038165115
146	0xbdc25737	-0.09489291
147	0xbe3bb48a	-0.18330589
148	0x3b6077ec	0.0034251167
149	0xbd367ad7	-0.044550743
150	0xbb222cdf	-0.0024745984
151	0xb9be367e	-0.00036280224
152	0x3dc92169	0.098208256
153	0x3e13bb04	0.1442681
154	0x3e58e253	0.21180086
155	0xbe95aaf9	-0.29232004
156	0xbd023b40	-0.031794786
157	0xbe1e8835	-0.15481646
158	0x3c939d05	0.018019209
159	0xbec17f78	-0.37792563
160	0x3d3f9b36	0.04677888
161	0xbe3ca1f2	-0.18421152
162	0x3d899b18	0.06719035
163	0xbea2c784	-0.31792843
164	0xbf2f2a95	-0.6842435
165	0xbdfa1827	-0.12211638
166	0xbddc2a74	-0.10750285
167	0xbe3b5951	-0.1829579
168	0xbe81594e	-0.25263447
169	0xbe089bc2	-0.13340667
170	0xbd219dbe	-0.039457075
171	0x3d4cc801	0.049995426
172	0xbca5f58a	-0.020258684
173	0x3e8d14f1	0.2755504
174	0x3dfe105c	0.12405464
175	0x3d121413	0.035663676
176	0xbe30f1c8	-0.17279732
177	0xbd3699ae	-0.044580154
178	0xbe83f339	-0.25771502
179	0x3c187168	0.009304382
180	0xbe722479	-0.23646726
181	0xbd2df773	-0.042472314
182	0x3dec23b8	0.1153025
183	0x3ecfc7a8	0.40582013
184	0xbe163d97	-0.14671932
185	0xbd232f58	-0.039840072
186	0x3e35f668	0.17769778
187	0x3ea00f6f	0.31261775
188	0x3ede52b8	0.43422484
189	0xbe9a2772	-0.3010822
190	0xbe9ca111	-0.30591634
191	0x3da4cbc0	0.08046675
192	0xbe6c2a0c	-0.23062915
193	0x3cbe9a5a	0.02326696
194	0xbe624e99	-0.22100295
195	0x3dc8643f	0.097847454
196	0x3d5a5e11	0.053312365
197	0x3db65bcc	0.089042276
198	0xbedc2b89	-0.43001965
199	0x3e6d0854	0.23147708
200	0x3ec103ed	0.37698308
201	0xbd5258f6	-0.05135437
202	0x3d8ff72e	0.07029568
203	0x3e60ffa2	0.21972516
204	0x3e38b47f	0.18037604
205	0xbc34c283	-0.011032703
206	0x3e2e65d5	0.17031033
207	0xbdbd18c9	-0.09233243
208	0xbcf1c8ae	-0.029514637
209	0x3e09d501	0.13460161
210	0x3cf9e022	0.030502383
211	0xbd60f67d	-0.05492257
212	0x3db1a8f3	0.08674803
213	0x3c813e0b	0.015776655
214	0xbe06eba8	-0.13175833
215	0xbda59fb8	-0.080871046
216	0xbad57927	-0.0016286717
217	0xbd8126b4	-0.0630621
218	0x3c15bc5f	0.009139149
219	0x3e136118	0.14392507
220	0xbe4b1af3	-0.19834499
221	0xbcc74c1a	-0.02432828
222	0xbdf34b8d	-0.118796445
223	0xbe86c18e	-0.26319546
224	0xbe6b71a6	-0.22992572
225	0x3d5ca54e	0.053868584
226	0xbe158cd1	-0.14604498
227	0x3d9e598f	0.07731926
228	0xbe12b934	-0.14328462
229	0x3d61fb71	0.055171434
230	0x3ea984e8	0.33109212
231	0x3d172f7a	0.03691051
232	0x3beb9cd6	0.007190327
233	0x3debeb0d	0.11519442
234	0xbe6ccfe4	-0.23126179
235	0xbd9c6135	-0.07635728
236	0xbeb21e5a	-0.3478878
237	0xbe456085	-0.192751
238	0xbdd2670d	-0.102735616
239	0x3e34ccbb	0.17656223
240	0xbe5499b4	-0.20761758
241	0x3d6463d3	0.055759262
242	0x3ec1c5bf	0.3784618
243	0x3ddc87af	0.10768067
244	0xbdefe125	-0.11712865
245	0xbd9125c7	-0.070872836
246	0xbe507883	-0.20358472
247	0xbdfa5b01	-0.12224389
248	0xbe2957e6	-0.16537437
249	0x3d84b569	0.06479914
250	0xbd0721ad	-0.0329911
251	0xbe937127	-0.28797266
252	0xbe0d44b6	-0.13795742
253	0xbe65aa4a	-0.22428241
254	0xbeb2109a	-0.3477829
255	0xbd8664da	-0.06562205

rnn.bias_ih_l0 f4 [64]
0	0x3d0dad15	0.034588892
1	0xbc00d79d	-0.007863906
2	0x3d232c53	0.039837193
3	0x3c11be2c	0.008895438
4	0x3ce3e24d	0.02781787
5	0xbcbc8778	-0.023013815
6	0xbcd689d2	-0.026188765
7	0x3c3819fc	0.011236664
8	0xbd212de5	-0.03935041
9	0xbd1b8a63	-0.037973773
10	0xbd5cb49a	-0.053883173
11	0xbca88abd	-0.020573968
12	0x3d02a365	0.031894106
13	0xbc810928	-0.015751436
14	0x3d113a8e	0.035456233
15	0x3ca84425	0.020540306
16	0x3ccbc743	0.024875289
17	0x3bbf286c	0.005833676
18	0x3d2f7347	0.042834546
19	0x3c7be459	0.015374267
20	0xbc9c2add	-0.019063408
21	0x3c651ea2	0.013984354
22	0x3d5308d4	0.05152209
23	0x3dbef41b	0.09323903
24	0x3c959c65	0.018263051
25	0x3d026d9f	0.031842824
26	0xbd2aeba4	-0.04172863
27	0x3d0b22ec	0.03396885
28	0x3bc98a83	0.006150545
29	0x3d77977d	0.060447205
30	0xbd9766dd	-0.073926665
31	0xbbc83915	-0.0061103203
32	0xbd52439f	-0.05133402
33	0xbcd9b04d	-0.026573325
34	0x3ba9c34b	0.0051807514
35	0x3d088ed0	0.03333932
36	0x3c7edd2d	0.015555662
37	0xbbced15e	-0.0063115796
38	0xbc92c2e2	-0.017915193
39	0x3d474031	0.048645202
40	0x3d2fbf4c	0.042907044
41	0xbbd20d4c	-0.0064102765
42	0xbd2f6f0a	-0.042830504
43	0xbc628a08	-0.0138268545
44	0xbc80d5d0	-0.015726954
45	0x3d1166e2	0.035498507
46	0x3ba5743f	0.005049258
47	0x3cf27aed	0.029599631
48	0x3d196784	0.037452236
49	0x3bb2bd42	0.00545469
50	0xbcf1af1b	-0.029502442
51	0xbcfa0f14	-0.030524768
52	0xbceca1a5	-0.028885672
53	0xbd7dbe47	-0.06194904
54	0x3d4c2aa7	0.049845364
55	0x3d8eb161	0.06967426
56	0xbc929ba4	-0.01789648
57	0x3c717760	0.014737934
58	0x3ce185ce	0.027529623
59	0xbc47c77d	-0.012193558
60	0x3c5cccee	0.013476593
61	0xbc67ad96	-0.014140507
62	0x3ce08ac4	0.027409919
63	0xba7fc5eb	-0.000975697

rnn.bias_hh_l0 f4 [64]
0	0x3d0dad18	0.034588903
1	0xbc00d796	-0.0078639
2	0x3d232c53	0.039837193
3	0x3c11be36	0.0088954475
4	0x3ce3e250	0.027817875
5	0xbcbc8780	-0.02301383
6	0xbcd689d5	-0.02618877
7	0x3c381a02	0.0112366695
8	0xbd212de8	-0.03935042
9	0xbd1b8a61	-0.037973765
10	0xbd5cb4a0	-0.053883195
11	0xbca88ac1	-0.020573976
12	0x3d02a365	0.031894106
13	0xbc810923	-0.015751427
14	0x3d113a8f	0.035456236
15	0x3ca8442b	0.020540318
16	0x3ccbc744	0.02487529
17	0x3bbf2831	0.0058336486
18	0x3d2f7349	0.042834554
19	0x3c7be471	0.015374289
20	0xbc9c2ae6	-0.019063424
21	0x3c651ea1	0.013984353
22	0x3d5308d7	0.051522102
23	0x3dbef417	0.093239
24	0x3c959c69	0.018263059
25	0x3d026da1	0.03184283
26	0xbd2aeba2	-0.041728623
27	0x3d0b22e9	0.03396884
28	0x3bc98a7d	0.0061505423
29	0x3d779779	0.06044719
30	0xbd9766de	-0.07392667
31	0xbbc8391c	-0.0061103236
32	0xbd5243a2	-0.05133403
33	0xbcd9b050	-0.02657333
34	0x3ba9c34c	0.005180752
35	0x3d088ed1	0.033339325
36	0x3c7edd32	0.015555667
37	0xbbced158	-0.006311577
38	0xbc92c2e5	-0.017915199
39	0x3d474031	0.048645202
40	0x3d2fbf4c	0.042907044
41	0xbbd20d3c	-0.006410269
42	0xbd2f6f0a	-0.042830504
43	0xbc628a04	-0.013826851
44	0xbc80d5cd	-0.015726948
45	0x3d1166e2	0.035498507
46	0x3ba57460	0.0050492734
47	0x3cf27ae9	0.029599624
48	0x3d196780	0.03745222
49	0x3bb2bd24	0.005454676
50	0xbcf1af1c	-0.029502444
51	0xbcfa0f08	-0.030524746
52	0xbceca1a1	-0.028885664
53	0xbd7dbe43	-0.061949026
54	0x3d4c2aa4	0.049845353
55	0x3d8eb164	0.06967428
56	0xbc929baa	-0.017896492
57	0x3c717751	0.01473792
58	0x3ce185c6	0.027529608
59	0xbc47c77c	-0.012193557
60	0x3c5ccce2	0.013476582
61	0xbc67ada6	-0.014140522
62	0x3ce08ac2	0.027409915
63	0xba7fc4c9	-0.00097568013

rnn.weight_ih_l1 f4 [64, 64]
0	0xbdcf52ee	-0.101232395
1	0xbe574bfd	-0.21025081
2	0xbd6bf745	-0.05760886
3	0xbdfcf2ee	-0.12351023
4	0xbe171be1	-0.14756729
5	0xbe286df3	-0.16448192
6	0xbdbced8e	-0.092249975
7	0x3c475bbb	0.012167866
8	0x3de49397	0.11160963
9	0xbe4e1869	-0.20126499
10	0xbdc511b9	-0.09622521
11	0xbe85bea7	-0.2612202
12	0xbe478c26	-0.19487056
13	0xbd84e999	-0.06489868
14	0xbc61c5f9	-0.0137801105
15	0xbe966b1d	-0.29378596
16	0xbe8d548c	-0.27603567
17	0xbb19381e	-0.0023379396
18	0x3e986ffe	0.29772943
19	0xbe0c4c96	-0.1370109
20	0xbc24224c	-0.010017943
21	0x3be6cdd6	0.0070435805
22	0xbeffac5c	-0.49936187
23	0x3e5e66c0	0.21718884
24	0x3d8de150	0.069277406
25	0x3e845760	0.25847912
26	0xbe02ad60	-0.1276145
27	0xbe68e67c	-0.22744173
28	0xbd1bc3ad	-0.038028408
29	0xbe9aceb0	-0.30235815
30	0x3e5ce961	0.21573402
31	0x3c12f28e	0.008968962
32	0x3e454393	0.19264059
33	0x3db6fac9	0.08934552
34	0x3dcb12bd	0.099156834
35	0xbe0b3f19	-0.13598289
36	0x3e750e28	0.23931181
37	0x3d5c68db	0.053810935
38	0xbe0d17f4	-0.13778669
39	0x3d956dd6	0.0729634
40	0xbbaeef9c	-0.0053386223
41	0xbe190f93	-0.14947347
42	0x3e987580	0.29777145
43	0xbd28fd9e	-0.041257493
44	0x3e601c67	0.21885835
45	0xbe90e6fe	-0.28301233
46	0x3c2c6c38	0.010523848
47	0x3e04b00d	0.12957783
48	0xbdb829f7	-0.08992379
49	0x3e9201a0	0.28516865
50	0xbd2d671c	-0.04233466
51	0xbd6b3310	-0.057421744
52	0xbec9fa6e	-0.39448875
53	0x3dffc967	0.12489586
54	0xbe226393	-0.15858297
55	0xbe66d402	-0.22541812
56	0xbe40a8d2	-0.188144
57	0xbdcb4354	-0.09924951
58	0xbe3ea534	-0.18617707
59	0x3e3f245f	0.18666218
60	0xbe1c76af	-0.15279649
61	0x3eb8a663	0.36064443
62	0x3e43cc40	0.19120884
63	0xbe85d07a	-0.26135617
64	0xbd9c86a6	-0.0764287
65	0x3e59b5e6	0.21260795
66	0xbe965f95	-0.29369798
67	0xbdd9c04e	-0.10632382
68	0xbd5b0c65	-0.053478617
69	0xbd5eafe4	-0.05436696
70	0xbebf414b	-0.37354502
71	0xbdc79089	-0.09744365
72	0xbda5a8aa	-0.08088811
73	0xbd36d03c	-0.04463218
74	0x3e149802	0.14511111
75	0xbd89d1ea	-0.06729491
76	0xbe62fba8	-0.22166312
77	0x3eaa5f97	0.33276054
78	0xbe988145	-0.29786125
79	0x3dd54ca1	0.104150064
80	0x3d9617aa	0.07328732
81	0xbbd301b9	-0.0064394143
82	0x3d3ad539	0.0456135
83	0x3e83a070	0.25708342
84	0xbeaedd5b	-0.34153256
85	0xbe110c32	-0.14164808
86	0xbe345f82	-0.17614558
87	0x3e0f258e	0.1397917
88	0x3e0c814f	0.13721202
89	0x3e2a4513	0.16627912
90	0x3dbeff87	0.09326082
91	0x3dcb31e8	0.09921628
92	0x3d8abbdd	0.06774113
93	0x3dbe23b7	0.09284156
94	0xbe39beae	-0.18139145
95	0x3d19b9a9	0.037530575
96	0xbe8e518e	-0.27796596
97	0xbe95f6cb	-0.2928985
98	0xbe5b661a	-0.21425667
99	0x3de3f719	0.111311145
100	0x3df9d408	0.12198645
101	0xbebeebe0	-0.37289333
102	0xbe400b8f	-0.18754409
103	0xbdd84303	-0.105596565
104	0x3e7aa636	0.24477467
105	0x3e1470c1	0.14496137
106	0x3d050fc1	0.032485727
107	0x3db91b11	0.09038366
108	0x3e832ff1	0.25622514
109	0xbe474f71	-0.19463898
110	0x3d749c8c	0.059719607
111	0xbd2b595c	-0.041833267
112	0x3e254eba	0.16143313
113	0xbe3b682f	-0.18301462
114	0x3d5374e8	0.051625162
115	0xbe42e027	-0.1903082
116	0xbe1ab00e	-0.15106222
117	0x3d857b50	0.065176606
118	0x3ec7a2c0	0.38991356
119	0x3e1ad07f	0.15118597
120	0x3e087dd0	0.13329244
121	0xbe3da854	-0.18521243
122	0xbc99220a	-0.018692989
123	0x3ebb9917	0.36640236
124	0x3dafb94f	0.08580267
125	0xbe60685f	-0.21914814
126	0x3dde9c4a	0.108696535
127	0xbdc00648	-0.09376198
128	0x3d8bb3f2	0.06821431
129	0x39ae1b53	0.00033208224
130	0xbd962076	-0.0733041
131	0x3e01f04f	0.12689327
132	0x3da7e206	0.081974074
133	0x3c9eb7c6	0.01937474
134	0x3bd3e0d4	0.0064660106
135	0x3d38633e	0.04501652
136	0xbe89232d	-0.2678465
137	0xbeb2acb2	-0.3489738
138	0xbe96c3b2	-0.2944618
139	0xbe146a37	-0.14493643
140	0x3c788179	0.015167587
141	0xbe2fecdc	-0.17180198
142	0xb9c0cdf0	-0.0003677453
143	0x3e2ca75c	0.16860718
144	0xbdd96fcc	-0.10617027
145	0xbe053be7	-0.13011132
146	0x3e8963c8	0.2683394
147	0xbde5f73f	-0.11228799
148	0xbcfd3d48	-0.03091301
149	0xbdaa071e	-0.08302139
150	0x3d13337d	0.035937775
151	0xbdb76668	-0.08955079
152	0xbe43170d	-0.19051762
153	0x3e42f799	0.19039764
154	0xbd4171c1	-0.047227625
155	0x3ea989a5	0.33112827
156	0x3bbed677	0.005823906
157	0xbe86667e	-0.2625007
158	0xbd778f13	-0.06043918
159	0x3e9417b7	0.28924343
160	0xbe129cca	-0.14317623
161	0x3da947f6	0.082656786
162	0xbe24b060	-0.16082907
163	0x3e9bea2f	0.30452105
164	0xbd4e3598	-0.05034408
165	0xbeab48b8	-0.33453918
166	0xbda8646f	-0.08222281
167	0xbe3f28bd	-0.18667884
168	0x3d191c6d	0.037380625
169	0x3e75fab3	0.24021415
170	0xbe4b4026	-0.1984869
171	0x3e6af5ed	0.22945376
172	0xbd5768e7	-0.052590277
173	0x3e126f55	0.14300282
174	0xbd99b3b3	-0.07504978
175	0x3db01d82	0.08599378
176	0xbe2f0483	-0.17091565
177	0xbe193ff5	-0.14965804
178	0xbec085bf	-0.3760204
179	0xbe8574b0	-0.26065588
180	0x3d8b98d0	0.06816256
181	0xbe188491	-0.1489432
182	0xbf0d759b	-0.55257577
183	0xbe90a474	-0.28250468
184	0xbea33d66	-0.3188278
185	0xbe2c2312	-0.16810253
186	0xbd982cde	-0.07430433
187	0x3df65951	0.120287545
188	0x3da76399	0.081732936
189	0x3e207167	0.1566826
190	0xbca8fc5e	-0.02062815
191	0x3c2e03fd	0.010621068
192	0xbe1f42b1	-0.15552785
193	0x3dafae64	0.08578184
194	0xbdc5e336	-0.09662478
195	0xbed775f5	-0.42082182
196	0x3d0e938a	0.034808673
197	0x3e099e56	0.13439307
198	0xbe87774a	-0.26458198
199	0xbe3df6a2	-0.18551114
200	0x3eb1ead9	0.34749487
201	0x3e8e3772	0.27776676
202	0x3e236334	0.15955812
203	0xbe000aeb	-0.12504165
204	0x3e1e494b	0.15457647
205	0xbdf0a135	-0.11749498
206	0x3de60ca4	0.1123288
207	0xbdcea7de	-0.10090612
208	0x3db6ad1e	0.08919738
209	0xbe124c43	-0.14286904
210	0xbdc7c8bf	-0.09755086
211	0x3e25dcd9	0.16197528
212	0x3e1c62e6	0.15272102
213	0xbed204bd	-0.4101924
214	0x3e54e739	0.2079133
215	0x3da51989	0.08061511
216	0xbe06cba4	-0.1316362
217	0x3e80d116	0.2515952
218	0x3e42f558	0.19038904
219	0xbe0a04f5	-0.13478453
220	0xbe18c676	-0.14919457
221	0x3d2a0c34	0.041515544
222	0xbd969710	-0.07353032
223	0x3e023a21	0.12717487
224	0x3de580af	0.11206185
225	0xbd1e43cc	-0.038638875
226	0xbe1b4201	-0.15161897
227	0xbe1cc630	-0.15309978
228	0x3df5b366	0.11997108
229	0xbd7bcdbe	-0.061475508
230	0x3e58e29d	0.21180196
231	0x3d5d9e1d	0.054105867
232	0xbd9b310f	-0.075777166
233	0x3d98c540	0.074594975
234	0xbe83daea	-0.25752956
235	0xbe805489	-0.25064495
236	0xbe4b1ff0	-0.19836402
237	0x3e7a604c	0.24450797
238	0x3e353c68	0.17698824
239	0x3d015756	0.03157743
240	0xbe7b340c	-0.24531573
241	0x3e64b581	0.22334863
242	0xbe341e8e	-0.1758978
243	0xbd02e7ce	-0.031959347
244	0xbe4890b2	-0.19586447
245	0xbe3f5a83	-0.18686871
246	0xbe9088ab	-0.2822927
247	0x3d191dcc	0.037381932
248	0xbe19eecc	-0.150325
249	0x3e558e34	0.20855027
250	0xbd836532	-0.06415786
251	0x3e077831	0.13229443
252	0xbe8a9ad6	-0.27071255
253	0xbe0497fb	-0.12948601
254	0x3e58e701	0.21181871
255	0x3d64a31d	0.05581962

rnn.weight_hh_l1 f4 [64, 64]
0	0xbe6482fd	-0.22315593
1	0x3e95a30f	0.29225966
2	0x3e0c189d	0.13681264
3	0x3eeac58a	0.45853835
4	0x3e81a053	0.2531763
5	0x3e8e9f79	0.27856043
6	0xbe1298e9	-0.14316143
7	0xbeab9a31	-0.33516076
8	0xbd3cb066	-0.046066664
9	0x3d2aa06a	0.04165689
10	0x3d263fad	0.04058807
11	0xbd3bd5fa	-0.04585836
12	0x3d21bc52	0.039486237
13	0xbd46b1f1	-0.048509542
14	0x3d2470a0	0.04014647
15	0x3d19c37d	0.037539948
16	0xbc51d9cb	-0.012808274
17	0xbe50bf60	-0.20385504
18	0x3e161091	0.14654757
19	0x3c96772b	0.01836737
20	0x3e75e580	0.24013329
21	0xbd1f5f39	-0.03890917
22	0xbdf4f211	-0.11960233
23	0xbe8be847	-0.2732565
24	0x3e3c9c72	0.18419054
25	0x3e3d8eb8	0.18511474
26	0xbe0b6ee9	-0.13616528
27	0x3e71ba2d	0.23606177
28	0x3e18a31f	0.14905976
29	0xbe5f85fb	-0.21828453
30	0x3dfee2f4	0.124456316
31	0xbe96e0ec	-0.29468477
32	0x3cae4e6c	0.021277629
33	0xbe27b9a8	-0.16379416
34	0x3d365dfc	0.044523224
35	0x3dc8f3e3	0.09812143
36	0xbd1bee29	-0.038068924
37	0x3e89b2b2	0.26894146
38	0x3d8798dc	0.066209525
39	0x3e2288e2	0.15872529
40	0x3d8c6739	0.06855626
41	0x3dd22201	0.10260392
42	0x3e881c12	0.26583916
43	0x3c6e8284	0.014557485
44	0x3da8f46b	0.08249744
45	0x3e047df7	0.12938677
46	0x3d01c92d	0.031685997
47	0xbe839840	-0.25702095
48	0x3d4b48e6	0.04963007
49	0x3db1da44	0.08684209
50	0x3eefa1aa	0.46803027
51	0xbc87ff77	-0.016601307
52	0x3cb39734	0.021922685
53	0xbd849a07	-0.06474691
54	0x3de307b5	0.110854544
55	0x3e761d00	0.240345
56	0x3e8524ac	0.2600454
57	0x3e95eb46	0.29281062
58	0xbe4205f3	-0.18947582
59	0x3dfee69e	0.124463305
60	0xbe452fbd	-0.19256492
61	0xbe2256af	-0.1585338
62	0xbdc2e482	-0.09516241
63	0xbd744926	-0.059640072
64	0x3ae63206	0.0017562516
65	0x3d376f07	0.04478362
66	0xbd9d8baa	-0.076926544
67	0x3d634681	0.05548716
68	0x3d85ae10	0.065273404
69	0xbe8e0959	-0.27741507
70	0xbdd203af	-0.10254609
71	0xbe096868	-0.13418734
72	0x3eca0f70	0.39464903
73	0xbdb3a623	-0.087719224
74	0xbe1034a2	-0.14082578
75	0x3d1167f3	0.035499524
76	0xbcb7c563	-0.022432989
77	0x3eaa5def	0.3327479
78	0x3eb6f057	0.3573024
79	0xbe20c5d6	-0.15700468
80	0xbea5e640	-0.3240223
81	0x3d058108	0.032593757
82	0xbe4cc4d4	-0.19996959
83	0x3d47f29d	0.04881536
84	0x3dbaa8b6	0.0911421
85	0xbe2d8a53	-0.16947298
86	0x3d963982	0.073351875
87	0x3e4575b8	0.19283187
88	0x3e3324d8	0.17494524
89	0x3e19544d	0.14973564
90	0xbe64c11a	-0.22339287
91	0x3f05ebf3	0.52313155
92	0xbdfbf8f4	-0.123033434
93	0x3defd260	0.11710048
94	0x3d989967	0.07451134
95	0xbd945299	-0.07242317
96	0xbcd52a00	-0.026021004
97	0x3ea816ae	0.32829803
98	0xbe573507	-0.21016322
99	0x3d184d7e	0.037183277
100	0x3e98cd90	0.29844332
101	0xbdd7f96a	-0.10545619
102	0xbe82d1fc	-0.2555083
103	0x3df0f7cf	0.11766016
104	0x3c22a31a	0.009926582
105	0xbbc4aa8b	-0.0060017756
106	0xbd009f33	-0.031401824
107	0x3e50f56b	0.2040612
108	0xbe0bf3e4	-0.13667256
109	0xbebd586b	-0.3698152
110	0xbe2e82bb	-0.17042057
111	0xbd317405	-0.043323535
112	0x3e419384	0.18903929
113	0x3d8cf8c4	0.06883386
114	0x3d90f656	0.07078235
115	0xbdc59ed7	-0.09649437
116	0x3d52b782	0.051444538
117	0x3df057eb	0.11735519
118	0xbe230329	-0.15919174
119	0xbd15c640	-0.03656602
120	0xbcc78556	-0.024355572
121	0x3eab51af	0.33460757
122	0x3e4f749d	0.20259328
123	0xbeafe160	-0.34351635
124	0x3d1db3e5	0.03850164
125	0x3de7db52	0.11321129
126	0xbe8811f2	-0.2657619
127	0x3d032d20	0.032025456
128	0x3df75792	0.120772496
129	0xbe2c1a81	-0.16806985
130	0x3e2a5824	0.16635185
131	0xbe3dba5d	-0.18528123
132	0x3ce890ba	0.028389324
133	0xbd9155af	-0.07096421
134	0x3e08eb95	0.13371117
135	0xbd3f53e7	-0.046710875
136	0xbe5e5d07	-0.21715175
137	0xbd04a060	-0.032379508
138	0x3e8ae7d7	0.27130005
139	0xbd8b73de	-0.06809209
140	0xbc827d2c	-0.015928827
141	0x3ed46629	0.41484192
142	0x3ccaac38	0.024740323
143	0xbe11eaf9	-0.14249791
144	0x3e35c733	0.1775177
145	0xbe71a174	-0.23596746
146	0xbdf12554	-0.11774698
147	0xbe988733	-0.2979065
148	0x3df1c691	0.11805452
149	0x3e6b0897	0.22952496
150	0x3e8d0cf9	0.2754896
151	0xbe91f8ef	-0.28510234
152	0xbe7f2a2d	-0.24918433
153	0x3e7cdc7b	0.24693482
154	0x3d217674	0.039419606
155	0x3dbb3b66	0.09142189
156	0x3dfbf036	0.12301676
157	0xbe3af7e1	-0.18258621
158	0x3de544d3	0.11194768
159	0xbe91e441	-0.28494456
160	0xbe82b524	-0.25528824
161	0xbd742caf	-0.059612926
162	0x3d9db0a1	0.07699705
163	0x3e092937	0.13394628
164	0x3e428147	0.18994628
165	0xbd20cc28	-0.0392572
166	0xbe12662b	-0.14296786
167	0xbc021c93	-0.007941383
168	0xbe1e0aac	-0.15433758
169	0xbe0794d5	-0.13240369
170	0xbdb14021	-0.0865481
171	0xbd75b5be	-0.059987776
172	0xbd2eed75	-0.042706925
173	0x3e9c27f3	0.3049923
174	0x3d959b46	0.07305007
175	0x3e7db4ac	0.24775952
176	0x3e66bba6	0.2253252
177	0xbe008a80	-0.12552834
178	0xbe5100d1	-0.20410468
179	0x3d9e1724	0.077192575
180	0x3e2c2c76	0.16813836
181	0xbc22895b	-0.009920443
182	0x3dbb48a6	0.09144716
183	0xbddbb8ca	-0.10728605
184	0x3f071273	0.52762526
185	0x3dd1a5c3	0.10236695
186	0x3e9bf1a4	0.30457795
187	0xbdfbb387	-0.122901015
188	0xbec1ec3d	-0.37875548
189	0x3daef3e4	0.08542612
190	0x3d48f60a	0.049062766
191	0x3c42db3d	0.011893091
192	0x3bcaa263	0.006183909
193	0x3daa7e53	0.08324876
194	0xbf162362	-0.5864774
195	0xbe837ea8	-0.2568257
196	0xbec563cf	-0.3855271
197	0xbde09c33	-0.10967293
198	0x3d753606	0.059865974
199	0xbd118336	-0.035525523
200	0x3e4a28a6	0.19742069
201	0x3e300af9	0.17191686
202	0xbd579277	-0.052629914
203	0xbdfcb908	-0.123399794
204	0x3daa13a5	0.08304528
205	0x3df08ade	0.11745237
206	0xbe1847e6	-0.14871177
207	0xbd441fee	-0.047882013
208	0xbcd50831	-0.026004883
209	0xbd7383e0	-0.059451938
210	0x3e522273	0.20520954
211	0x3e930edb	0.2872227
212	0xbd546392	-0.05185277
213	0x3d822893	0.06355395
214	0x3e019415	0.12654145
215	0x3bd06b0f	0.0063604186
216	0xbd9c2019	-0.0762331
217	0x3e291b50	0.16514325
218	0xbd08ac0e	-0.03336721
219	0xbe0f65fe	-0.1400375
220	0x3edbffcf	0.42968604
221	0xbe24255b	-0.16029875
222	0xba99dfc1	-0.0011739657
223	0xbd2b36d2	-0.041800328
224	0x3d835cb8	0.06414169
225	0xbd1f41ca	-0.0388811
226	0xbb07d633	-0.0020727038
227	0xbe424f73	-0.1897562
228	0xbe06792d	-0.13132162
229	0x3eb3bb95	0.3510405
230	0x3dbda9cb	0.09260901
231	0xbe3ee36d	-0.18641444
232	0x3f0ca33a	0.54936564
233	0xbe06513e	-0.13116929
234	0x3cb15f2f	0.021651832
235	0xbe5e4502	-0.21706012
236	0xbdd58b44	-0.104269534
237	0x3e9034f5	0.28165403
238	0x3e1ac368	0.15113604
239	0x3ede6971	0.4343982
240	0xbdf0de35	-0.11761133
241	0xbe4610bd	-0.19342323
242	0x3e7a91e0	0.2446971
243	0xbd78c339	-0.060733054
244	0x3c8ab4f5	0.01693199
245	0x3e5bd969	0.21469654
246	0xbba7feb6	-0.0051267995
247	0x3d36a6d8	0.04459271
248	0x3e4f4444	0.20240885
249	0x3e9666f0	0.2937541
250	0x3e2e0efe	0.16997907
251	0x3df9c98f	0.121966474
252	0x3e140684	0.1445561
253	0x3dcc1267	0.099644475
254	0xbe3f2a6b	-0.18668525
255	0x3c741c7c	0.014899369

rnn.bias_ih_l1 f4 [64]
0	0xbb5d461a	-0.0033763708
1	0x3cd5d8c7	0.026104344
2	0xbcab6843	-0.02092374
3	0xbc2e01e7	-0.010620571
4	0xbc14edf8	-0.009089939
5	0xbd031380	-0.03200102
6	0xbcfec956	-0.031101864
7	0x3c5dbd01	0.013533832
8	0xbcd380b6	-0.02581821
9	0xbbf065c5	-0.0073363506
10	0x3a1ca5e9	0.000597565
11	0x3c983c69	0.018583493
12	0xbcf87e86	-0.030333769
13	0xbd4ff15f	-0.0507673
14	0xbdc79eaa	-0.0974706
15	0x3d71a18c	0.058991954
16	0xbc839cf5	-0.016066054
17	0xbc890035	-0.016723732
18	0x3d565380	0.052325726
19	0x3d177b8e	0.036983065
20	0x3c07245f	0.008248418
21	0x3cfda053	0.030960238
22	0x3bbd2b50	0.0057729855
23	0x3c46fb5e	0.012144892
24	0xbc1067d5	-0.008813818
25	0x3d696e40	0.05698991
26	0xbd63c928	-0.05561176
27	0xbd8f19f4	-0.06987372
28	0x3ae73d49	0.0017642166
29	0xbd8fe1b5	-0.07025472
30	0xbc860b18	-0.016362712
31	0xbcc69615	-0.024241487
32	0x3ce4f196	0.027947228
33	0x3d06f952	0.032952614
34	0xbb2675e4	-0.0025399858
35	0x3c5e21b3	0.013557839
36	0x3b94b093	0.004537651
37	0xbbff2c35	-0.0077872523
38	0xbcbd21b3	-0.023087358
39	0xbc03c4ac	-0.008042496
40	0x3d55363f	0.052053686
41	0xbcb23b8b	-0.021756908
42	0x3c4a3764	0.012342308
43	0x3c8b12f0	0.016976804
44	0xbbd399e1	-0.006457553
45	0xbc38d824	-0.011282001
46	0x3d4a93b7	0.049457278
47	0xbd3ed7ab	-0.046592396
48	0x3b7ef3da	0.003890267
49	0xbd3852ca	-0.04500083
50	0x3d6dab66	0.058024786
51	0xbd72fd34	-0.059323505
52	0x3d71386b	0.058891695
53	0x3d263cae	0.040585212
54	0x3d21b225	0.039476532
55	0xbd8c46f2	-0.06849469
56	0x3cd8acc8	0.026449576
57	0xbd9885c6	-0.0744739
58	0xbcb7d5c5	-0.0224408
59	0xbd5da5e9	-0.054113302
60	0x3c9bb79a	0.019008446
61	0xbd71a019	-0.05899057
62	0x3d174745	0.036933202
63	0xbd1a9d94	-0.037747934

rnn.bias_hh_l1 f4 [64]
0	0xbb5d465a	-0.0033763857
1	0x3cd5d8ca	0.02610435
2	0xbcab684f	-0.020923762
3	0xbc2e01fe	-0.010620592
4	0xbc14edf3	-0.009089935
5	0xbd03137c	-0.032001004
6	0xbcfec952	-0.031101856
7	0x3c5dbd00	0.013533831
8	0xbcd380b5	-0.025818208
9	0xbbf065bd	-0.007336347
10	0x3a1ca56a	0.00059755764
11	0x3c983c67	0.01858349
12	0xbcf87e7c	-0.03033375
13	0xbd4ff158	-0.050767273
14	0xbdc79eae	-0.097470626
15	0x3d71a18f	0.058991965
16	0xbc839cfc	-0.016066067
17	0xbc890037	-0.016723735
18	0x3d56537f	0.05232572
19	0x3d177b8c	0.036983058
20	0x3c072455	0.008248408
21	0x3cfda051	0.030960234
22	0x3bbd2b5b	0.0057729906
23	0x3c46fb5c	0.01214489
24	0xbc1067d8	-0.008813821
25	0x3d696e42	0.056989916
26	0xbd63c92b	-0.05561177
27	0xbd8f19f4	-0.06987372
28	0x3ae73d07	0.0017642089
29	0xbd8fe1b4	-0.07025471
30	0xbc860b16	-0.016362708
31	0xbcc69610	-0.024241477
32	0x3ce4f191	0.02794722
33	0x3d06f951	0.03295261
34	0xbb267637	-0.0025400051
35	0x3c5e21c0	0.013557851
36	0x3b94b07f	0.0045376415
37	0xbbff2c42	-0.0077872584
38	0xbcbd21b2	-0.023087356
39	0xbc03c4a5	-0.008042489
40	0x3d553641	0.052053694
41	0xbcb23b83	-0.021756893
42	0x3c4a3769	0.012342312
43	0x3c8b12ea	0.016976792
44	0xbbd399e2	-0.0064575532
45	0xbc38d815	-0.011281987
46	0x3d4a93b9	0.049457286
47	0xbd3ed7ae	-0.046592407
48	0x3b7ef3f4	0.0038902732
49	0xbd3852c8	-0.04500082
50	0x3d6dab61	0.058024768
51	0xbd72fd36	-0.059323512
52	0x3d71386e	0.058891706
53	0x3d263ca6	0.040585183
54	0x3d21b224	0.03947653
55	0xbd8c46f0	-0.06849468
56	0x3cd8accc	0.026449583
57	0xbd9885c5	-0.074473895
58	0xbcb7d5cf	-0.02244082
59	0xbd5da5ea	-0.054113306
60	0x3c9bb79a	0.019008446
61	0xbd71a021	-0.0589906
62	0x3d174743	0.036933195
63	0xbd1a9d95	-0.03774794

norm.weight f4 [64]
0	0x3f7e3051	0.99292475
1	0x3f9114d8	1.1334486
2	0x3f6d3a0c	0.926667
3	0x3f820f1b	1.016086
4	0x3f8168b1	1.0110074
5	0x3f8c0fc9	1.0942317
6	0x3f79e0d1	0.9760867
7	0x3f830852	1.0236914
8	0x3f7437fa	0.95397913
9	0x3f838009	1.0273448
10	0x3f89f8c1	1.0779039
11	0x3f8b1d18	1.0868254
12	0x3f71de81	0.9448014
13	0x3f880c65	1.0628783
14	0x3f6a8ef1	0.9162436
15	0x3f7faec9	0.99876076
16	0x3f82ec38	1.0228338
17	0x3f8bfd6d	1.0936714
18	0x3f6f517c	0.9348371
19	0x3f97eaee	1.186857
20	0x3f8341cd	1.0254456
21	0x3f76ba08	0.9637761
22	0x3f82eae9	1.0227939
23	0x3f743811	0.9539805
24	0x3f82e321	1.0225564
25	0x3f9b31ad	1.2124535
26	0x3f86dd5a	1.0536301
27	0x3f8c0ba3	1.0941051
28	0x3f914cdd	1.1351582
29	0x3f68beca	0.9091612
30	0x3f89572d	1.0729729
31	0x3f882787	1.0637063
32	0x3f836321	1.0264627
33	0x3f84af1c	1.0365939
34	0x3f7b0f3d	0.98070127
35	0x3f8c9f74	1.0986161
36	0x3f77d9da	0.9681679
37	0x3f7fdc86	0.9994587
38	0x3f6ddd3e	0.92915714
39	0x3f91cd10	1.1390705
40	0x3f8dad5d	1.1068531
41	0x3f8c50d5	1.0962168
42	0x3f841758	1.0319624
43	0x3f8744da	1.0567887
44	0x3f712b51	0.9420672
45	0x3f8c975b	1.098369
46	0x3f736100	0.95069885
47	0x3f7bef64	0.98412156
48	0x3f7c3eb4	0.9853318
49	0x3f872b77	1.056014
50	0x3f8a08fb	1.0783991
51	0x3f810e16	1.0082424
52	0x3f85108f	1.0395678
53	0x3f713d12	0.9423381
54	0x3f7cb41b	0.9871232
55	0x3f814339	1.009864
56	0x3f8df158	1.1089277
57	0x3f875cec	1.0575233
58	0x3f4a8eb6	0.7912401
59	0x3f7d293b	0.9889104
60	0x3f80f679	1.0075217
61	0x3f775868	0.9661927
62	0x3f6bb518	0.920732
63	0x3f878592	1.0587637

norm.bias f4 [64]
0	0x3ceb6ad1	0.028737457
1	0x3d79ef15	0.061019022
2	0x3d47e973	0.04880662
3	0xbda3f630	-0.08005941
4	0x3d80c8f6	0.0628833
5	0xbd4f354c	-0.050587937
6	0x3deb35f3	0.11484899
7	0xbd4c277d	-0.049842346
8	0xbd03cd91	-0.032178465
9	0xbd1b123e	-0.037859194
10	0xbd8f9e93	-0.070126675
11	0xbd00ffc2	-0.03149391
12	0xbd13eb43	-0.036113035
13	0xbd9b2bcb	-0.07576712
14	0xbc4ec77f	-0.012620806
15	0x3d136961	0.03598917
16	0x3d938383	0.07202818
17	0xbd820864	-0.06349257
18	0xbc527a82	-0.012846591
19	0x3d8ca329	0.06867058
20	0x3d625924	0.055260792
21	0x3d0dd4e9	0.034626875
22	0xbd51e677	-0.05124518
23	0x3c968084	0.018371828
24	0xbca39340	-0.019967675
25	0xbda15581	-0.07877637
26	0x3d2ad0ed	0.041703153
27	0xbce89d34	-0.028395273
28	0x3d92cd2c	0.0716804
29	0xbc7711b2	-0.0150799025
30	0xbc979e35	-0.018508056
31	0x3cee81d6	0.029114645
32	0xbc3746ac	-0.011186283
33	0xbccc691e	-0.024952468
34	0x3d9e6ef6	0.07736008
35	0xbd8a6815	-0.06758133
36	0x3d521764	0.05129184
37	0xbd0fd1f8	-0.03511235
38	0x3d5041d3	0.050844025
39	0x3d97577b	0.073897325
40	0x3d80ae31	0.062832244
41	0xbd699705	-0.05702879
42	0x3d854725	0.0650771
43	0xbd1752e2	-0.036944278
44	0xbe0fb210	-0.14032769
45	0x3d50e5d6	0.05100044
46	0x3ca8491a	0.02054267
47	0xbc2b1861	-0.010442824
48	0x3d155a5b	0.036463123
49	0xbcf1bf18	-0.029510066
50	0x3d64eea5	0.05589165
51	0xbda69aad	-0.08134971
52	0x3d74c931	0.059762184
53	0xbd21976a	-0.03945104
54	0xb9050ed9	-0.000126894
55	0x3dcfc6ef	0.101453654
56	0x3d45ecde	0.048321597
57	0xbcd1ceb6	-0.025611263
58	0xbcca72b9	-0.024712907
59	0xbd429981	-0.047509674
60	0x3c85f116	0.01635031
61	0x3ac110cb	0.0014729736
62	0x3d681971	0.056664888
63	0xbceff8db	-0.029293468

fc_actor.weight f4 [1, 64]
0	0x3daafc17	0.083488636
1	0x3e7ac2ba	0.24488345
2	0x3ce26f79	0.027641045
3	0xbdfa4a27	-0.12221175
4	0x3e163814	0.1466983
5	0xbe5a2d3f	-0.21306323
6	0x3d7dcc81	0.06196261
7	0xbe1aba82	-0.1511021
8	0xbd5276e6	-0.05138292
9	0xbda02e1a	-0.07821293
10	0xbe3f1d41	-0.18663503
11	0xbe1a356c	-0.15059441
12	0xbd864f49	-0.06558091
13	0xbe20df80	-0.15710258
14	0xbcf1b34d	-0.029504443
15	0x3df669ca	0.120318964
16	0x3e2466c9	0.16054834
17	0xbe571572	-0.21004274
18	0xbd0f4224	-0.034975186
19	0x3e730aa4	0.23734528
20	0x3e23a592	0.15981129
21	0x3e06a3aa	0.1314837
22	0xbdcfb710	-0.10142338
23	0x3d5c02f4	0.053713754
24	0xbde13e94	-0.10998264
25	0xbe8d177c	-0.2755698
26	0x3e1814c8	0.14851677
27	0xbe843ae6	-0.25826186
28	0x3e936569	0.28788307
29	0xbd90cce8	-0.07070333
30	0xbe215688	-0.15755665
31	0x3e70f0d2	0.23529366
32	0xbe108b55	-0.14115651
33	0xbe3c8268	-0.18409121
34	0x3de3c8ad	0.1112226
35	0xbe6a6ace	-0.22892305
36	0x3d964bb3	0.07338657
37	0xbdfe5670	-0.124188304
38	0x3d63e750	0.05564052
39	0x3e5d0994	0.21585685
40	0x3e576ba7	0.2103716
41	0xbe48b786	-0.19601259
42	0x3e282e6e	0.16423962
43	0xbe3b867b	-0.18313019
44	0x3b3ce770	0.002882447
45	0x3e73e4c9	0.23817743
46	0x3d88ec04	0.066856414
47	0xbdbc44c7	-0.09192806
48	0x3df2da38	0.11858028
49	0xbe36d6a9	-0.17855324
50	0x3e43d9ae	0.19126007
51	0xbe11f198	-0.14252317
52	0x3dda10c7	0.10647731
53	0xbdab2caf	-0.08358132
54	0x3d4cfea7	0.050047543
55	0x3db3e629	0.08784134
56	0x3e4a4b5b	0.19755308
57	0xbe60eb3a	-0.21964732
58	0xbad72b7b	-0.0016416156
59	0xbdc04532	-0.09388198
60	0x3da70446	0.08155112
61	0xbd8b824f	-0.06811964
62	0x3d2d1512	0.042256422
63	0xbe60f393	-0.21967916

fc_critic.weight f4 [1, 64]
0	0x3cf516a5	0.029918024
1	0x3c3c8a66	0.011507606
2	0xbbc6849a	-0.006058288
3	0xbb96e5de	-0.004605039
4	0x3d3065ef	0.04306596
5	0x3c29bdb3	0.010360169
6	0x3cf219bb	0.029553285
7	0xbd1ebf3c	-0.038756594
8	0x3d2332a1	0.039843205
9	0x3d04ac4b	0.032390874
10	0xbbac4366	-0.005257058
11	0x3d866493	0.06562152
12	0x3cc4a023	0.02400214
13	0x3c93c4df	0.018038211
14	0xbc7b6cb7	-0.015345744
15	0x3ba75138	0.0051061176
16	0x3d000426	0.031253956
17	0x383a294c	4.4384316e-05
18	0xbc587957	-0.013212523
19	0x3cff1970	0.03114006
20	0x3d20ef51	0.03929073
21	0x3c92bff2	0.017913792
22	0xbb5b5317	-0.0033466273
23	0xbcf955b3	-0.030436372
24	0x3d67b0ea	0.056565203
25	0xbcfacb64	-0.030614562
26	0xbbf3b24d	-0.0074370266
27	0x3d193d10	0.03741175
28	0x3d8f291b	0.06990262
29	0x3c972d90	0.018454343
30	0x3dd10bc5	0.10207323
31	0xbd170649	-0.03687123
32	0x3db46637	0.088085584
33	0x3d4cf706	0.050040267
34	0x3cc8d1f8	0.024514183
35	0xbd8fd190	-0.07022393
36	0x3cb8d5a7	0.022562815
37	0x3be04dc1	0.0068452065
38	0x3cb89c88	0.022535577
39	0x3c38ba7e	0.011274932
40	0x3d433600	0.04765892
41	0xbc25a279	-0.010109537
42	0x3ca1ef53	0.019767439
43	0x3d24467d	0.040106285
44	0xbd424988	-0.047433406
45	0xbc49a6bf	-0.012307822
46	0x3d5eb4e6	0.054371737
47	0x3d22241c	0.039585218
48	0x3c223fe8	0.009902932
49	0x3d4f152d	0.050557304
50	0x3c61163f	0.013738214
51	0xbac4d137	-0.0015015964
52	0x3cc30db4	0.023810245
53	0xbd0200ec	-0.03173916
54	0xbda1ec94	-0.07906452
55	0x3d21a004	0.039459243
56	0x3cbe7142	0.023247365
57	0x3d63492d	0.055489708
58	0x3ad789b8	0.0016444242
59	0xbd2c3285	-0.042040367
60	0xbae08943	-0.0017130751
61	0x3d3b642e	0.045749836
62	0x3d36f1d7	0.04466423
63	0x3d14fde8	0.036374956
