RNN_Features/Trained Models/RNN_Features_2.pth (torch, 93754 bytes, 15 tensors)

attn_vec f4 [64]
0.9809025 -2.5152407 -1.0728893 -0.63050574 0.32573885 -0.8112396 -0.6487445 0.3471892
-0.7405713 0.61405164 0.53837484 1.1003758 -0.17631462 0.40698105 0.8327361 1.3958184
-0.11276109 -0.6564866 1.0380836 -0.2831317 1.3705828 0.5012213 2.218155 0.7049923
0.028839217 -0.38393986 -1.5524706 -0.6675717 -0.38249588 0.016928568 0.46504417 1.9413141
0.48647577 0.65599996 0.15685758 -0.7543532 -0.87296927 -1.0875266 0.32343218 0.04928311
0.6206706 -0.51969707 0.3602239 -1.5048066 -0.115121044 1.838899 0.7478455 0.2802928
-0.6522709 0.53074807 0.25107375 -1.3862587 0.22522879 0.39368162 -1.9218976 -0.35793206
-1.9145622 0.03503007 -0.92496455 1.243667 -0.16079822 0.34578648 0.13930109 -0.77155554
00000000: 6d1c 7b3f b4f9 20c0 7054 89bf d368 21bf
00000010: 3ec7 a63e 66ad 4fbf 1f14 26bf c8c2 b13e
00000020: 1596 3dbf 7d32 1d3f efd2 093f 1dd9 8c3f
00000030: d28b 34be d25f d03e 312e 553f 2daa b23f
00000040: 49ef e6bd 810f 28bf ecdf 843f a3f6 90be
00000050: 426f af3f 0a50 003f 40f6 0d40 607a 343f
00000060: 3940 ec3c c493 c4be 5bb7 c6bf fbe5 2abf
00000070: 80d6 c3be c8ad 8a3c 451a ee3e fb7c f83f
00000080: 5a13 f93e 9def 273f 469f 203e 4b1d 41bf
00000090: ea7a 5fbf 1234 8bbf e798 a53e 16dd 493d
000000a0: 45e4 1e3f de0a 05bf 446f b83e 819d c0bf
000000b0: 95c4 ebbd 0b61 eb3f cd72 3f3f 8a82 8f3e
000000c0: 3afb 26bf 1bdf 073f bd8c 803e ed70 b1bf
000000d0: 60a2 663e a390 c93e be00 f6bf df42 b7be
000000e0: 6010 f5bf b17b 0f3d 7aca 6cbf 7b30 9f3f
000000f0: 4aa8 24be ed0a b13e f2a4 0e3e aa84 45bf

input_fc.weight f4 [128, 6]
-0.16507782 -0.036361292 0.053713944 -0.026498256 -0.04348753 -0.4419649 0.097814366 -0.045876954
0.115138724 -0.31871995 -0.5987958 0.44875884 -0.15229449 0.23666118 0.24166553 0.2715261
-0.3611483 0.4220966 0.22392426 0.09901845 0.10837517 -0.31063977 0.2894324 -0.33212587
0.23575692 -0.18660744 -0.014336143 0.33739418 0.4955568 -0.3557268 -0.45545334 -0.035627566
-0.06815724 -0.12598044 0.09324867 0.25033873 0.039338347 0.47816896 -0.0177 -0.05228674
0.15999427 -0.13288946 0.29691017 -0.2811558 0.035342 0.37223494 -0.26566777 0.38264638
-0.1249209 0.016785152 -0.49932447 0.35633403 -0.45551854 0.4719444 0.1850909 -0.030591492
-0.21593015 -0.34270075 0.06393318 0.00068739423 0.17216125 -0.24910049 -0.26211485 -0.4069916
-0.063352056 -0.105689466 -0.24972324 -0.05422752 -0.037942592 0.05881577 0.38281503 0.28044668
-0.07202966 -0.024550676 0.05116292 -0.13537958 -0.041946426 -0.007485558 -0.04829007 -0.35018954
-0.17582342 0.5478714 -0.33490947 -0.30526003 -0.18961574 -0.19859186 0.28360155 0.1377267
-0.19246061 0.45725417 0.12989783 0.035482313 0.024973536 0.1811268 0.43695915 -0.45545053
-0.16315773 0.03211091 -0.43725166 0.35343173 -0.14837223 -0.1293388 -0.2835264 0.3107656
-0.38262638 0.20469403 -0.20422524 0.072455674 0.17007107 -0.326174 -0.4769446 0.43595994
0.010852513 -0.28403878 0.02160628 -0.33521998 -0.06829891 -0.5451102 -0.16154799 0.12919976
0.42755097 0.3585202 0.18236506 0.43850237 0.051296856 -0.3077216 0.1684057 -0.17650148
-0.18043141 0.32260334 -0.42486495 0.36853048 -0.21774465 -0.29105914 -0.27229744 -0.37106657
-0.25174284 0.042120416 -0.4629921 0.38455862 -0.22912928 -0.20571324 0.032521255 -0.11020602
-0.08547172 0.17914999 0.07549675 0.5007695 -0.103373304 0.39975336 -0.026751349 0.13788913
0.013534711 0.29816583 0.35051358 -0.30360827 0.22100782 0.0242626 -0.07768727 -0.13468583
0.23055248 -0.45585892 -0.24472858 -0.22051874 -0.15082376 -0.27356973 0.07807351 0.40057808
0.19289087 -0.43475932 -0.34067148 0.32872903 0.12062202 0.15815283 0.022404626 -0.004719963
-0.16266799 0.21005663 0.043893356 0.27716082 0.36322448 -0.084056534 -0.005159943 0.5893797
-0.16282424 -0.023148397 -0.033138286 0.19172823 -0.44654182 0.080561444 0.4160849 -0.38085306
-0.02858732 0.15469274 0.3160944 -0.12448798 -0.24817966 -0.27912104 0.24564068 -0.054916415
-0.4843365 -0.21325997 -0.2790899 0.20774627 -0.45872718 -0.27599403 -0.27201512 0.42711446
-0.07570252 -0.22194278 -0.16400622 -0.17531174 -0.38895988 -0.3616885 0.16710497 -0.36105186
-0.17730531 0.22795916 0.051931914 -0.20572288 0.41392326 0.37818608 0.34035248 0.37382084
0.0048923814 0.34814405 0.12226495 0.09868194 -0.43522948 0.067834295 -0.38580906 0.18668225
0.50624126 -0.3198362 0.12206285 0.33943903 0.43695742 -0.037558872 0.023747057 0.10867979
-0.27370486 0.21028617 0.33304152 -0.20094447 -0.3622643 0.029003229 -0.015406408 0.39768183
0.025468403 0.25152618 -0.021657424 -0.40458694 0.19647832 0.1406323 0.38767332 -0.24426518
00000000: 290a 29be 94ef 14bd 2703 5c3d df12 d9bc
00000010: fb1f 32bd 3949 e2be e652 c83d 79e9 3bbd
00000020: dacd eb3d 432f a3be ae4a 19bf b8c3 e53e
00000030: 16f3 1bbe 4f57 723e 2b77 773e 7805 8b3e
00000040: 6ee8 b8be 0c1d d83e 674c 653e 2fca ca3d
00000050: cdf3 dd3d 2d0c 9fbe 7c30 943e 670c aabe
00000060: 436a 713e 0516 3fbe 24e2 6abc eebe ac3e
00000070: 9fb9 fd3e d321 b6be 2e31 e9be 36ee 11bd
00000080: 0696 8bbd 0401 01be 29f9 be3d 662c 803e
00000090: 3f21 213d 90d2 f43e 97ff 90bc 9f2a 56bd
000000a0: 8ad5 233e 2d14 08be 9c04 983e a7f3 8fbe
000000b0: c6c2 103d 9495 be3e 9b05 88be 3aea c33e
000000c0: 87d6 ffbd 0481 893c 75a7 ffbe 6a71 b63e
000000d0: ba39 e9be b2a2 f13e 7888 3d3e 029b fabc
000000e0: cb1c 5dbe 7976 afbe 66ef 823d 3f32 343a
000000f0: 0a4b 303e 3314 7fbe eb33 86be 3461 d0be
00000100: b9be 81bd b873 d8bd 73b7 7fbe ad1d 5ebd
00000110: b169 1bbd cee8 703d 5500 c43e b596 8f3e
00000120: 4984 93bd 801e c9bc 3690 513d f2a0 0abe
00000130: 04d0 2bbd 6949 f5bb cfcb 45bd 0b4c b3be
00000140: 0e0b 34be 4d41 0c3f 4179 abbe 0b4b 9cbe
00000150: a12a 42be aa5b 4bbe 3934 913e 3a08 0d3e
00000160: 6514 45be 381d ea3e f003 053e e755 113d
00000170: 4d95 cc3c 4e79 393e 1cb9 df3e d030 e9be
00000180: d212 27be bb86 033d 73df dfbe 01f5 b43e
00000190: e4ee 17be 6471 04be 5f2a 91be ab1c 9f3e
000001a0: 9be7 c3be 509b 513e 6c20 51be a463 943d
000001b0: 1c27 2e3e 4700 a7be 1532 f4be 2436 df3e
000001c0: bdce 313c 886d 91be a7ff b03c f4a1 abbe
000001d0: 4de0 8bbd 588c 0bbf d66c 25be f14c 043e
000001e0: f6e7 da3e f68f b73e e8bd 3a3e 6283 e03e
000001f0: a71c 523d b08d 9dbe 8b72 2c3e cebc 34be
00000200: 03c3 38be 442c a53e e687 d9be 07b0 bc3e
00000210: 74f8 5ebe b405 95be 926a 8bbe 70fc bdbe
00000220: 70e4 80be 7586 2c3d 4d0d edbe dee4 c43e
00000230: dea0 6abe 7ea6 52be 0235 053d b2b3 e1bd
00000240: cc0b afbd 1873 373e 0a9e 9a3d 6e32 003f
00000250: 62b5 d3bd 79ac cc3e a525 dbbc cf32 0d3e
00000260: b1c0 5d3c 31a9 983e 8476 b33e 8b72 9bbe
00000270: e04f 623e 5cc2 c63c 811a 9fbd 15eb 09be
00000280: f315 6c3e 5766 e9be 219a 7abe aacf 61be
00000290: 8b71 1abe 5511 8cbe 01e5 9f3d 9218 cd3e
000002a0: 2f85 453e c698 debe 7e6c aebe 2c4f a83e
000002b0: ad08 f73d d1f2 213e e889 b73c eba9 9abb
000002c0: 7092 26be 1619 573e 85c9 333d 06e8 8d3e
000002d0: 8ff8 b93e d525 acbd bd14 a9bb 97e1 163f
000002e0: 66bb 26be b5a1 bdbc 03bc 07bd 6854 443e
000002f0: 21a1 e4be 66fd a43d 1409 d53e 2cff c2be
00000300: f52f eabc c667 1e3e 20d7 a13e 8ef3 febd
00000310: cf22 7ebe f4e8 8ebe 3b89 7b3e 09f0 60bd
00000320: f4fa f7be d260 5abe dfe4 8ebe 70bb 543e
00000330: 4ade eabe 174f 8dbe 9145 8bbe bfae da3e
00000340: ec09 9bbd f844 63be 3ff1 27be ec84 33be
00000350: c025 c7be 3c2f b9be 911d 2b3e cadb b8be
00000360: 868f 35be 206e 693e 8fb6 543d 05a9 52be
00000370: c0ed d33e 9ba1 c13e ae42 ae3e 7265 bf3e
00000380: 4550 a03b f03f b23e 0c66 fa3d c219 ca3d
00000390: 66d6 debe b5ec 8a3d c488 c5be a229 3f3e
000003a0: 0799 013f 92c1 a3be 16fc f93d f4ca ad3e
000003b0: e2b8 df3e 55d7 19bd 3089 c23c 8293 de3d
000003c0: 0b23 8cbe 4255 573e 6b84 aa3e 63c4 4dbe
000003d0: b57a b9be 2e98 ed3c 296b 7cbc f49c cb3e
000003e0: 1da3 d03c 0ac8 803e e96a b1bc 0526 cfbe
000003f0: 9d31 493e ea01 103e 1e7d c63e a720 7abe

input_fc.bias f4 [128]
-0.2513722 0.05718632 -0.15529862 0.00042373576 0.32435945 0.256967 -0.58740556 0.23208351
0.031193867 0.25891015 -0.06848856 -0.022666968 0.21720548 -0.17750096 0.313646 -0.2921636
0.05984806 0.03090961 -0.45115823 -0.1636182 -0.48776656 0.31501755 0.27779752 0.19722025
-0.37374866 -0.38210693 0.22197214 0.29674116 0.21359459 -0.19184996 -0.012939286 -0.2648628
-0.17184839 -0.14736265 -0.31609336 0.09051044 -0.07311649 0.13821821 0.11114913 -0.0787847
-0.22838244 -0.19544992 0.26780447 0.27473783 -0.2891073 -0.32477978 0.0042728493 0.04692412
0.13501257 0.081363596 0.22150367 -0.19214377 0.055739142 0.106503285 0.08747924 -0.12944603
-0.16675977 0.25870445 0.34231532 0.07757622 0.17616455 -0.018393932 -0.4133417 0.15554513
-0.2586092 -0.1675136 -0.10589457 -0.09851553 0.07679478 -0.013746705 -0.33602363 -0.24042583
-0.30173913 0.23012574 -0.22830768 -0.02658478 0.13184693 0.25581434 -0.1810245 0.16259992
-0.28569672 0.014586035 -0.4891352 -0.19973637 -0.13603893 -0.28340536 -0.15528546 0.35300735
0.33931944 0.24438065 -0.100512914 0.18719935 0.14013821 -0.05032844 0.2698869 -0.22568902
0.17261223 0.3172908 0.11372163 -0.0393163 -0.12198346 -0.18183939 -0.21557896 -0.124472365
0.21710952 -0.32302043 0.14846551 -0.15452673 -0.25571337 0.34036997 -0.36402658 0.22878563
-0.2533835 -0.06762711 0.07176214 -0.23025663 0.111433364 -0.34237623 -0.29382178 -0.03680875
-0.13004561 0.14745504 -0.046291865 -0.20643558 0.036999173 -0.1726749 -0.17831774 -0.14138243
00000000: dbb3 80be 343c 6a3d 9a06 1fbe da28 de39
00000010: 7112 a63e 2e91 833e 3660 16bf 4da7 6d3e
00000020: 488a ff3c df8f 843e bb43 8cbd 14b0 b9bc
00000030: 1d6b 5e3e d0c2 35be 3596 a03e 7896 95be
00000040: 3d23 753d 2736 fd3c 36fe e6be 888b 27be
00000050: 8abc f9be fb49 a13e 7a3b 8e3e 1bf4 493e
00000060: fc5b bfbe 85a3 c3be aa4c 633e 75ee 973e
00000070: 8ab8 5a3e 5174 44be 4dff 53bc 199c 87be
00000080: 06f9 2fbe 3ce6 16be fdd6 a1be 8a5d b93d
00000090: 19be 95bd 1389 0d3e 28a2 e33d df59 a1bd
000000a0: 16dd 69be 0624 48be ab1d 893e 70aa 8c3e
000000b0: df05 94be 8949 a6be 4203 8c3b 8233 403d
000000c0: bc40 0a3e f5a1 a63d dcd1 623e 56c1 44be
000000d0: ba4e 643d 651e da3d 5128 b33d 808d 04be
000000e0: 13c3 2abe e974 843e f443 af3e 48e0 9e3d
000000f0: 7b64 343e dfae 96bc 86a1 d3be 3947 1f3e
00000100: 6d68 84be af88 2bbe 41df d8bd 83c2 c9bd
00000110: 9546 9d3d dc39 61bc 4a0b acbe 3032 76be
00000120: 8d7d 9abe 15a6 6b3e 7dc9 69be 53c8 d9bc
00000130: e202 073e 19fa 823e 7d5e 39be 9880 263e
00000140: d746 92be 44fa 6e3c ee6f fabe b187 4cbe
00000150: ca4d 0bbe 821a 91be 2703 1fbe 61bd b43e
00000160: 47bb ad3e ec3e 7a3e b7d9 cdbd 30b1 3f3e
00000170: 6480 0f3e 3225 4ebd 9e2e 8a3e 061b 67be
00000180: 43c1 303e f173 a23e e3e6 e83d 210a 21bd
00000190: 77d2 f9bd 1b34 3abe bbc0 5cbe 5eeb febd
000001a0: f551 5e3e ef62 a5be 5807 183e 413c 1ebe
000001b0: ddec 82be f944 ae3e b161 babe c846 6a3e
000001c0: 7bbb 81be 1580 8abd 07f8 923d 65c8 6bbe
000001d0: 2d37 e43d f04b afbe cf6f 96be c6c4 16bd
000001e0: ad2a 05be 74fe 163e 8a9c 3dbd d963 53be
000001f0: 728c 173d b0d1 30be ed98 36be 8ec6 10be

rnn.weight_ih_l0 f4 [64, 128]
-0.25939482 0.09604342 0.07371662 0.29738536 -0.16525352 0.09446754 0.12179362 -0.0558969
0.25250083 -0.041346606 -0.04816313 0.09829335 0.2165395 0.007737923 -0.19468129 0.5126482
0.07811612 0.10567087 -0.0050559943 0.16919434 -0.13357937 0.021355405 0.20740885 0.14344923
-0.010102704 0.23530062 0.055794537 0.12066173 -0.27062604 -0.18419547 -0.2775335 0.16947678
0.12979282 0.20892538 0.16926304 0.026913825 0.17541912 -0.1755166 0.024007218 0.01849358
0.034833252 -0.028446453 -0.024170984 -0.12721528 0.1820324 -0.111872755 0.07994685 0.24418238
0.041234758 0.089102745 0.031882923 -0.123014875 0.17461576 -0.07985369 -0.13086121 0.022138946
0.2676461 0.20459606 0.1571308 -0.051352408 -0.13934991 -0.08738974 0.16733234 0.117437825
-0.28837898 0.12559435 0.037834283 -0.07310605 -0.25223392 0.07184237 0.3644095 0.2034532
0.41999575 0.18529995 0.20449148 0.06704955 -0.09094027 -0.19483079 -0.1548983 0.027374467
-0.25184733 -0.052885607 0.3887686 0.20753145 -0.20582272 -0.008331551 -0.4362135 -0.19174021
0.07910918 0.08886806 -0.15662579 -0.054887656 -0.14682603 -0.10161744 0.054038294 -0.06140326
0.15549755 0.074793346 0.04529858 0.17442547 0.113764405 -0.19740367 -0.3346986 0.12788738
-0.26224464 -0.086895786 -0.13340558 0.10380211 -0.24311948 -0.23532453 0.01562638 0.016950576
0.09976372 -0.13893244 -0.012672173 0.15534295 0.20073888 0.28161815 -0.04748713 -0.036501344
0.16847709 -0.050102606 -0.09160508 -0.17202711 0.22609133 -0.07094424 0.045637663 0.14405221
0.1439414 -0.025931226 0.07999892 -0.22470185 0.08394511 0.06539589 -0.012887798 -0.092756994
-0.11643158 -0.009792309 -0.22888047 -0.0152716255 0.30357414 -0.24710856 -0.083878204 -0.12653103
-0.22275166 -0.2184772 0.056103617 -0.053638846 0.08440679 0.18946162 0.12319889 -0.0025715735
-0.041944135 -0.055963553 0.24679136 -0.11389627 0.025731528 0.035768434 0.17092326 -0.102761656
-0.050359137 -0.5054029 -0.046938214 -0.28178412 0.1046448 -0.047446143 -0.17403239 0.09513128
-0.19374302 0.049144864 0.002963522 0.25088823 0.043905526 0.08525043 0.12442581 -0.3127114
0.29871294 0.19973186 -0.052916225 0.10780841 0.018136065 -0.28820053 -0.41593915 0.002895532
-0.2683612 0.1120628 0.08251929 -0.057861168 -0.017216085 0.07418635 -0.27808547 -0.23941155
0.6568338 -0.268707 -0.027228339 0.090060495 -0.09135496 -0.086434945 -0.3457274 -0.2937527
0.14497834 -0.0017577909 -0.19846664 -0.055697005 -0.0703144 -0.039809722 -0.09556898 0.4140915
0.09181512 -0.13358499 -0.16427879 -0.06850356 0.26041895 -0.15812847 0.03278023 -0.096602984
0.17451197 0.22523046 -0.29978013 0.07703504 -0.06460322 0.031116685 0.21946575 0.016193623
0.116398364 0.020044547 -0.16684838 0.11002966 -0.16654533 -0.23839404 0.10883397 -0.0042729243
0.19046941 0.04702368 -0.054171607 -0.06269551 0.18915825 -0.05799763 0.060346823 0.23807718
0.16925274 0.1367568 0.00526458 -0.15713133 0.1535421 -0.2710824 0.070520945 -0.10863091
-0.01615825 0.19250774 0.18116482 -0.08642347 -0.083751775 0.066714175 -0.022267796 -0.07406038
00000000: 66cf 84be 6ab2 c43d bdf8 963d e542 983e
00000010: 3838 29be 3378 c13d ef6e f93d 26f4 64bd
00000020: ca47 813e 0f5b 29bd b446 45bd 064e c93d
00000030: 88bc 5d3e 678e fd3b 885a 47be ea3c 033f
00000040: 58fb 9f3d f869 d83d c1ac a5bb 4841 2d3e
00000050: 08c9 08be 88f1 ae3c fc62 543e 5be4 123e
00000060: d085 25bc a5f2 703e d088 643d 7f1d f73d
00000070: 7f8f 8abe bd9d 3cbe df18 8ebe 528b 2d3e
00000080: 69e8 043e 89f0 553e 4a53 2d3e 627a dc3c
00000090: 12a1 333e a0ba 33be c9aa c43c d97f 973c
000000a0: 50ad 0e3d 8908 e9bc 3a02 c6bc b944 02be
000000b0: b466 3a3e 8b1d e5bd 2dbb a33d f20a 7a3e
000000c0: c7e5 283d 807b b63d ab97 023d 39ef fbbd
000000d0: 79ce 323e 558a a3bd 7b00 06be bc5c b53c
000000e0: e908 893e a181 513e e5e6 203e e756 52bd
000000f0: beb1 0ebe 64f9 b2bd 2b59 2b3e 3e83 f03d
00000100: 69a6 93be ce9b 003e 1ff8 1a3d a0b8 95bd
00000110: ce24 81be 1822 933d e293 ba3e 0956 503e
00000120: af09 d73e 45bf 3d3e 3766 513e 4651 893d
00000130: e43e babd b981 47be a99d 1ebe 6b40 e03c
00000140: 22f2 80be 949e 58bd ae0c c73e 2083 543e
00000150: 31c3 52be 0f81 08bc 6057 dfbe 8c57 44be
00000160: fe03 a23d 7500 b63d 8362 20be e1d1 60bd
00000170: 9059 16be ce1c d0bd 4257 5d3d fc81 7bbd
00000180: c03a 1f3e 412d 993d 018b 393d 979c 323e
00000190: 50fd e83d 3024 4abe 9d5d abbe e9f4 023e
000001a0: ee44 86be 6bf6 b1bd 799b 08be 3396 d43d
000001b0: 50f4 78be eaf8 70be e502 803c efdb 8a3c
000001c0: ec50 cc3d 4e44 0ebe f29e 4fbc 3912 1f3e
000001d0: 7e8e 4d3e 4130 903e dd81 42bd 6f82 15bd
000001e0: 4285 2c3e 6438 4dbd 729b bbbd e027 30be
000001f0: 7c84 673e 374b 91bd 8fee 3a3d 6c82 133e
00000200: 6065 133e b96d d4bc 79d6 a33d 3e18 66be
00000210: 6aeb ab3d 48ee 853d 5827 53bc 61f7 bdbd
00000220: ae73 eebd ec6f 20bc a45f 6abe d735 7abc
00000230: 126e 9b3e 070a 7dbe 56c8 abbd 5a91 01be
00000240: 0319 64be 7db8 5fbe e8cc 653d 68b4 5bbd
00000250: 78dd ac3d 3a02 423e b34f fc3d d887 28bb
00000260: 9dcd 2bbd 0a3a 65bd e0b6 7c3e 7342 e9bd
00000270: edca d23c ec81 123d 8206 2f3e b474 d2bd
00000280: 6245 4ebd 1662 01bf 4942 40bd 0246 90be
00000290: 0350 d63d e356 42bd 8c35 32be 30d4 c23d
000002a0: 9264 46be 204c 493d a637 423b 6c74 803e
000002b0: 48d6 333d c797 ae3d f6d2 fe3d b51b a0be
000002c0: e7f0 983e 8286 4c3e afbe 58bd a8ca dc3d
000002d0: 1692 943c 058f 93be faf5 d4be f7c2 3d3b
000002e0: a466 89be 2e81 e53d e0ff a83d d5ff 6cbd
000002f0: bf08 8dbc 03ef 973d 3861 8ebe 4d28 75be
00000300: 4326 283f f793 89be f70d dfbc a371 b83d
00000310: 4f18 bbbd ce04 b1bd 2f03 b1be c166 96be
00000320: 3475 143e ad65 e6ba d73a 4bbe 8b22 64bd
00000330: ff00 90bd 850f 23bd abb9 c3bd cd03 d43e
00000340: 9109 bc3d 81ca 08be b338 28be 984b 8cbd
00000350: a255 853e 6eec 21be 9044 063d c9d7 c5bd
00000360: 44b3 323e d0a2 663e c87c 99be 8cc4 9d3d
00000370: b14e 84bd 6be8 fe3c a1bb 603e 7da8 843c
00000380: 4462 ee3d 7634 a43c 4dda 2abe 3b57 e13d
00000390: dc8a 2abe 911d 74be 58e4 de3d e303 8cbb
000003a0: 6a0a 433e e79b 403d 0ce3 5dbd 8166 80bd
000003b0: b3b2 413e ec8e 6dbd 3b2e 773d 81ca 733e
000003c0: 9750 2d3e f909 0c3e 7f82 ac3b 09e7 20be
000003d0: 243a 1d3e 50cb 8abe 496d 903d e279 debd
000003e0: 4e5e 84bc c020 453e 4583 393e cafe b0bd
000003f0: 0d86 abbd 71a1 883d f46a b6bc f8ac 97bd

rnn.weight_hh_l0 f4 [64, 64]
-0.14826024 -0.013877803 -0.46612427 0.299792 0.09037665 -0.23526652 -0.4072702 -0.047925837
-0.13278323 0.3882263 0.2686845 0.02893578 0.15250029 -0.047033615 0.13209075 -0.13386707
-0.048325937 0.06106039 0.10619815 -0.30128622 0.03866069 0.003623189 0.08768638 0.20378232
-0.065726556 0.41636133 -0.028972447 0.015641943 0.14113835 -0.35651794 -0.063977644 -0.11249528
0.084308706 0.18761122 -0.020479288 -0.22639088 0.14667682 -0.3352181 0.22249219 -0.24371745
0.074449435 0.18529537 -0.34304205 -0.06669001 -0.1335482 0.043904558 0.12907173 -0.04582004
-0.1938616 0.23121367 -0.09545563 -0.17522475 0.1176777 0.23546663 0.4772013 0.11329249
0.08780452 -0.32445565 0.50884336 -0.21304783 -0.11559423 0.16435747 -0.0067824014 -0.23502411
-0.26755708 0.1359668 0.43480504 -0.09933749 -0.3982311 -0.30501404 -0.09172657 0.2744837
-0.36723343 0.16309205 0.077529706 -0.42762005 0.00086589734 -0.17557399 0.1426108 0.19125243
0.1477464 0.1524003 -0.01767548 -0.13374256 0.23266728 -0.07242474 -0.07149455 0.124634184
-0.01214183 0.08574868 0.07620281 0.20226914 -0.2965037 0.2129013 -0.31626683 0.04655801
-0.038911354 0.21442644 -0.1017393 -0.32794312 -0.14454629 -0.25574377 0.0483923 0.0021812685
0.29054487 -0.12854983 0.14798614 -0.41967583 0.08704221 -0.16016063 0.4147723 0.08234131
0.14734516 -0.03409578 0.043424867 0.045197528 0.33400443 -0.398326 -0.06561979 0.062647894
0.20988859 0.07506629 -0.12944402 -0.11141037 -0.016189635 -0.2608033 0.16040233 0.16960089
-0.11014473 0.016879445 0.38178527 0.10886706 0.3317995 -0.31083658 -0.20941317 0.2949888
-0.041296937 -0.18371472 0.08937756 -0.12943704 -0.21353987 -0.03738196 -0.008038961 0.025567219
-0.20711116 0.3102349 -0.091644 0.12629022 0.0784008 -0.10173405 -0.29473394 -0.16255052
-0.19504093 -0.0058862655 -0.31346262 0.07445658 -0.23216407 -0.13221338 -0.04434848 -0.17535771
0.12637115 0.26331636 -0.018726392 0.32481232 -0.14332579 -0.027606694 -0.5533324 -0.541946
-0.08724339 -0.06369322 0.3134841 -0.067810185 -0.21957116 0.22241123 -0.23541716 -0.0744892
0.15551575 -0.010972984 -0.118155695 0.21906638 0.027799409 0.05461745 -0.15978406 0.14322591
-0.21924445 -0.09910307 -0.346704 -0.095396325 0.3327939 -0.30194932 -0.13409236 -0.21801327
-0.30607268 0.07641982 -0.28541276 -0.09522301 -0.0695786 -0.23767601 0.12423427 -0.17324641
0.34312692 0.15831728 0.074330464 -0.21586889 0.54549176 -0.08728907 -0.081877336 0.20632112
-0.019205024 0.22974172 -0.1029409 0.09365124 0.17911991 -0.013182896 0.20452876 0.10495938
0.3557991 0.22264095 -0.20577198 0.0899016 0.005394177 -0.12640037 0.046293788 0.07913995
-0.09445467 0.047526877 0.05907172 -0.09105673 0.12451345 0.06588745 -0.2449544 0.0050956416
-0.3604524 0.11268657 -0.16571465 0.13762057 -0.07842131 0.052346397 0.057851613 0.06465064
-0.19307415 -0.07904496 0.075421125 0.34457907 -0.1609755 -0.28025764 -0.413493 0.102823816
0.020691166 -0.016416084 0.17323668 0.2392191 -0.038547438 -0.041737765 0.41728878 0.049385402
00000000: 88d1 17be ba5f 63bc d7a7 eebe 567e 993e
00000010: 6517 b93d b5e9 70be b885 d0be e24d 44bd
00000020: 54f8 07be 99c5 c63e 0491 893e bb0a ed3c
00000030: 0929 1c3e 52a6 40bd cc42 073e 7314 09be
00000040: 6bf1 45bd 761a 7a3d 6a7e d93d 3042 9abe
00000050: ac5a 1e3d 0673 6d3b eb94 b33d 50ac 503e
00000060: a59b 86bd 502d d53e a057 edbc 8823 803c
00000070: 9286 103e 8589 b6be b606 83bd ed63 e6bd
00000080: 0baa ac3d 281d 403e 2ec4 a7bc 03d3 67be
00000090: 7332 163e b5a1 abbe fed4 633e 1191 79be
000000a0: f278 983d 12be 3d3e 35a3 afbe c694 88bd
000000b0: dcc0 08be 44d5 333d 612b 043e cbad 3bbd
000000c0: a883 46be 47c3 6c3e 3e7e c3bd 1e6e 33be
000000d0: 0201 f13d 2a1e 713e bb53 f43e e505 e83d
000000e0: dbd2 b33d 0d1f a6be 8f43 023f 3629 5abe
000000f0: abbc ecbd 534d 283e e83e debb 29aa 70be
00000100: 3efd 88be e13a 0b3e c49e de3e 7471 cbbd
00000110: f2e4 cbbe cd2a 9cbe 24db bbbd 2189 8c3e
00000120: 0506 bcbe 9a01 273e e5c7 9e3d 04f1 dabe
00000130: 63fd 623a abc9 33be 9108 123e add7 433e
00000140: d54a 173e d30e 1c3e 2bcc 90bc cff3 08be
00000150: 5540 6e3e 6c53 94bd bc6b 92bd 3540 ff3d
00000160: 87ee 46bc 019d af3d 3810 9c3d a41f 4f3e
00000170: 55cf 97be cc02 5a3e baed a1be 9db3 3e3d
00000180: 8361 1fbd 9b92 5b3e b25c d0bd 29e8 a7be
00000190: f103 14be d9f0 82be 0137 463d 9df3 0e3b
000001a0: 4cc2 943e 91a2 03be ae89 173e c0df d6be
000001b0: 3043 b23d 2601 24be 095d d43e 90a2 a83d
000001c0: a6e1 163e 04a8 0bbd 46de 313d 0b21 393d
000001d0: a102 ab3e 63f1 cbbe ab63 86bd 8a4d 803d
000001e0: 09ed 563e 5bbc 993d f98c 04be 1f2b e4bd
000001f0: 20a0 84bc 0388 85be 8240 243e dbab 2d3e
00000200: 8f93 e1bd c346 8a3c 5c79 c33e b1f5 de3d
00000210: a0e1 a93e f925 9fbe 6870 56be c608 973e
00000220: fa26 29bd b61f 3cbe 950b b73d 258b 04be
00000230: 32aa 5abe d31d 19bd d9b5 03bc 5872 d13c
00000240: f314 54be 1cd7 9e3e d9af bbbd 3952 013e
00000250: 9990 a03d f159 d0bd 5ee7 96be a573 26be
00000260: cfb8 47be 93e1 c0bb 2c7e a0be b17c 983d
00000270: 6bbc 6dbe f262 07be c0a6 35bd f990 33be
00000280: 7067 013e 67d1 863e 1768 99bc cd4d a63e
00000290: ffc3 12be 6f27 e2bc 31a7 0dbf f9bc 0abf
000002a0: aaac b2bd 9771 82bd fd80 a03e 11e0 8abd
000002b0: 43d7 60be c5bf 633e 3211 71be cb8d 98bd
000002c0: 853f 1f3e 08c8 33bc 9dfb f1bd f052 603e
000002d0: 96bb e33c 8cb6 5f3d 6f9e 23be d0a9 123e
000002e0: 9e81 60be 8df6 cabd 3083 b1be 265f c3bd
000002f0: f663 aa3e 1a99 9abe 824f 09be df3e 5fbe
00000300: 8fb5 9cbe ff81 9c3d 9f21 92be 4804 c3bd
00000310: 3a7f 8ebd 5761 73be 896e fe3d 8267 31be
00000320: 55ae af3e ed1d 223e 923a 983d bc0c 5dbe
00000330: 59a5 0b3f 9dc4 b2bd 4eaf a7bd d845 533e
00000340: db53 9dbc 6a41 6b3e aed2 d2bd 39cc bf3d
00000350: 366b 373e 13fd 57bc fd6f 513e f2f4 d63d
00000360: 4d2b b63e fdfb 633e e4b5 52be 541e b83d
00000370: a3c1 b03b 196f 01be 8e9e 3d3d 2014 a23d
00000380: 7371 c1bd 8bab 423d 30f5 713d f37b babd
00000390: e800 ff3d 00f0 863d 54d5 7abe 57f9 a63b
000003a0: 388d b8be 37c8 e63d 1ab1 29be 68ec 0c3e
000003b0: 5a9b a0bd 2d69 563d d0f5 6c3d 8e67 843d
000003c0: 3bb5 45be 53e2 a1bd 6476 9a3d ab6c b03e
000003d0: c3d6 24be ee7d 8fbe 5bb5 d3be 4b95 d23d
000003e0: 8580 a93c 067b 86bc f564 313e daf5 743e
000003f0: ebe3 1dbd 38f5 2abd e0a6 d53e 5948 4a3d

rnn.bias_ih_l0 f4 [64]
-0.035915483 0.08949817 0.03957213 0.05357868 -0.0014407831 0.053191666 0.055970926 0.0206627
0.06743558 -0.037046697 -0.0046721706 0.028744638 0.102238744 -0.055964507 0.011850586 -0.0074401614
-0.03572254 -0.037722364 -0.03638551 0.03049764 0.011924789 -0.025292985 -0.03678048 -0.027517548
-0.06869225 0.022010962 -0.094798125 0.033252027 -0.03076864 0.035452366 -0.07784421 0.04645936
0.016587872 0.106759444 0.00501852 -0.026945816 0.072804034 -0.00052998157 -0.032686453 -0.03896237
0.041906234 0.020661104 0.0029763507 -0.0013924823 0.00059807114 -0.04479901 -0.0026244067 -0.009940807
-0.019901842 -0.008711632 -0.046615846 0.014049016 0.04485318 -0.024243861 0.0336193 0.029806525
0.05420397 -0.016023079 0.016725305 -0.06641517 -0.058371842 -0.06287857 0.06265213 -0.004179444
00000000: 1d1c 13bd d14a b73d 6316 223d 5175 5b3d
00000010: a9d8 bcba 81df 593d c541 653d d344 a93c
00000020: aa1b 8a3d 47be 17bd 0219 99bb e079 eb3c
00000030: 8c62 d13d 0a3b 65bd f628 423c 99cc f3bb
00000040: cc51 12bd c482 1abd f908 15bd 30d6 f93c
00000050: 3160 433c 3c33 cfbc 21a7 16bd 7b6c e1bc
00000060: 86ae 8cbd 5550 b43c 8525 c2bd 4733 083d
00000070: 840e fcbc 8036 113d c96c 9fbd 2b4c 3e3d
00000080: 4ae3 873c b2a4 da3d 6672 a43b 79bd dcbc
00000090: 481a 953d 76ee 0aba 3be2 05bd 0297 1fbd
000000a0: dfa5 2b3d 7a41 a93c e10e 433b f483 b6ba
000000b0: e0c7 1c3a 2b7f 37bd 3dfe 2bbb c4de 22bc
000000c0: 3009 a3bc 3cbb 0ebc 42f0 3ebd d82d 663c
000000d0: f8b7 373d 109b c6bc 64b4 093d d02c f43c
000000e0: fb04 5e3d d542 83bc 8203 893c ad04 88bd
000000f0: 5017 6fbd 7bc6 80bd c34f 803d b8f3 88bb

rnn.bias_hh_l0 f4 [64]
-0.035915475 0.08949816 0.039572127 0.05357867 -0.0014407795 0.053191647 0.055970922 0.02066271
0.06743556 -0.03704671 -0.004672176 0.028744642 0.10223878 -0.055964496 0.011850573 -0.00744014
-0.035722528 -0.037722368 -0.036385488 0.03049769 0.011924795 -0.025292985 -0.03678047 -0.027517539
-0.068692185 0.022010969 -0.094798096 0.033251997 -0.030768627 0.03545237 -0.07784422 0.04645933
0.01658786 0.1067594 0.005018517 -0.02694581 0.07280402 -0.00053000054 -0.032686442 -0.03896235
0.041906226 0.020661104 0.002976316 -0.0013924921 0.0005980688 -0.044798993 -0.0026244074 -0.009940816
-0.019901853 -0.008711627 -0.04661583 0.0140490085 0.044853225 -0.024243854 0.03361932 0.02980655
0.054203946 -0.016023073 0.016725313 -0.0664152 -0.05837182 -0.06287859 0.06265215 -0.0041794637
00000000: 1b1c 13bd d04a b73d 6216 223d 4f75 5b3d
00000010: 8ad8 bcba 7cdf 593d c441 653d d844 a93c
00000020: a81b 8a3d 4abe 17bd 0e19 99bb e279 eb3c
00000030: 9162 d13d 073b 65bd e828 423c 6bcc f3bb
00000040: c951 12bd c582 1abd f308 15bd 4bd6 f93c
00000050: 3760 433c 3c33 cfbc 1ea7 16bd 766c e1bc
00000060: 7dae 8cbd 5950 b43c 8125 c2bd 3f33 083d
00000070: 7d0e fcbc 8136 113d ca6c 9fbd 234c 3e3d
00000080: 44e3 873c aca4 da3d 5f72 a43b 76bd dcbc
00000090: 461a 953d bcef 0aba 38e2 05bd fc96 1fbd
000000a0: dda5 2b3d 7a41 a93c 4c0e 433b 4884 b6ba
000000b0: b8c7 1c3a 267f 37bd 40fe 2bbb cede 22bc
000000c0: 3609 a3bc 36bb 0ebc 3ef0 3ebd d02d 663c
000000d0: 04b8 373d 0c9b c6bc 69b4 093d de2c f43c
000000e0: f504 5e3d d242 83bc 8603 893c b104 88bd
000000f0: 4a17 6fbd 7dc6 80bd c54f 803d e2f3 88bb

rnn.weight_ih_l1 f4 [64, 64]
0.42847854 -0.083342694 -0.26232126 -0.22681642 -0.3303408 0.3231972 -0.18292335 0.069346435
0.04155147 0.100193754 0.26739034 -0.24314685 0.014509606 -0.28682804 0.22347195 0.11699722
-0.2813893 0.40131643 -0.38819638 0.15615292 0.21480319 0.06873791 -0.24764769 -0.050242435
0.047775194 0.022562247 0.0575909 -0.46872434 -0.10084156 0.20131877 -0.020536218 -0.09046613
-0.3788149 -0.08300136 0.010026493 0.23605509 0.095834434 0.13656057 0.20030954 0.19854604
-0.2598578 0.043084268 0.12864831 -0.0525399 0.027155455 -0.08554011 0.25975803 0.20204236
0.014535701 0.03526741 -0.275467 0.13487335 -0.026333077 0.054461144 0.1424546 0.049761824
-0.17035198 0.12463543 0.1308419 0.11709821 -0.24489512 -0.061377447 -0.015648093 0.056413658
0.11416689 -0.070649564 -0.3249071 0.17364314 0.0997149 0.2190926 -0.11598469 0.027091166
0.22080052 -0.025486514 0.041263744 0.16496158 -0.011543872 -0.03191398 -0.12324422 -0.027171586
-0.1792925 -0.08829721 0.04420706 -0.027090615 -0.14276393 0.20333058 -0.10437022 0.19702637
0.28507423 0.29711482 0.116625145 0.092150025 0.043227594 0.28402644 0.3127699 0.06469566
0.21384455 -0.26084968 0.3878495 0.19586962 -0.17506388 -0.22399814 -0.17922544 -0.0314077
-0.19656819 -0.37782565 -0.24001935 -0.2941554 0.28549236 -0.11670277 0.25726143 0.06548721
0.2617176 -0.070423484 0.013704413 -0.18088822 0.033728685 -0.3104242 0.12108764 0.090521686
0.13540894 0.23765685 -0.08339612 0.1676412 0.07641141 0.3336962 0.053386126 0.089428216
0.23262769 0.32600644 -0.30118757 -0.021449065 -0.036136754 0.22948769 0.299743 -0.2881024
0.13876733 0.047540627 -0.26376355 0.4056797 0.30758494 -0.22079562 -0.10287409 0.15800992
-0.34337646 -0.056417283 -0.108385 -0.06756853 -0.21853188 -0.2299247 -0.0052007665 0.123144664
-0.3322734 -0.18784176 0.12917854 0.26279438 0.15323532 0.28703243 -0.24345154 0.14569172
0.1954778 0.3202731 -0.2389338 -0.12089195 0.16150129 -0.08011241 0.15714934 0.30253795
-0.08665679 0.3125243 0.10735089 0.19142802 0.09979918 0.07145931 0.37700698 0.06624909
-0.03944557 0.0044204844 0.13387837 -0.1681832 0.2906617 -0.066543855 -0.028312692 0.20968944
-0.10643084 0.10218548 0.30256626 -0.19296047 -0.3116909 0.14644928 -0.17618926 -0.16124384
-0.10881158 0.15478173 0.1314229 0.18351336 -0.54087967 0.6864194 0.15579957 -0.19713938
0.11386835 -0.30635986 -0.23267171 -0.49531895 0.2903874 0.16887505 0.0742027 -0.34025788
0.109550126 0.21167074 -0.19547258 0.07318785 0.2344223 -0.06831361 0.008766341 0.15058625
-0.2123291 -0.21629034 0.4095594 -0.006425791 -0.35240895 0.14081913 -0.024789814 0.24896939
0.22694 -0.015138714 0.14237913 0.11583969 0.14018555 -0.16719028 -0.1424648 0.38457733
0.29631665 -0.27495873 -0.2847786 -0.05013502 0.23644322 -0.111710474 -0.06432484 0.042261615
0.07383674 -0.10057542 -0.054796312 -0.35244796 0.12998115 -0.12810442 0.35613304 -0.18908668
-0.09054929 -0.20648272 0.16774003 0.009545678 0.14358214 0.18461658 -0.09058098 -0.3227715
00000000: 8a61 db3e 93af aabd f94e 86be 9042 68be
00000010: 6e22 a9be 1a7a a53e 4250 3bbe 8105 8e3d
00000020: e031 2a3d 6232 cd3d 63e7 883e 7dfb 78be
00000030: b3b9 6d3c 20db 92be d5d5 643e 3d9c ef3d
00000040: 4212 90be 5979 cd3e adc1 c6be 8de6 1f3e
00000050: 5ef5 5b3e 76c6 8c3d 5b97 7dbe 03cb 4dbd
00000060: ecaf 433d 76d4 b83c 70e4 6b3d a3fc efbe
00000070: 0586 cebd 8226 4e3e 923b a8bc 4e46 b9bd
00000080: 07f4 c1be 9efc a9bd 2946 243c 6db8 713e
00000090: d844 c43d 89d6 0b3e f21d 4d3e a74f 4b3e
000000a0: 150c 85be 2179 303d 62bc 033e 1434 57bd
000000b0: 1e75 de3c a72f afbd 01ff 843e 31e4 4e3e
000000c0: 2627 6e3c 8f74 103d 030a 8dbe 3d1c 0a3e
000000d0: 77b8 d7bc a612 5f3d 9edf 113e 0ed3 4b3d
000000e0: c070 2ebe dc40 ff3d 6bfb 053e 30d1 ef3d
000000f0: c9c5 7abe eb66 7bbd 6e30 80bc 0212 673d
00000100: 55d0 e93d b8b0 90bd 395a a6be 82cf 313e
00000110: 5337 cc3d cf59 603e 6289 edbd 4bee dd3c
00000120: 8819 623e 18c9 d0bc 2c04 293d b0eb 283e
00000130: 8222 3dbc 3cb8 02bd 7767 fcbd f296 debc
00000140: 7498 37be 2bd5 b4bd 7612 353d 23ed ddbc
00000150: b530 12be e435 503e 0ec0 d5bd 48c1 493e
00000160: 40f5 913e 6f1f 983e 2ad9 ee3d 27b9 bc3d
00000170: 6b0f 313d ea6b 913e 6023 a03e 287f 843d
00000180: 11fa 5a3e 178e 85be 3694 c63e 0c92 483e
00000190: f243 33be c55f 65be e086 37be 5ca5 00bd
000001a0: 2c49 49be 5d72 c1be a2c7 75be 899b 96be
000001b0: 0e2c 923e dd01 efbd c5b7 833e 291e 863d
000001c0: d9ff 853e 303a 90bd 7988 603c c33a 39be
000001d0: 1727 0a3d ecef 9ebe ccfc f73d 6f63 b93d
000001e0: a4a8 0a3e 515c 733e 96cb aabd 22aa 2b3e
000001f0: 967d 9c3d 3ada aa3e 69ab 5a3d 2426 b73d
00000200: f435 6e3e 51ea a63e 4235 9abe f3b5 afbc
00000210: 2204 14bd d2fe 6a3e ea77 993e 2882 93be
00000220: 0619 0e3e f6b9 423d 040c 87be 40b5 cf3e
00000230: c67b 9d3e 3f18 62be a7af d2bd 5acd 213e
00000240: 0acf afbe cf15 67bd f4f8 ddbd 5f61 8abd
00000250: d2c6 5fbe 6171 6bbe 316b aabb 4533 fc3d
00000260: bd1f aabe 9759 40be 6147 043e fc8c 863e
00000270: b8e9 1c3e eaf5 923e 5c4b 79be 3630 153e
00000280: 552b 483e d6fa a33e 10ab 74be 3396 f7bd
00000290: 9860 253e fa11 a4bd c2eb 203e 41e6 9a3e
000002a0: 1d79 b1bd 2f03 a03e c9da db3d b505 443e
000002b0: 8363 cc3d 4259 923d 0f07 c13e 9aad 873d
000002c0: ae91 21bd b6d9 903b 6917 093e 3738 2cbe
000002d0: 9cd1 943e 2548 88bd 05f0 e7bc d4b8 563e
000002e0: 6af8 d9bd 9f46 d13d f7e9 9a3e 6e97 45be
000002f0: f395 9fbe cdf6 153e f56a 34be 1b1d 25be
00000300: 9bd8 debd 1a7f 1e3e ba93 063e edea 3b3e
00000310: 1777 0abf 2fb9 2f3f ec89 1f3e e8de 49be
00000320: cf33 e93d 33db 9cbe 7e41 6ebe 729a fdbe
00000330: a8ad 943e 95ed 2c3e 96f7 973d 4836 aebe
00000340: d15b e03d 37c0 583e f729 48be 83e3 953d
00000350: 660c 703e 02e8 8bbd b3a0 0f3c 4833 1a3e
00000360: cd6c 59be 377b 5dbe c5b1 d13e 718f d2bb
00000370: f26e b4be e432 103e 0214 cbbc d5f1 7e3e
00000380: f662 683e 5e08 78bc d6cb 113e 5c3d ed3d
00000390: cd8c 0f3e ee33 2bbe 4be2 11be 52e7 c43e
000003a0: d1b6 973e 64c7 8cbe 80ce 91be 615a 4dbd
000003b0: 2c1e 723e 76c8 e4bd bebc 83bd 841a 2d3d
000003c0: b737 973d 7cfa cdbd 1972 60bd 0f74 b4be
000003d0: c719 053e ce2d 03be 1257 b63e f09f 41be
000003e0: e871 b9bd 3570 53be 0bc4 2b3e 7a65 1c3c
000003f0: 3207 133e 210c 3d3e 8582 b9bd 4e42 a5be

rnn.weight_hh_l1 f4 [64, 64]
-0.12976474 0.24516992 0.075029746 -0.11223906 0.31624678 0.21223147 0.1920272 0.22188908
0.100932695 -0.00063064473 -0.19203763 0.12850535 -0.03752939 -0.087077826 0.15056084 -0.35726875
-0.18953793 -0.16370419 -0.013128038 -0.170345 -0.03372168 -0.07009817 0.10407844 -0.27700227
0.37084544 0.21877055 -0.26138166 0.10504856 0.10042485 0.021744294 0.10931743 -0.10450103
-0.026784977 -0.20293443 0.2789137 -0.13472635 0.26650852 0.1441069 0.41937634 0.06293215
0.105659746 -0.19728129 0.00664561 0.1605518 0.124339 -0.2237337 -0.085823454 0.27855134
0.11064564 0.3695437 0.15572871 -0.1630389 -0.17722316 0.22301278 -0.03667481 -0.017611755
-0.29336363 0.21301433 0.0773273 -0.35508302 0.0827028 0.035178408 0.14373386 -0.0972751
-0.1706844 -0.047862425 0.25478444 -0.07377148 -0.42458943 -0.25580186 0.11633416 0.39478275
0.45091873 0.194089 -0.05402501 -0.055342026 -0.09393654 -0.10702963 -0.034437384 0.20043933
0.07749132 -0.2109375 0.21851772 -0.13087001 -0.011497709 -0.11668626 0.24519487 0.14718126
-0.09034309 -0.023642553 0.00973464 -0.18687434 -0.32632875 -0.24749625 -0.04681194 -0.236378
-0.013945434 -0.07674731 0.11124199 -0.24462411 -0.15941226 0.08555654 -0.062830806 -0.101978645
-0.11645432 0.23475315 0.036101304 0.059383374 -0.05326264 0.38982254 0.11912996 -0.08688013
-0.18937671 -0.34190303 -0.253459 0.41258922 -0.14266391 0.27775526 0.15531786 -0.13244228
-0.03660391 -0.055755723 0.046405368 -0.10090299 -0.18294287 0.008842032 -0.23780242 0.007711725
0.14453535 -0.13876358 0.13635385 -0.2814219 0.35621992 0.22952752 0.3223429 0.064621076
-0.05731471 0.09401048 -0.16397117 -0.1895343 -0.18445998 0.28240755 0.009057891 -0.13700213
0.16591719 0.09037883 -0.23508853 0.08797995 0.19595943 -0.080815956 0.3734212 -0.00939701
0.12380546 0.22550009 0.0827773 -0.2426003 -0.24546419 0.09465975 0.1028527 -0.08055723
0.022664566 0.19737327 0.28459993 -0.05263689 -0.07864825 -0.23922935 -0.26405665 0.5062452
-0.17882295 0.19461846 0.29816732 -0.2829621 0.09872802 -0.12541771 0.15925103 0.020483833
-0.016523698 -0.13417706 0.106951706 0.08234572 -0.11753427 -0.12792602 -0.46830708 0.026707849
-0.0010084424 -0.030902602 -0.08654683 0.044557583 -0.051088486 -0.08916089 0.24596664 0.04577663
-0.010773713 -0.046073455 -0.28219467 0.097649164 0.11585521 -0.08348302 0.1967222 0.13390206
-0.059429314 -0.097572416 0.020904178 -0.094268344 0.08086959 -0.29635665 -0.15725726 -0.29282844
-0.09548504 -0.17655677 0.13131705 -0.48965883 -0.09914909 -0.5758543 -0.070210144 0.14532466
0.10908589 0.26629737 -0.046065886 0.108608805 -0.27889258 0.07325015 0.32344896 -0.09923274
0.49236947 0.21038423 -0.14624265 0.06816691 -0.17145301 0.095811576 0.10966869 0.26972774
-0.06603818 0.07897721 -0.008552586 -0.08664623 0.1253495 -0.19511318 -0.071892425 0.051899463
-0.40074572 0.13940139 -0.3226962 0.2113428 0.08162586 -0.33808815 0.3753243 -0.2507187
-0.13368079 0.018185562 -0.22277252 0.073715106 -0.009031963 0.02822387 -0.15099843 0.045190293
00000000: 0ce1 04be d30d 7b3e 32a9 993d 98dd e5bd
00000010: 19eb a13e 3553 593e c7a2 443e e436 633e
00000020: cdb5 ce3d da51 25ba 83a5 44be e896 033e
00000030: 6bb8 19bd dc55 b2bd 9f2c 1a3e eeeb b6be
00000040: 3b16 42be 12a2 27be fb16 57bc eb6e 2ebe
00000050: bf1f 0abd a18f 8fbd 1427 d53d 3ed3 8dbe
00000060: 74df bd3e 6305 603e d1d3 85be b323 d73d
00000070: 8bab cd3d 1721 b23c d1e1 df3d a304 d6bd
00000080: 2b6c dbbc 0bce 4fbe c7cd 8e3e b4f5 09be
00000090: ce73 883e c290 133e 7fb8 d63e 92e2 803d
000000a0: 2364 d83d 1b04 4abe 6bc3 d93b b167 243e
000000b0: 72a5 fe3d 721a 65be 35c4 afbd 489e 8e3e
000000c0: 2e9a e23d d534 bd3e 5977 1f3e abf3 26be
000000d0: fd79 35be 765d 643e 5338 16bd 8746 90bc
000000e0: c233 96be 6e20 5a3e c75d 9e3d 71cd b5be
000000f0: 1660 a93d 3c17 103d f82e 133e 2b38 c7bd
00000100: e4c7 2ebe 640b 44bd 1b73 823e 8015 97bd
00000110: c963 d9be 76f8 82be 9b40 ee3d f720 ca3e
00000120: d2de e63e 44bf 463e 5449 5dbd 52ae 62bd
00000130: cd61 c0bd 5a32 dbbd 370e 0dbd f83f 4d3e
00000140: c5b3 9e3d 0000 58be 1cc3 5f3e ca02 06be
00000150: e360 3cbc 35f9 eebd 5d14 7b3e afb6 163e
00000160: cc05 b9bd 07ae c1bc 0a7e 1f3c fd5b 3fbe
00000170: 9014 a7be a86f 7dbe e0bd 3fbd 130d 72be
00000180: 647b 64bc b22d 9dbd d7d2 e33d be7e 7abe
00000190: f83c 23be 4438 af3d 70ad 80bd 2eda d0bd
000001a0: 9a7f eebd 2163 703e f6de 133d fb3b 733d
000001b0: ed29 5abd d296 c73e 69fa f33d 36ee b1bd
000001c0: f8eb 41be ea0d afbe 61c5 81be e53e d33e
000001d0: 7d16 12be f035 8e3e a50b 1f3e f39e 07be
000001e0: fbed 15bd 1d60 64bd 8e13 3e3d 3aa6 cebd
000001f0: 6055 3bbe 2cde 103c 7a82 73be a3b2 fc3b
00000200: 1301 143e 0a18 0ebe 58a0 0b3e 8816 90be
00000210: 7562 b63e 4309 6b3e 210a a53e 0e58 843d
00000220: d4c2 6abd 9188 c03d 0fe8 27be 4815 42be
00000230: 14e3 3cbe b997 903e 8c67 143c 494a 0cbe
00000240: 32e6 293e 8918 b93d 0cbb 70be d52e b43d
00000250: 97a9 483e d682 a5bd 1031 bf3e ebf5 19bc
00000260: b88d fd3d 7fe9 663e 2587 a93d 376c 78be
00000270: f75a 7bbe f9dc c13d 70a4 d23d 30fb a4bd
00000280: 0aab b93c 381c 4a3e 15b7 913e c899 57bd
00000290: 5512 a1bd 8af8 74be 6f32 87be 4999 013f
000002a0: 5d1d 37be 104a 473e 63a9 983e 69e0 90be
000002b0: eb31 ca3d 806d 00be b412 233e b6cd a73c
000002c0: b55c 87bc b665 09be 7f09 db3d dfa4 a83d
000002d0: cfb5 f0bd 0aff 02be f2c5 efbe 6bca da3c
000002e0: b62d 84ba 7427 fdbc 773f b1bd 0382 363d
000002f0: 2942 51bd fc99 b6bd aede 7b3e 4780 3b3d
00000300: 3a84 30bc 85b7 3cbd d27b 90be 49fc c73d
00000310: 7f45 ed3d 25f9 aabd 8b71 493e 9f1d 093e
00000320: 276c 73bd 0cd4 c7bd 3d3f ab3c c30f c1bd
00000330: f59e a53d 0fbc 97be 0c08 21be 9ced 95be
00000340: a98d c3bd 4ccb 34be fa77 063e 90b4 fabe
00000350: ae0e cbbd 306b 13bf 56ca 8fbd fdcf 143e
00000360: 6c68 df3d 2158 883e 95af 3cbd 4b6e de3d
00000370: 02cb 8ebe 2d04 963d 1a9b a53e 893a cbbd
00000380: da17 fc3e f76e 573e a2c0 15be 189b 8b3d
00000390: 6191 2fbe dc38 c43d fa99 e03d c119 8a3e
000003a0: 063f 87bd cebe a13d 2520 0cbc 9473 b1bd
000003b0: 9f5b 003e c0cb 47be 563c 93bd 8894 543d
000003c0: 8b2e cdbe 3dbf 0e3e 7038 a5be 3f6a 583e
000003d0: 752b a73d e419 adbe 822a c03e 345e 80be
000003e0: 9ee3 08be e3f9 943c 7b1e 64be f2f7 963d
000003f0: ccfa 13bc bf35 e73c 559f 1abe 7519 393d

rnn.bias_ih_l1 f4 [64]
0.0051620444 0.007955056 0.06068918 0.03671002 0.10355083 0.07122215 -0.052089788 -0.13007875
-0.060643416 -0.013946393 0.015395328 -0.084647305 0.057666928 -0.009782517 0.052075163 0.010049988
-0.05320052 0.007075448 -0.037478033 0.0022932712 0.0027851814 0.069905244 0.0110352915 -0.040430903
0.10004997 0.06106661 0.12202999 0.03291119 0.038611773 -0.072758615 -0.03183753 -0.0063554365
0.07575758 -0.025417456 0.0064765755 0.0316726 0.11330918 0.0538867 0.046301838 0.045031216
-0.1028609 -0.047885407 -0.038853306 0.043653466 -0.03570773 0.013037291 0.04044804 0.06577876
0.0071849464 0.028451014 0.007848238 0.023995407 -0.023120271 0.060074143 -0.008853114 -0.11363517
0.023520483 -0.016937748 0.029233282 -0.0441586 -0.14297563 0.0507857 -0.011173549 0.05927904
00000000: 5e26 a93b ec55 023c 3895 783d 3f5d 163d
00000010: 7512 d43d ebdc 913d 1a5c 55bd 5d33 05be
00000020: 3b65 78bd 697f 64bc b03c 7c3c 915b adbd
00000030: 2834 6c3d da46 20bc c44c 553d b4a8 243c
00000040: cae8 59bd 29d9 e73b 9182 19bd b54a 163b
00000050: 9787 363b 7b2a 8f3d 5ecd 343c e09a 25bd
00000060: 00e7 cc3d fb20 7a3d dcea f93d e2cd 063d
00000070: 6127 1e3d 7802 95bd 1268 02bd 4441 d0bb
00000080: ca26 9b3d 4538 d0bc 7439 d43b 21bb 013d
00000090: a50e e83d 4db8 5c3d ffa6 3d3d a772 383d
000000a0: bca8 d2bd 7d23 44bd a524 1fbd facd 323d
000000b0: 4542 12bd 5d9a 553c d8ac 253d 04b7 863d
000000c0: b36f eb3b 1a12 e93c e595 003c 0492 c43c
000000d0: b966 bdbc 4e10 763d a70c 11bc 8eb9 e8bd
000000e0: 07ae c03c 08c1 8abc a37a ef3c a6df 34bd
000000f0: 3468 12be ab04 503d 4311 37bc 94ce 723d

rnn.bias_hh_l1 f4 [64]
0.005162052 0.007955045 0.060689174 0.036710013 0.10355081 0.07122214 -0.052089803 -0.13007872
-0.060643423 -0.0139463805 0.015395325 -0.084647335 0.05766693 -0.0097825285 0.052075166 0.01005
-0.053200535 0.0070754467 -0.037478045 0.0022932566 0.0027851644 0.069905244 0.011035287 -0.040430907
0.10004993 0.06106657 0.12202999 0.03291122 0.038611777 -0.07275862 -0.031837508 -0.006355423
0.07575756 -0.025417453 0.00647658 0.03167259 0.11330922 0.05388671 0.046301868 0.045031212
-0.10286095 -0.047885437 -0.03885334 0.043653443 -0.035707735 0.013037301 0.04044805 0.06577876
0.0071849455 0.028451044 0.007848221 0.02399542 -0.023120275 0.06007415 -0.008853123 -0.11363521
0.023520464 -0.016937766 0.02923329 -0.044158615 -0.14297567 0.050785676 -0.011173551 0.059279017
00000000: 6e26 a93b e155 023c 3695 783d 3d5d 163d
00000010: 7212 d43d eadc 913d 1e5c 55bd 5b33 05be
00000020: 3d65 78bd 5c7f 64bc ac3c 7c3c 955b adbd
00000030: 2934 6c3d e646 20bc c54c 553d c1a8 243c
00000040: cee8 59bd 26d9 e73b 9482 19bd 764a 163b
00000050: 4e87 363b 7b2a 8f3d 59cd 343c e19a 25bd
00000060: fae6 cc3d f120 7a3d dcea f93d eacd 063d
00000070: 6227 1e3d 7902 95bd 0c68 02bd 2741 d0bb
00000080: c826 9b3d 4338 d0bc 7e39 d43b 1ebb 013d
00000090: aa0e e83d 50b8 5c3d 07a7 3d3d a672 383d
000000a0: c3a8 d2bd 8523 44bd ae24 1fbd f4cd 323d
000000b0: 4642 12bd 679a 553c dbac 253d 04b7 863d
000000c0: b16f eb3b 2a12 e93c d395 003c 0b92 c43c
000000d0: bb66 bdbc 5010 763d b00c 11bc 94b9 e8bd
000000e0: fdad c03c 12c1 8abc a77a ef3c aadf 34bd
000000f0: 3768 12be a404 503d 4511 37bc 8ece 723d

norm.weight f4 [64]
0.9510448 0.9964856 0.8553868 1.2319378 1.2465091 1.2917126 0.9580329 1.0758415
1.073536 1.0152338 1.0888053 1.0611212 1.0659788 0.96706367 1.0363886 0.9742061
1.012811 1.0536053 0.9731346 1.085805 1.0280727 1.1734695 1.049278 1.1100427
1.030157 0.9432841 1.0410225 1.1362805 0.9736122 0.94642925 0.96908224 1.2958184
1.0400413 1.0866742 0.9648954 1.0233508 1.0003078 1.0648011 0.94272923 1.1017994
1.20038 1.0944593 1.166921 1.1915523 0.9122063 1.109705 0.9172659 1.1413325
1.0016415 1.0501286 1.0013182 1.0049589 1.2082406 1.1482353 0.86965466 1.0017692
0.93474853 1.1110338 1.1876584 0.94918317 0.9751991 1.1257186 0.987932 0.85802966
00000000: ac77 733f ae19 7f3f a1fa 5a3f 23b0 9d3f
00000010: 9c8d 9f3f d756 a53f a541 753f 2db5 893f
00000020: a169 893f 2ef3 813f f95d 8b3f d2d2 873f
00000030: fe71 883f 7c91 773f 62a8 843f 9265 793f
00000040: caa3 813f 8adc 863f 591f 793f a9fb 8a3f
00000050: e397 833f 4034 963f be4e 863f e115 8e3f
00000060: 2fdc 833f 117b 713f 3a40 853f a471 913f
00000070: a63e 793f 3049 723f c615 783f 61dd a53f
00000080: 1320 853f 2418 8b3f 6303 773f 29fd 823f
00000090: 160a 803f 674b 883f b456 713f c307 8d3f
000000a0: 0da6 993f 3e17 8c3f ab5d 953f c984 983f
000000b0: 5a86 693f d00a 8e3f f0d1 6a3f 2f17 923f
000000c0: ca35 803f 9d6a 863f 322b 803f 7ea2 803f
000000d0: a1a7 9a3f 60f9 923f b0a1 5e3f f939 803f
000000e0: ae4b 6f3f 5b36 8e3f 3105 983f abfd 723f
000000f0: a6a6 793f 8c17 903f 1de9 7c3f d5a7 5b3f

norm.bias f4 [64]
-0.034536257 -0.025652308 -0.048746396 -0.054699242 0.03552789 -0.072986275 0.05359156 -0.028879486
0.047179576 -0.042955168 -0.00794965 -0.019933887 0.02274133 0.1226381 0.020024415 0.005474974
-0.02296541 0.023251014 -0.016291017 -0.013622063 0.025287213 -0.057226297 0.02480038 0.0023895411
-0.0295026 -0.12870432 0.009834403 0.07666704 0.028378438 -0.01666709 -0.05837318 -0.07620641
-0.009547511 0.044051286 0.010538071 -0.016341776 0.0072877584 0.018963536 -0.031014604 -0.08692683
-0.013977404 0.05698732 0.045030802 0.014783308 0.028823253 0.013178522 0.08263351 -0.010995316
0.03236233 0.027619125 -0.0104140835 -0.05845951 -0.0382998 -0.052855954 0.066132 0.011601136
0.056449175 0.054721255 -0.029020747 0.09136817 0.010907641 -0.029148234 -0.004060621 -0.049985226
00000000: e475 0dbd ca24 d2bc 4daa 47bd 500c 60bd
00000010: b185 113d d479 95bd d382 5b3d ac94 ecbc
00000020: 5f3f 413d c2f1 2fbd 403f 02bc 644c a3bc
00000030: 074c ba3c af29 fb3d 3e0a a43c 6967 b33b
00000040: f521 bcbc e978 be3c bd74 85bc 132f 5fbc
00000050: 2127 cf3c 1f66 6abd 2b2a cb3c d999 1c3b
00000060: 70af f1bc 11cb 03be 7a20 213c 9c03 9d3d
00000070: e679 e83c 6c89 88bc b718 6fbd 1b12 9cbd
00000080: 2a6d 1cbc 1f6f 343d e0a7 2c3c 30df 85bc
00000090: 26ce ee3b 6b59 9b3c 5712 febc b206 b2bd
000000a0: 7b01 65bc 896b 693d 3872 383d b035 723c
000000b0: be1e ec3c baea 573c c23b a93d b325 34bc
000000c0: 5d8e 043d 8141 e23c d59f 2abc 3d73 6fbd
000000d0: 40e0 1cbd 7c7f 58bd 3770 873d b112 3e3c
000000e0: 4037 673d 6523 603d ebbc edbc 3c1f bb3d
000000f0: f6b5 323c 47c8 eebc f50e 85bb 4fbd 4cbd

fc_actor.weight f4 [1, 64]
0.10393397 -0.14403686 0.11746053 -0.32514462 0.3682395 -0.3981339 -0.007953097 -0.22891654
0.2229354 -0.13312906 0.2289435 -0.21329868 0.16984153 0.10872326 0.095469035 0.09856942
-0.1697396 0.19105038 -0.1308964 -0.16623531 0.17157924 -0.36993402 0.23667021 0.23168552
-0.12423201 -0.11510741 0.21871081 0.28615695 0.13217026 -0.09276115 -0.16002795 -0.35910484
-0.0074844435 0.21483576 0.048162628 -0.20068541 0.09204563 0.18777908 0.11298972 -0.22219539
-0.32541838 0.23468488 0.36391696 0.3658365 -0.0017333821 0.22813348 0.02207306 0.26028842
0.16704331 -0.24008785 0.084237635 -0.052315943 -0.34052736 -0.310378 -0.08232149 -0.13504088
-0.004403835 0.31231135 -0.30779687 0.1076212 -0.09864319 0.23419327 -0.08429614 0.045246672
00000000: 55db d43d 667e 13be 258f f03d 5b79 a6be
00000010: e389 bc3e 35d8 cbbe b54d 02bc 1969 6abe
00000020: 2d49 643e fc52 08be 2a70 6a3e f86a 5abe
00000030: f0ea 2d3e 4daa de3d 4585 c33d c4de c93d
00000040: 38d0 2dbe b6a2 433e b509 06be 9739 2abe
00000050: 78b2 2f3e fe67 bdbe ad59 723e f83e 6d3e
00000060: 5a6d febd 6fbd ebbd baf5 5f3e 2a83 923e
00000070: a457 073e 8ff9 bdbd 5ede 23be 97dc b7be
00000080: 1040 f5bb e8fd 5b3e 2d46 453d 7a80 4dbe
00000090: 6b82 bc3d 2949 403e 2867 e73d 3087 63be
000000a0: 3d9d a6be 3c51 703e 5353 ba3e ec4e bb3e
000000b0: a732 e3ba d39b 693e 90d2 b43c 8644 853e
000000c0: 670d 2b3e 97d9 75be c884 ac3d 3e49 56bd
000000d0: 9a59 aebe dde9 9ebe 2b98 a8bd 2848 0abe
000000e0: 0c4e 90bb 46e7 9f3e 8d97 9dbe 8168 dc3d
000000f0: 7105 cabd 5cd0 6f3e 74a3 acbd 9354 393d

fc_critic.weight f4 [1, 64]
-0.06449376 -0.088338725 -0.031808823 0.06642813 -0.02384911 0.005595224 0.11481725 0.046659652
-0.054294445 0.012970409 -0.08913187 0.032142878 0.071961194 0.06893842 0.11845673 0.07930267
-0.049013317 0.03133435 0.03939831 -0.019371636 0.03706188 -0.06420043 -0.0019474573 -0.10357823
0.11557205 -0.004149735 -0.019952927 -0.009405345 0.11202573 0.03896827 -0.07619653 -0.02306223
0.16947314 0.14602932 -0.118160725 0.09239404 0.09021802 -0.15129769 0.00977142 -0.079584464
0.12662321 -0.07134274 -0.04393541 -0.14604881 -0.055966247 -0.12616827 0.06025021 -0.12920026
-0.09708894 0.07007407 -0.09881628 -0.15558352 0.0015493382 0.067031994 0.020869473 0.056463897
0.08049214 0.02092535 -0.048162375 -0.0018803916 -0.10321423 -0.15073851 -0.10899306 0.007273339
00000000: 4e15 84bd efea b4bd f849 02bd 790b 883d
00000010: 355f c3bc 2458 b73b 4e25 eb3d 311e 3f3d
00000020: da63 5ebd d781 543c c58a b6bd 40a8 033d
00000030: 6460 933d 962f 8d3d 7199 f23d 7069 a23d
00000040: 30c2 48bd 7358 003d 1f60 213d 44b1 9ebc
00000050: 33ce 173d 847b 83bd d341 ffba d320 d4bd
00000060: 0ab1 ec3d 80fa 87bb 5274 a3bc e018 1abc
00000070: bf6d e53d 319d 1f3d ed0c 9cbd 00ed bcbc
00000080: 5e8a 2d3e b688 153e 40fe f1bd 1639 bd3d
00000090: 3ac4 b83d c8ed 1abe 4e18 203c 2efd a2bd
000000a0: 84a9 013e 241c 92bd 9ef5 33bd d28d 15be
000000b0: dd3c 65bd 4132 01be edc8 763d 134d 04be
000000c0: 91d6 c6bd fe82 8f3d 3160 cabd 4951 1fbe
000000d0: 2a13 cb3a 1248 893d 75f6 aa3c b046 673d
000000e0: 10d9 a43d a46b ab3c e945 45bd 7977 f6ba
000000f0: fb61 d3bd 325b 1abe c137 dfbd 3155 ee3b
