MLP_Closing/MLP_model_cp_GOOD.pth (torch, 12134 bytes, 4 tensors)

w1 f4 [5, 64]
00000000: 9db6 063a 9458 40bb 2de7 e83d 5edc 0fbe
00000010: c3c2 96bb 45f8 c6bd 431c 0ebb f1b8 4ebb
00000020: a463 c03d ac6b 31bb 1f36 1fbb da25 493d
00000030: f717 aabd 98a0 d739 9d6c b53d 4425 4c3d
00000040: 1cbd ef3c a983 893e c192 22bd 0342 44bb
00000050: cc07 1fbe 3e07 80bd 5b68 66be 426c 033a
00000060: 98b7 973d 8590 66bb 8672 8fbb b6e2 f8bc
00000070: 60b2 d4ba 5011 9dbd eee0 01bb 3935 2ebd
00000080: ecd3 c2ba 6cc9 b73d b2c2 07be fee8 72ba
00000090: d611 1b3d fd2c 5ebc d947 033e eced ab3d
000000a0: 96b2 81bd 33e3 d1bd de23 143e 188f 10ba
000000b0: 4c48 87bb fc60 46ba af5d 00ba 9098 10bb
000000c0: 7fce 7d3c 91d7 10bb 63fa 0fbd 8e69 34bd
000000d0: 50e1 933d b2e6 6fbb 1a34 91b9 2950 163a
000000e0: 6372 df3d 6878 033e 7047 91bd c3c2 073e
000000f0: 3bac 59bd 4c4c 17bd e08f ef3d 7a03 2fbe
00000100: d9ed 3d3a 2bb8 67b9 24d1 93bc 75c9 1a3d
00000110: 35a7 35ba 3022 d2bd e7f2 71ba 8a79 4bba
00000120: fe07 913c dcc0 4cba 5249 483a 4c87 193c
00000130: f26c b6bd 7b5c 333b de78 8a3d 93f7 db3b
00000140: 2ecf dc3b 6df0 3f3d da9d 71bd a8de 44ba
00000150: 4b65 d0bc 3c7e e739 7c13 7439 2022 323a
00000160: 5688 983b 7fcf 7139 2ef6 26ba 033d 5f3e
00000170: a341 b4b9 e391 a5bd 245e f637 7805 0abe
00000180: 5e37 d6b9 6f5c ce3d 3e91 c9bd d455 9b3a
00000190: ebe1 ab3c 48c5 b4bb f2aa 4abc 5eb4 e23c
000001a0: d270 983b 8151 703d 08eb f2bb 4640 953a
000001b0: 1fdc 02bb 749d f83a a2bf 3dba 4b66 82b8
000001c0: 823e 943a 0641 453e 1021 16bd 97b6 1bbd
000001d0: 778c 573c f233 88ba 0a17 993a 6b10 043b
000001e0: 1dfd 833d 03d1 e53c 0233 153c 2e64 3abd
000001f0: af45 c43d 8e2a df3d 1fe0 3339 9eee 6f3d
00000200: 0a95 c3b9 3f8c feba 3751 a33d a128 ea3d
00000210: 71a2 2abb 78e9 85bd 43cf 90ba 8512 8eba
00000220: 881b 35bb 771a 00ba 529c 1fba d17a e73c
00000230: f581 96bd 59aa 5739 dd01 193d 257a 843c
00000240: 789a f73b 631e 02bd cbdd 75bd 394e 06bb
00000250: f419 473e 4e72 663b 6116 3a3e 48ff 6eba
00000260: e0e4 593d 9224 0bba 829c 66bb ad8a df3b
00000270: 69d4 2aba 9817 81bd 8e34 b7ba a795 6cbd
00000280: 2a67 063a f251 a63c a0a3 0cbd 4568 373b
00000290: 7a1b 153c 7f8e 09b9 5e02 7cbd eab4 f13d
000002a0: ad69 563d 5d51 e43d 5efa edbd 02cc 8f3a
000002b0: 0aa7 74ba 6b16 83ba 6b6f 5aba d122 e8ba
000002c0: 6f9f 2ebc 54d1 453d 9d1f 35bd 39ce debb
000002d0: e924 09bd b187 a5ba dde4 88ba 9024 3339
000002e0: d387 49be 81b5 3ebd 2e2f ea3d 17fe e9bd
000002f0: 4275 cfbd 81ab f73c e3d3 113c fa74 dd3d
00000300: f1e3 283a c72f 913a 5132 e73c 61f1 03bd
00000310: 948e 51bb 5bed 013d 529b 4f3a a4f4 963a
00000320: 300a 16be dbce 5f3a 67bd 1d3a cec6 413d
00000330: c091 973b 9369 703a 4d83 333d 2eba 48bd
00000340: df00 f6bc 6101 d6bd 9339 2d3e c2a7 a43a
00000350: 505c 7a3d ad84 3d3d 8f4b 133e 08d3 15ba
00000360: 10b4 093d 7a91 cb3a c219 4abb 828d 983c
00000370: affe 4b3a 6fbc a03c 70c7 c639 e312 a0bd
00000380: fd8e 89ba 725b 2fbc 8743 6abd a9f5 573b
00000390: 8a3b 24bd 7240 353a 202a a9bc 4220 3fbd
000003a0: 008d 4e3d 2d05 b23d b1ff ac3c c5cc fe39
000003b0: 2d3a 563a 5656 ddba e407 4cba 6123 c439
000003c0: c8e8 71b9 548b e33c 19ec febb 317c ad3a
000003d0: 8c33 eabd 74af 983a 2f70 5fba 2dac 87ba
000003e0: a7f7 39bd ef26 1dbe 5570 803d 3adc 523c
000003f0: 7dc8 5fbc ca49 e63d 2602 23be fb45 a63d
0.0005138906 -0.0029349672 0.11372218 -0.14048907 -0.004600854 -0.097153224 -0.0021684326 -0.003154334
0.09394005 -0.0027072234 -0.0024293733 0.049108364 -0.08305352 0.00041127647 0.08858607 0.049840227
0.029264979 0.2685826 -0.039690737 -0.0029946573 -0.15530318 -0.06251381 -0.22500746 0.0005013385
0.074080646 -0.0035181355 -0.004377666 -0.030381542 -0.0016227476 -0.07669318 -0.0019817906 -0.042531226
-0.0014864183 0.08973965 -0.13257864 -0.0009266286 0.037858807 -0.013560531 0.12820376 0.08394989
-0.06332891 -0.10248413 0.14466807 -0.00055144867 -0.0041284915 -0.00075675524 -0.00048967724 -0.002206359
0.015491127 -0.0022101144 -0.035150897 -0.044045977 0.07220709 -0.003660601 -0.00027695374 0.00057339907
0.109104894 0.128389 -0.07093704 0.1325789 -0.053142767 -0.036937997 0.11697364 -0.1709117
0.000724522 -0.00022098485 -0.018044062 0.03778978 -0.0006929518 -0.10260427 -0.00092296157 -0.0007761946
0.017704006 -0.00078107207 0.000764032 0.009370636 -0.089074984 0.0027368355 0.06761335 0.0067128628
0.006738565 0.046860147 -0.05898843 -0.0007509985 -0.025438925 0.00044153805 0.00023276912 0.0006795246
0.0046549244 0.0002306085 -0.0006369081 0.21800618 -0.0003438118 -0.08084466 2.9369323e-05 -0.13478649
-0.00040858513 0.10076224 -0.09842156 0.001185114 0.02098175 -0.005516682 -0.012369858 0.027673896
0.004652121 0.05867148 -0.007413272 0.0011386953 -0.0019967628 0.0018967823 -0.00072383333 -6.2179366e-05
0.0011310133 0.19263086 -0.036652625 -0.038015928 0.013156048 -0.0010391457 0.001167984 0.0020151387
0.06444762 0.028053766 0.0091063995 -0.045505695 0.095836036 0.108967885 0.00017154262 0.058577172
-0.0003730434 -0.0019420459 0.07974475 0.114335306 -0.0026036764 -0.06538671 -0.0011048097 -0.001083926
-0.0027634818 -0.0004886756 -0.0006088662 0.028256806 -0.07349006 0.00020567457 0.037355293 0.016171524
0.007556256 -0.03176726 -0.06002597 -0.0020493402 0.19443494 0.0035163346 0.181726 -0.00091170194
0.053196788 -0.00053078786 -0.00351885 0.0068219514 -0.0006516637 -0.06303328 -0.0013977455 -0.057759907
0.0005127067 0.020302746 -0.034335732 0.0027985733 0.009100789 -0.00013118422 -0.061525695 0.11802085
0.052346874 0.11148331 -0.116200194 0.0010970833 -0.0009332752 -0.0010001188 -0.00083326426 -0.0017710571
-0.010658129 0.048295334 -0.044219602 -0.006799486 -0.033482466 -0.001262894 -0.0010444183 0.00017084391
-0.19680719 -0.046559814 0.1143478 -0.11425417 -0.10129787 0.030233147 0.008900615 0.10813327
0.00064426573 0.0011076861 0.028222235 -0.03221262 -0.0031975852 0.0317205 0.0007919568 0.0011517
-0.14652324 0.0008537599 0.0006017298 0.047308736 0.004625529 0.0009171005 0.04382639 -0.04900568
-0.030029712 -0.10449482 0.16916494 0.0012562203 0.061123192 0.046269108 0.14384292 -0.0005715345
0.033618987 0.0015531026 -0.0030838107 0.018622164 0.0007781786 0.019621102 0.00037914095 -0.07816102
-0.0010494884 -0.010702955 -0.057193305 0.0032952821 -0.040095843 0.0006914205 -0.02064997 -0.046661623
0.050427437 0.086923935 0.021118017 0.0004859922 0.0008172121 -0.0016886692 -0.0007783158 0.00037410393
-0.00023070269 0.027776398 -0.00777961 0.0013235864 -0.11435613 0.0011648969 -0.00085234916 -0.0010350995
-0.045402195 -0.15346883 0.06271426 0.012869889 -0.01365864 0.11244543 -0.15918788 0.081188165

w2 f4 [64, 32]
00000000: 002a 8fba 1a0e 19b7 7fd3 db05 41cd 3f1a
00000010: be95 6fba 647f 53ba e831 5721 6ed8 9dba
00000020: 20cd 28ba 481b 710b aa3d 508d 9aa1 032d
00000030: 043b 8521 52c2 e7ba fa4b 8c35 6aff a41b
00000040: f49a 889c 732b 0a80 18a7 b0ba e466 7bb2
00000050: 437c 9434 4291 4dbb 9fc7 3400 a0f6 93b8
00000060: acb0 302b e6f9 baba d0db 04bb e477 33bb
00000070: b045 6633 7bce ad00 b589 10bb bc8a 8a00
00000080: a832 99ba 8f81 5138 32f3 a306 a518 079b
00000090: 0170 683a 3f89 f039 3cb9 3c21 424e f339
000000a0: b816 c737 46ee 100a c9df 318d c697 c6b4
000000b0: 9f09 0faa 2235 5cbb 0583 48b6 c4f9 109b
000000c0: 14e8 b19a 48c8 0700 b13f 8f3a 704c 32b2
000000d0: 88f4 80b5 5a0b 33bb 5794 5202 5d87 173b
000000e0: edf8 34ad 492b 043b 91dc d23a 1536 d33a
000000f0: 6cfc 2031 c0ce 7700 6f08 29bb 3925 1800
00000100: a206 51bd b6ab 7e3d ecb2 fe87 9b25 ed24
00000110: fa2f d2bd 9887 8dbb df3e 1621 d498 98bc
00000120: 341f 03bc 36fe b61a 2846 a70e f5af c536
00000130: d575 3db4 e0e8 c9bc a6fc a3b8 770b f59b
00000140: 6828 059e ba93 1380 fa8d c53d 846e a7b3
00000150: 9bb3 70b8 0d04 be3d 2159 4200 7e72 103d
00000160: f26c 722e 8436 24be 9172 f6bc 6c64 4ebc
00000170: dd35 9634 25bb 95b6 1e49 69bc 9aab 8aa7
00000180: 3f7d aa3a 0ec5 67bd 2824 e184 5cb0 cb1b
00000190: da4f 903d ea5b 48bd 5f1b 1ba0 c5cf 1fbd
000001a0: b405 13bc 08c3 018e 61be 910e 153a 4836
000001b0: d8bb 99b1 7680 623d c3bd 01b7 b984 c91b
000001c0: d978 8a9d 9391 de80 4c7d a9bd 88ce cab3
000001d0: 5e6b 1f37 c6b0 ba3d d9ec 0184 97a5 1e3d
000001e0: 7d18 2eb0 f7fe d53d a5c1 f8bc 388c 95bc
000001f0: 30ab 4a33 08c9 efb6 920a 53bd 1d84 ab03
00000200: 7926 363b b16c cfba 0071 d305 e49a c519
00000210: bdf4 ae3a 8d62 f7bb 3f36 78a0 c4e3 c8ba
00000220: f12a a2bb e2af 340b c41f b58c f610 5637
00000230: 40e2 201b 9e80 c3ba 4a42 9eb6 5c1a 2899
00000240: 5a62 d81c e63e 6a80 626c 0abb a82c 5f2e
00000250: cdba 0538 a10d d63b 4ade 5781 18e0 583b
00000260: 972f 16ae 92f4 c73a 4ea0 dfba 72c2 36bc
00000270: 6801 beb3 0e1c bf80 fa65 2cba fc04 5600
00000280: 2a0e ff3c 4da2 b4bd 0e5e ff12 9d62 43ae
00000290: 9d88 7dbc 054b 643d 2a72 78ae 44b9 413d
000002a0: 2c65 2a3c 39fb 0095 da7e 3d0f 3093 5936
000002b0: 9e38 a8b6 6c7f ebba 07a8 03b9 beeb da19
000002c0: 08b4 c69c 0ba7 2997 638e febd debb 03b0
000002d0: c0dc 5437 915d 833d da42 8406 128d 113d
000002e0: 9e69 8eae 968e d5bc a884 d03d 88c0 a93d
000002f0: 55f1 4ab5 7c81 6280 6795 0a3e b8be 8f9d
00000300: c2be c8b9 9479 5739 6602 5885 fcbc 269c
00000310: 8fa4 db39 5679 aa3a 9fd8 97a0 1048 6c3a
00000320: 542b f039 0cdf da0b 2eab 1e8d 4c25 4b34
00000330: 94dc cc1c 60a8 6339 ee3d 8a36 405b 0f98
00000340: 1a08 041c 21b7 1380 167f 4ab8 a754 90b1
00000350: 6d53 5034 1185 fd3a 90b6 5681 ee8d 863a
00000360: d330 30ad 37f0 9b3a 5182 9c3a 24bf 473a
00000370: 4298 2c33 84cf f400 efd5 393a 01c7 b900
00000380: 563b 2cba 029e 8737 18b5 2886 1ca5 271c
00000390: 3520 39b9 1f79 a03a 93dc 0221 2509 953a
000003a0: 7c59 9fb9 5e9f 408b aef4 338c 72a8 06b5
000003b0: 8fe7 8921 c021 05bb 132f 53b6 a404 b21a
000003c0: c2c2 419b ec95 0380 c5ca 7039 096e 11b3
000003d0: fc14 e1b5 274b 09bb 0615 0c82 24a0 323b
000003e0: e4a7 69ad 5e3e bc3a 26c8 613a 0d7c c03a
000003f0: 8080 e4ae 08ea 1d80 c4fb 55bb 18b6 b600
-0.0010922551 -9.122794e-06 2.0672352e-35 3.9663677e-23 -0.000913944 -0.0008067994 7.2910884e-19 -0.001204265
-0.00064392574 4.6435436e-32 -6.4169174e-31 7.482371e-12 9.028052e-19 -0.0017681813 1.0452925e-06 2.7296582e-22
-9.03978e-22 -9.33942e-40 -0.0013477532 -1.46335175e-08 2.765756e-07 -0.0031367098 4.847056e-39 -7.055444e-05
6.277294e-13 -0.0014265149 -0.002027262 -0.0027384693 5.361443e-08 1.5961612e-38 -0.0022054736 1.2723067e-38
-0.001168807 4.9950144e-05 6.167113e-35 -1.1174901e-22 0.00088667875 0.00045878623 6.3942033e-19 0.00046406878
2.3733228e-05 6.978162e-33 -5.4811708e-31 -3.6990804e-07 -1.270429e-13 -0.0033601006 -2.9878586e-06 -1.1992104e-22
-7.3580427e-23 7.14696e-40 0.0010929016 -1.03783435e-08 -9.607911e-07 -0.0027319998 1.5470935e-37 0.0023121454
-1.0287088e-11 0.0020167402 0.0016087462 0.001611414 2.342655e-09 1.1002592e-38 -0.002579238 2.217405e-39
-0.051031716 0.062175475 -3.8322833e-34 1.0284607e-16 -0.10263057 -0.0043191426 5.0905186e-19 -0.018627562
-0.008003045 7.5684136e-23 4.1236237e-30 5.8915416e-06 -1.7644864e-07 -0.024647176 -7.819505e-05 -4.053926e-22
-7.049317e-21 -1.797869e-39 0.096462205 -7.796646e-08 -5.738773e-05 0.092781164 6.093116e-39 0.03526544
5.5121192e-11 -0.16036421 -0.030083926 -0.012597185 2.7978868e-07 -4.4623325e-06 -0.014238624 -3.8488745e-15
0.0013007297 -0.05658441 -5.293045e-36 3.3697502e-22 0.070464805 -0.04891578 -1.3138067e-19 -0.039016504
-0.008973528 -1.5994382e-30 3.5928588e-30 2.983613e-06 -4.4742414e-09 0.05529829 -7.7331815e-06 3.333843e-22
-3.665325e-21 -2.0439702e-38 -0.082758516 -9.443926e-08 9.502137e-06 0.09115748 -1.5272632e-36 0.038732138
-6.333563e-10 0.10449021 -0.030365774 -0.018255338 4.7187484e-08 -7.146158e-06 -0.051523753 1.0080808e-36
0.0027793928 -0.0015825239 1.9883854e-35 2.0431882e-23 0.0013348084 -0.00754959 -2.1024366e-19 -0.0015326669
-0.0049489667 3.4799059e-32 -2.7906584e-31 1.2759343e-05 1.3307995e-22 -0.001491565 -4.716484e-06 -8.69072e-24
1.4319104e-21 -9.757126e-39 -0.002112173 5.0743992e-11 3.1883643e-05 0.0065323864 -3.9648748e-38 0.0033092555
-3.414832e-11 0.0015255383 -0.0017061324 -0.011154758 -8.84782e-08 -1.7550644e-38 -0.0006576475 7.899641e-39
0.031134684 -0.08820019 1.6115949e-27 -4.4425453e-11 -0.015474466 0.055735607 -5.649007e-11 0.047295824
0.010400098 -2.6047574e-26 9.34285e-30 3.2421194e-06 -5.0133813e-06 -0.0017967052 -0.00012555729 2.2635887e-23
-1.3149078e-21 -5.4817683e-25 -0.12429502 -4.79245e-10 1.2687582e-05 0.06414331 4.975111e-35 0.035534926
-6.476174e-11 -0.026068967 0.10181552 0.082886755 -7.560205e-07 -9.046329e-39 0.13533555 -3.8048983e-21
-0.00038289098 0.00020549289 -1.0156712e-35 -5.516905e-22 0.0004189354 0.0013006132 -2.5723743e-19 0.00090134237
0.0004580865 8.430615e-32 -4.889356e-31 1.8919417e-07 1.3556606e-21 0.00021711132 4.11993e-06 -1.8528386e-24
4.3685607e-22 -1.810569e-39 -4.827891e-05 -4.2005754e-09 1.940186e-07 0.0019342025 -3.9436575e-38 0.0010265687
-1.0015283e-11 0.0011897151 0.0011940693 0.000761973 4.018535e-08 2.2482304e-38 0.00070890685 1.7060956e-38
-0.0006570121 1.6166832e-05 -3.1730335e-35 5.5469064e-22 -0.00017654973 0.0012243128 4.433764e-19 0.0011370523
-0.00030393514 -3.709775e-32 -1.3863289e-31 -5.016401e-07 9.344774e-19 -0.0020314306 -3.146885e-06 7.362657e-23
-1.6027515e-22 -3.29288e-40 0.00022963721 -3.386052e-08 -1.6769914e-06 -0.0020949335 -1.0291609e-37 0.0027256096
-1.3281796e-11 0.0014361849 0.0008612893 0.0014685408 -1.0391066e-10 -2.747184e-39 -0.0032651285 1.6779383e-38

w3a f4 [32, 1]
00000000: cb47 853d 2965 1f3d 650f d132 369c 403a
00000010: bb5b 2c3d a81e 943a 42ec 2db8 461a 03bb
00000020: 2be6 67bb e623 4035 0316 9135 7f31 1d39
00000030: 9423 b33b 90af 863d 96ea 80b7 68bd eeb5
00000040: c77e 2c1c 4c1e ddb6 9bde 593d 6166 133a
00000050: 6710 23b6 458f 8d3d b7b5 3bb0 7091 e13c
00000060: ea57 502f b9d3 853d 3aa2 adbb 8614 363c
00000070: 66cb a239 0cf2 88b1 1b51 9a3c 8067 0db9
0.06507834 0.038914833 2.4337803e-08 0.0007347496 0.04207967 0.001130064 -4.1466446e-05 -0.0020004674
-0.0035384994 7.157781e-07 1.0809748e-06 0.00014991125 0.0054668877 0.06576455 -1.5368027e-05 -1.7787506e-06
5.707388e-22 -6.5898403e-06 0.05319081 0.00056228606 -2.429844e-06 0.06912092 -6.8288436e-10 0.02753517
1.8948723e-10 0.065345235 -0.00529888 0.011113292 0.00031050591 -3.9856385e-09 0.018837502 -0.00013485365

w3c f4 [32, 1]
00000000: 6ac7 1a3e f4fb a6be fb00 3d38 e3ad 753a
00000010: 2ff2 6c3e ff82 3dbe b12f 6f3b f41e 43be
00000020: 20bc f3bc 08cb 01b9 f7b8 82b9 5b55 1838
00000030: dbbc 8939 2055 353e 9cec ea36 4323 92b9
00000040: 5546 1d36 8ed3 c238 d485 05bf 5de1 253b
00000050: aab3 7f39 9dae f43e db66 09b9 7085 243e
00000060: 477d 6eb0 cdc9 b53e a256 75be d946 3ebe
00000070: 98b0 3337 58c8 abb8 62dd a3be a638 5f39
0.15115133 -0.326141 4.5062025e-05 0.00093719194 0.2313926 -0.18507002 0.0036496932 -0.19054776
-0.02975279 -0.00012378034 -0.00024933342 3.6319117e-05 0.00026271385 0.17708254 7.0012884e-06 -0.00027873562
2.3435762e-06 9.290046e-05 -0.5215733 0.002531133 0.00024385625 0.4778947 -0.00013103655 0.16066527
-8.6761925e-10 0.35505524 -0.23958829 -0.18581714 1.0710348e-05 -8.191232e-05 -0.3200484 0.0002128804
