MLP_Features/MLP_feature_GOOD.pth (torch, 10328 bytes, 3 tensors)

w1 f4 [30, 64]
0.038773797 -0.10861899 0.0676351 -0.035048816 0.02319434 -0.11798091 -0.154938 -0.13046335
-0.063908555 0.057051208 0.11134748 -0.071684316 -0.016022462 -0.05079791 0.00948524 0.03986998
-0.12910695 0.12566902 -0.14468698 0.18460052 -0.22952536 0.27173483 -0.16167687 -0.118604615
0.016584916 0.11315323 0.14147021 -0.09077712 0.061031796 -0.097985305 -0.04235323 -0.03667426
0.07524055 0.10421553 -0.02650387 -0.12284904 -0.03408238 0.20788649 0.092896946 0.2067239
-0.012274738 -0.14333884 -0.025659911 -0.013260949 0.046895325 0.14666103 0.07367478 0.10211789
-0.19059895 -0.10460913 0.1408936 0.11728226 -0.045219693 0.0023241702 0.09131089 0.10119102
-0.15147361 0.07895974 -0.1148897 -4.3643977e-06 0.06109888 0.037515387 -0.005839072 0.01918095
0.013978351 0.013996299 -0.13750274 0.020383254 -0.039353024 -0.28652906 -0.066541344 -0.02262962
0.06913485 0.24641602 -0.048435465 0.018832682 -0.106441624 -0.06164426 -0.07218109 -0.13985208
0.15614046 -0.07800005 0.18303685 -0.019554026 0.118364185 0.0098038195 0.046556693 0.027089266
-0.049452547 0.097339496 0.23439139 0.11317512 0.1157657 0.017207168 0.115170024 -0.011597335
0.21228996 -0.1638474 0.13032612 0.10382595 0.14122833 0.20530598 0.018836807 -0.026499081
-0.1950621 0.02577003 -0.3178635 0.2221822 -0.004400274 0.027414586 0.06571722 0.0004794303
-0.049789287 -0.06658545 0.00430038 0.07569037 -0.014875896 -0.18088269 -0.13802975 0.08365125
-0.048337106 -0.03376058 -0.072142 0.13201562 -0.03313804 -0.20553158 -0.13066173 -0.07138483
-0.029530527 -0.024657719 0.15929075 -0.19853799 -0.09524959 0.08286706 0.049446292 0.010053322
-0.2781714 0.11076365 -0.09822002 -0.19075838 0.1151104 -0.11313136 -0.20011528 0.11150361
0.004829849 -0.036435593 0.14800556 0.24173142 -0.30134082 0.029844077 -0.049218103 0.2606203
-0.08617623 -0.024943177 -0.13494134 -0.05474481 -0.067840956 -0.04874005 0.079897985 -0.03600468
0.23033443 -0.1440305 0.06624792 0.073786266 -0.13919656 -0.04924247 0.0607148 -0.088588394
0.20417427 -0.0055802236 0.05952379 0.008685172 -0.071301565 -0.027507395 -0.12942141 -0.018694758
0.11508382 0.024376718 0.030390596 0.10588964 0.17447826 -0.054812204 0.0851242 0.048588343
-0.005812016 -0.20372944 0.012003192 0.1465339 -0.014851782 -0.039164178 0.016123325 -0.049601853
-0.10041972 0.028709807 0.12466211 -0.10969007 0.12870511 -0.07000281 -0.0595781 -0.031530797
-0.15996446 0.009921989 0.010301616 0.08635546 0.25533265 0.014202932 -0.029769791 0.03356894
-0.038305838 0.01742931 -0.121718965 0.007239902 -0.069021575 0.15786588 -0.055398762 0.0022114033
-0.029918244 -0.06555169 -0.20529161 -0.17165107 0.0615039 -0.006900285 -0.018652515 -0.041572005
0.12580827 -0.14703614 0.06578078 -0.0744848 -0.2739463 0.17663406 0.039406125 0.2035667
0.06604567 -0.02627397 -0.071908526 0.021362687 0.037289485 -0.0894915 0.07410702 0.13635689
-0.027860645 0.1746772 0.09002151 -0.051924236 -0.13357836 -0.11722187 -0.007026116 0.09035908
0.15422451 -0.20833491 0.121125154 0.14319903 -0.023218768 0.058572613 0.059418105 0.0080142105
00000000: 46d1 1e3d a273 debd 4584 8a3d 598f 0fbd
00000010: 0e02 be3c fa9f f1bd 11a8 1ebe 2f98 05be
00000020: 7de2 82bd 87ae 693d 260a e43d 3acf 92bd
00000030: 8a41 83bc 7811 50bd fb67 1b3c b44e 233d
00000040: 9d34 04be 61af 003e d328 14be eb07 3d3e
00000050: b208 6bbe d420 8b3e 9f8e 25be fae6 f2bd
00000060: 17dd 873c e1bc e73d 91dd 103e 5be9 b9bd
00000070: 7afc 793d 85ac c8bd 957a 2dbd c037 16bd
00000080: b817 9a3d f46e d53d a51e d9bc 4798 fbbd
00000090: f799 0bbd 32e0 543e c140 be3d 6eaf 533e
000000a0: fc1b 49bc 6bc7 12be bc34 d2bc 7444 59bc
000000b0: 5015 403d 4f2e 163e cee2 963d 2f23 d13d
000000c0: 5f2c 43be 503d d6bd 6946 103e ae31 f03d
000000d0: 4938 39bd 1b51 183b 3401 bb3d 3d3d cf3d
000000e0: e61b 1bbe a5b5 a13d 4b4b ebbd e471 92b6
000000f0: d242 7a3d bca9 193d b055 bfbb 5e21 9d3c
00000100: 7405 653c bc50 653c 85cd 0cbe c8fa a63c
00000110: a330 21bd f0b3 92be d446 88bd c161 b9bc
00000120: 9296 8d3d 7b54 7c3e 4464 46bd ff46 9a3c
00000130: 11fe d9bd b17e 7cbd aed3 93bd 6235 0fbe
00000140: 49e3 1f3e 7dbe 9fbd 036e 3b3e c42f a0bc
00000150: ec68 f23d 33a0 203c 3bb2 3e3d 4fea dd3c
00000160: c18e 4abd ee59 c73d 4c04 703e 5bc8 e73d
00000170: 9116 ed3d 0cf6 8c3c 43de eb3d c002 3ebc
00000180: 8a62 593e 9dc7 27be 3674 053e b3a2 d43d
00000190: 299e 103e bb3b 523e a64f 9a3c 9a14 d9bc
000001a0: 5cbe 47be ac1b d33c 01bf a2be bb83 633e
000001b0: 2c30 90bb 8e94 e03c c096 863d 0c5c fb39
000001c0: daef 4bbd f45d 88bd 34ea 8c3b 8d03 9b3d
000001d0: 08ba 73bc 5039 39be ac57 0dbe 5951 ab3d
000001e0: 21fd 45bd 8948 0abd 2fbf 93bd 1a2f 073e
000001f0: c1bb 07bd df76 52be 30cc 05be 3632 92bd
00000200: 01ea f1bc fcfe c9bc 1d1d 233e 8b4d 4bbe
00000210: 3812 c3bd 35b6 a93d 3288 4a3d b0b6 243c
00000220: 7b6c 8ebe 0dd8 e23d 9427 c9bd 2a56 43be
00000230: 00bf eb3d 6ab1 e7bd 05eb 4cbe 015c e43d
00000240: b643 9e3b 7d3d 15bd c58e 173e 7188 773e
00000250: 5849 9abe 917b f43c ec98 49bd 0670 853e
00000260: 2a7d b0bd a255 ccbc 102e 0abe 183c 60bd
00000270: 33f0 8abd a6a3 47bd 8ea1 a33d a579 13bd
00000280: cadc 6b3e bb7c 13be fdac 873d 411d 973d
00000290: 8b89 0ebe 79b2 49bd 15b0 783d d56d b5bd
000002a0: 0f13 513e 4fda b6bb 38cf 733d 404c 0e3c
000002b0: 8e06 92bd 3057 e1bc 0c87 04be c025 99bc
000002c0: 11b1 eb3d afb1 c73c b3f5 f83c abdc d83d
000002d0: 6eaa 323e c382 60bd 9955 ae3d 9204 473d
000002e0: b972 bebb 739e 50be 09a9 443c fc0c 163e
000002f0: e354 73bc 9e6a 20bd 1015 843c 502b 4bbd
00000300: dba8 cdbd d430 eb3c d94e ff3d 30a5 e0bd
00000310: 46cb 033e a25d 8fbd 2a08 74bd 7026 01bd
00000320: b9cd 23be d78f 223c 1cc8 283c 22db b03d
00000330: f6ba 823e 6ab3 683c c7df f3bc 967f 093d
00000340: 95e6 1cbd eac7 8e3c cb47 f9bd b33c ed3b
00000350: 2f5b 8dbd 98a7 213e d0e9 62bd 31ed 103b
00000360: 1b17 f5bc f73f 86bd f737 52be 4cc5 2fbe
00000370: 83eb 7b3d c91b e2bb 29cd 98bc 6847 2abd
00000380: e2d3 003e a490 16be 13b8 863d 7d8b 98bd
00000390: b042 8cbe 8fdf 343e 5168 213d ca73 503e
000003a0: f442 873d 823c d7bc c744 93bd cd00 af3c
000003b0: dcbc 183d 5247 b7bd 6cc5 973d 24a1 0b3e
000003c0: 023c e4bc 94de 323e 335d b83d 82ae 54bd
000003d0: c4c8 08be 0512 f0bd 553b e6bb 2e0e b93d
000003e0: 08ed 1d3e bf55 55be 7710 f83d c4a2 123e
000003f0: 4935 bebc d6e9 6f3d 6660 733d 094e 033c

w2a f4 [64, 1]
0.19638954 -0.27571276 -0.032898303 0.120048314 0.055163834 0.058095206 0.15962647 -0.058914065
0.17710291 -0.12085816 0.091684185 -0.00868229 -0.32601205 0.22731587 -0.16015838 -0.17047
0.15678944 -0.14017533 -0.09446274 -0.0412032 0.24273264 -0.22611777 0.06287798 0.11316307
0.17882875 -0.05266704 0.26338685 0.12346874 -0.14035007 -0.14458671 -0.1859339 0.1548018
-0.20566252 0.17128924 -0.04368264 0.14720412 0.17258781 -0.20332265 -0.084633246 -0.32930124
0.1408881 -0.23154366 0.09779585 -0.17937984 0.17130265 -0.09403271 0.13287899 -0.06073291
0.074983366 0.0951682 -0.08689291 -0.15866797 -0.0782077 -0.04947361 0.14577773 -0.014010299
0.19431764 0.12206193 0.16800115 -0.10223409 -0.15217419 0.15581496 0.1898963 0.05909091
00000000: 571a 493e 392a 8dbe 5fc0 06bd e4db f53d
00000010: 79f3 613d 3df5 6d3d 1f75 233e e04f 71bd
00000020: 775a 353e 7c84 f7bd ebc4 bb3d 2a40 0ebc
00000030: 0deb a6be 7ec5 683e 8f00 24be b08f 2ebe
00000040: 698d 203e 1f8a 0fbe ae75 c1bd b0c4 28bd
00000050: e88e 783e 6b8b 67be 2cc6 803d 0ac2 e73d
00000060: e21e 373e 65b9 57bd a4da 863e 2edd fc3d
00000070: eeb7 0fbe 8a0e 14be 7565 3ebe 5d84 1e3e
00000080: 3299 52be 7266 2f3e 91ec 32bd adbc 163e
00000090: dcba 303e d033 50be 3254 adbd 2c9a a8be
000000a0: f844 103e c819 6dbe 3149 c83d 59af 37be
000000b0: f669 2f3e 3994 c0bd 6e11 083e 12c3 78bd
000000c0: e190 993d 8ce7 c23d e9f4 b1bd db79 22be
000000d0: 5c2b a0bd d7a4 4abd c246 153e 748b 65bc
000000e0: 34fb 463e 9bfb f93d 7e08 2c3e 1b60 d1bd
000000f0: 8dd3 1bbe f58d 1f3e 2d74 423e 4f09 723d

w2c f4 [64, 1]
-0.14587213 0.10171939 -0.09632237 -0.07291104 0.045801803 -0.028035127 0.073933855 0.26141843
0.07407644 -0.09443902 0.12310264 0.037152678 -0.009109183 0.0688633 0.11837472 -0.09438382
0.12517196 -0.019477008 -0.013221814 0.09578078 0.039552376 0.05330324 -0.10937187 0.0050457846
0.109137915 0.26221266 -0.06616912 0.088034794 -0.026142772 -0.032009777 0.09850653 -0.21874967
0.012349466 -0.0073563103 0.10438082 -0.11892891 -0.086542584 0.103523105 0.08382527 -0.03148295
-0.012588118 0.042738356 0.069434 -0.10135097 0.03583235 -0.11056723 -0.020016372 -0.16401446
0.09655609 0.14731589 -0.06495478 0.07399708 -0.021933932 -0.031194089 -0.028605921 -0.15457584
0.0371818 -0.02737601 -0.077650554 0.2753122 -0.03221924 0.09458891 0.0874494 0.065868214
00000000: 815f 15be 4152 d03d aa44 c5bd 6252 95bd
00000010: ac9a 3b3d eca9 e5bc a26a 973d a3d8 853e
00000020: 63b5 973d 3f69 c1bd 3d1d fc3d 682d 183d
00000030: af3e 15bc 3408 8d3d 726e f23d 4e4c c1bd
00000040: 142d 003e 3f8e 9fbc 4fa0 58bc b728 c43d
00000050: ac01 223d 8054 5a3d 5cfe dfbd 1c57 a53b
00000060: b383 df3d bd40 863e ad83 87bd 964b b43d
00000070: 5e29 d6bc af1c 03bd cbbd c93d eaff 5fbe
00000080: 6a55 4a3c 340d f1bb 9dc5 d53d 0091 f3bd
00000090: 3d3d b1bd ec03 d43d 95ac ab3d 44f4 00bd
000000a0: 653e 4ebc 6a0e 2f3d 6a33 8e3d 1991 cfbd
000000b0: f1c4 123d 1271 e2bd 60f9 a3bc 68f3 27be
000000c0: 33bf c53d fad9 163e 0307 85bd c88b 973d
000000d0: caae b3bc bf8a ffbc f756 eabc 2149 1ebe
000000e0: f14b 183d a743 e0bc 4107 9fbd b8f5 8c3e
000000f0: 52f8 03bd d5b7 c13d ac18 b33d eae5 863d
