CNN_Features/Trained Models/model_cnn_feature.pth (torch, 242123 bytes, 8 tensors)

conv.0.weight f4 [16, 1, 2]
00000000: 6ac8 1fbf 820b dd3e 95d5 47be ea95 cfbe
00000010: cf14 03bf 1f8d 0a3e 0944 da3c 3aa4 883e
00000020: c1d4 a0bd 9499 26bf 872b 22bf bc8d 313f
00000030: 901d 893e 395a dfbe 489f 0bbf 7760 4e3e
00000040: fcf2 433e fd99 76bd 44a6 bc3e 716d 63bd
00000050: a0bc 1d3f f556 8f3e ea15 a5bd cc77 13bf
00000060: e512 213f cc5c 043d d896 44be ccf3 6e3e
00000070: 9050 11bf 9e46 07bf 92c2 223f d81d c1be
-0.6241518 0.43172842 -0.19515069 -0.40544063 -0.51203626 0.13530396 0.02664377 0.26687795
-0.078530796 -0.6507809 -0.6334767 0.69356894 0.26780367 -0.43623522 -0.5453992 0.20153986
0.1913566 -0.06020545 0.368456 -0.055524293 0.61615944 0.2799603 -0.080608204 -0.5760467
0.62919456 0.03231506 -0.19198167 0.23335189 -0.56763554 -0.5284213 0.6357814 -0.3771808

conv.0.bias f4 [16]
00000000: 6f59 ed3e c1c8 1abd 3c64 55be 8a02 e53e
00000010: 8fcc 8bbe 1e04 2c3c 3e48 04bf 3736 d33e
00000020: 19f1 203f eb72 b83e 82c2 fe3e 76dc 3abe
00000030: a096 31bf e88f 003d 4046 23bf 185a 33bf
0.46357295 -0.03778911 -0.20839018 0.447285 -0.27304503 0.0104990285 -0.5167273 0.412523
0.62867886 0.36025175 0.49757773 -0.18248162 -0.6937046 0.03138724 -0.6377907 -0.7005935

conv.2.weight f4 [32, 16, 2]
00000000: 0814 a2bd 936a 333e 312e 423d bd2d fb3d
00000010: 9b7f be3d 0bb1 ee3c f722 263e 5969 e43d
00000020: f21b 8bbd a104 2c3e cd49 c8bc b9f2 ebbd
00000030: 7295 6cbd bb23 17be 72d6 17be 613c e83d
00000040: 674d a7bc 0394 2d3e 2103 d73b d07a 06bd
00000050: a455 b43d 1764 94bc 7937 d5bd 77ca 59bd
00000060: ac5e e1bd 9b0f 383d 382f 353e 4fc6 913d
00000070: db97 e33d 61d8 85bc 3b88 b83d 1272 24be
00000080: 8fb8 263e 6547 483d 8795 4d3d e701 413c
00000090: ed5f 7a3d 7e29 203e 1a87 513c 7c49 babc
000000a0: 86c4 1e3d e37c a83d 5a1c a83d 576c 15be
000000b0: a023 0ebe c6d9 ba3c 14a6 203e ed6a ecbd
000000c0: 5d39 29be 220c 11be 8f57 0cbe 1875 77bd
000000d0: 9432 eabd 2a92 a83d 429e 0bbe 3503 18bd
000000e0: bfbc 53bd d94b f7bc 1f83 053e 10ca f9bd
000000f0: affa 13bd fccf 6ebd 446a f8bc 8da1 31be
00000100: f86b ae3d e4df 8abd 3f0a f7bd 1048 613d
00000110: 415e e3bc 7cc4 09be 0e7e 35be 495e 2d3e
00000120: dc06 16be 9f68 20be 6987 e63c 498e 0a3e
00000130: a893 cebd 9170 1abc 5e3a 0e3e 43ef d6bc
00000140: 0f2a 24be 70d2 1ebe af2c e43c 724e 353d
00000150: 12f6 f6bb 25a4 31be 1141 71bd 78b8 ddbd
00000160: e20e f43c 2a2d dabd 659d 123e b9e4 093e
00000170: 0405 0bbe 67f2 e33d fea9 303e e9e5 c53d
00000180: 07e5 f73d 8da3 353e 6c4a 7abd b7db fabd
00000190: c44e cc3d 9d8d da3c ccb7 f8ba ade7 54bd
000001a0: c01b 99bd 6ebe b83d 3570 32bd 30c1 95bc
000001b0: ed46 223e bedb f93d a4ba 0dbd 875d e23c
000001c0: 101c dabd d176 073c 3b49 293e 0369 f9bd
000001d0: ad06 553d 2f83 c4bd c5f5 e4bd 9b4f e4bd
000001e0: c38a a3bd 95ce ee3d 1767 133e b8d8 643d
000001f0: e36a abbd c8b0 ba3d 7ab8 29be 1d3d 05be
00000200: 5266 abbc 8fa5 783d 11fe 893d bec9 f3bd
00000210: 1a10 ca3d f5d4 303e aba2 903d 7db3 2e3e
00000220: 8fa5 36bd 9f1a fe3d 38e6 d0bd dae8 90bd
00000230: b891 3b3d 038d c13d 7924 0d3e 363b adbc
00000240: 30b8 523d 6805 a23c eb5d ff3d 464e 28bd
00000250: df47 fa3d 29b4 4c3d 3118 f5bc a27e 643d
00000260: 0520 1a3e 3848 2fbd 4358 8fbd e2b0 e2bc
00000270: 741c ae3d 4ee1 1abe e3c3 e9bc 6838 2aba
00000280: 9b9f 0e3d 6352 b4bd 80bd 2c3d 1d17 11bd
00000290: c722 06be 70f2 2ebe ea68 cc3b 59be 843d
000002a0: ca60 e63d 2697 333e 0efd 043e 3888 153e
000002b0: fefd 6fbc acdc 023d 9bdf 183d 3c8c 0dbc
000002c0: 5132 483d 8cde 8bbd e249 8fbd 473d 68bc
000002d0: cf3b c43d 6833 a3bd eae9 31be 278a 31be
000002e0: fb12 a93d 7c62 70bd fa75 4ebd 08ab 903d
000002f0: 3379 14bd 9227 053e 4215 2fbe 8edb bfbd
00000300: 6508 55bd b564 a6bd 364d 0a3e 55d7 25be
00000310: 5a6b 57bd 602b 603d 0d01 f23b 638f c4bd
00000320: a34d 143e c871 cf3d b726 bdbd 3ab0 26be
00000330: 830d dd3d 5ff7 293e 81c8 003e 4e67 8e3d
00000340: c9d1 103e f1f6 90bc a8ba e63d 0b89 0c3e
00000350: 0821 c5bd a4b4 08be c7c3 2d3d ab45 333e
00000360: f17f dabd d9c2 23be 1c93 fabd 48dc 473c
00000370: c10a 07be db84 87bd 5a0b b8bd 32fe 1c3b
00000380: 2bfe 2e3e a546 14be c8ec a7bd 3044 a3bd
00000390: 9027 7f3d 694a 95bd f5e9 203d 164f 023e
000003a0: f520 4bbc 47cc d53d 04be 9abd 4195 39bd
000003b0: 7b51 463d 5d82 1f3e e1e5 07be 5e9e 033e
000003c0: 059b 32bd bda6 033e 8251 febd 5c63 ba3c
000003d0: 2b14 1fbe c8fb aa3d 5c23 b5bd fc69 153e
000003e0: 86f4 2f3c 2440 41bc 0a1f 26be 0548 b8bc
000003f0: 6d45 b13d f209 35bd aecf 31be eea6 c4bd
-0.07913977 0.17521124 0.047407333 0.12264583 0.093016826 0.029137155 0.16224276 0.11152906
-0.067924395 0.16798641 -0.024449253 -0.11520905 -0.05775971 -0.14759724 -0.14827898 0.11339641
-0.02042265 0.16950993 0.0065616523 -0.032831967 0.08805397 -0.018114133 -0.10410971 -0.0531716
-0.11004385 0.044936758 0.17693794 0.071179025 0.111129485 -0.016338529 0.09010359 -0.1605914
0.16281341 0.048896212 0.05019143 0.011780239 0.06112664 0.15640828 0.012788558 -0.022740118
0.038761638 0.08226945 0.08208533 -0.1459211 -0.13880777 0.02280892 0.15688354 -0.11543832
-0.16525789 -0.14164785 -0.13705276 -0.060414404 -0.11435428 0.082310036 -0.1363459 -0.037112433
-0.051693674 -0.030187534 0.130383 -0.121967435 -0.036127742 -0.058303818 -0.030324109 -0.17346783
0.08516687 -0.06780985 -0.12062501 0.055000365 -0.027754905 -0.13453859 -0.17723867 0.16930498
-0.14651054 -0.1566491 0.02814074 0.1353084 -0.10086757 -0.009426252 0.13889453 -0.026237136
-0.16031669 -0.15509963 0.027853338 0.044264264 -0.007536658 -0.17347772 -0.058899943 -0.108262
0.029792253 -0.106531456 0.14317854 0.13466157 -0.13576132 0.11130219 0.17252347 0.096629925
0.121042304 0.17738171 -0.06110613 -0.122489385 0.09975961 0.026678855 -0.0018975674 -0.051978756
-0.07475996 0.090206966 -0.04356404 -0.018280596 0.15847369 0.122001156 -0.034601822 0.027632488
-0.10649884 0.008268074 0.16531841 -0.121782325 0.05200832 -0.09595334 -0.11179689 -0.11147996
-0.07985451 0.11660496 0.14394794 0.05587074 -0.083699964 0.091157496 -0.16574278 -0.13011594
-0.020922814 0.060704764 0.067379124 -0.11903714 0.098663524 0.17268737 0.070622765 0.17060657
-0.044591483 0.12407421 -0.10200161 -0.07075663 0.045793265 0.09450724 0.13783444 -0.021146398
0.051445186 0.019777969 0.12469085 -0.041090272 0.122207396 0.0499765 -0.029918762 0.05578483
0.15051277 -0.042793483 -0.069992565 -0.027672235 0.08501521 -0.1512501 -0.028535789 -0.00064933905
0.03482018 -0.088047765 0.04217291 -0.035422433 -0.13099204 -0.1708467 0.0062380927 0.064816184
0.1124893 0.17538127 0.12987158 0.14602745 -0.014647959 0.03194873 0.03732262 -0.0086393915
0.04887611 -0.06829557 -0.06996514 -0.014174766 0.0958172 -0.07968789 -0.17374387 -0.17337857
0.08255573 -0.058687672 -0.05040548 0.070638716 -0.036248397 0.13003376 -0.17097953 -0.093680486
-0.05200996 -0.08124677 0.13506016 -0.16195424 -0.052592613 0.054728866 0.007385379 -0.09597661
0.14482741 0.10129124 -0.092359 -0.16278163 0.10793593 0.16598271 0.12576486 0.069532976
0.14142527 -0.017695876 0.112660706 0.13724153 -0.09625441 -0.13350159 0.042423036 0.17507045
-0.10668934 -0.15992297 -0.1223509 0.012198515 -0.13187696 -0.06617137 -0.0898654 0.0023955223
0.17089145 -0.14480074 -0.08199459 -0.0797199 0.06229359 -0.07289583 0.03928562 0.12725481
-0.012397994 0.104393534 -0.07555774 -0.045308355 0.04841755 0.15577073 -0.13271286 0.12853381
-0.04360487 0.12856574 -0.1241789 0.022752456 -0.15535037 0.08348805 -0.08844635 0.14591211
0.010739451 -0.0117950775 -0.16222778 -0.02249528 0.0865582 -0.044198938 -0.1736438 -0.09602152

conv.2.bias f4 [32]
00000000: fdca 123e 827b d73d 8e07 4f3d d25c 3dbc
00000010: 17f8 493d 65e9 24be fc4d 1f3e 6156 d63c
00000020: aef9 163e 2725 263e 3ff3 b33d c231 683b
00000030: 9b55 993d c6ba 533d e696 c5bd e6e9 afbd
00000040: adee 9a3c 44cc fc3c 5be6 743c 15fa 983d
00000050: 2b0a d7bd 2318 233e 8200 86bd af96 303d
00000060: ca70 fe3d 297d da3d 675b 0cbd 3338 04be
00000070: f0e8 8fbc a786 323e 81a5 1abe 2150 7f3c
0.14335246 0.10521604 0.050544314 -0.011557775 0.049308863 -0.16104658 0.15557092 0.026164236
0.14743683 0.1622511 0.0878663 0.0035430049 0.07487031 0.051691793 -0.09647922 -0.085895345
0.018912638 0.03085912 0.014947499 0.07469574 -0.10499986 0.15927176 -0.065430656 0.043112453
0.124238566 0.10668404 -0.034266856 -0.12912063 -0.017567128 0.17434178 -0.15102197 0.015583069

fc.0.weight f4 [64, 896]
00000000: 43e0 6fbc c963 92bb a2eb 34ba dccd 55bc
00000010: b556 42bc f91f d0bc b5f9 01bd 8bdb 163c
00000020: 2b5a 143c e327 b9bc 6caa 19bc 17e6 f3bc
00000030: e44e 6abc f37d a7bc f68b 873a 26b5 843c
00000040: 79c0 2ebc cbec 41bc 1400 dfbc ec2e 81bc
00000050: ffd4 5dbb 1117 9dbc d71e f4bc c845 cebc
00000060: 5867 36bb 931d 27bb 24a0 c5bb 87cb d53c
00000070: f58f 383c 072a ba3c cc24 073a 08a7 7ebc
00000080: f43d d33c f3d9 613a 969a a63c cdf8 b6ba
00000090: 3c82 0fbc dd06 53bb 7c67 8a3c b87a 30bc
000000a0: 80cf c7bc abb5 9dbc 2c01 a33c 9d90 ebbc
000000b0: cf72 06bd a6e7 6abc c73c 25bb 6878 1f3c
000000c0: b5cc 8c3c e703 49bc 7d37 cabc b9ef 243c
000000d0: b6ba a13a 1aa1 89bc 8c11 043d 113d ae3b
000000e0: 8942 a1bc 9a35 a93b 897a 54bc 1ede c83c
000000f0: 9808 e6bc be91 d5bb 5458 b6bc 92d6 b43c
00000100: 5b23 e73b 44c2 043d dadd d7bc fb66 893c
00000110: 773b a53c a68b a43c 4bd4 cabc 3737 9ebb
00000120: a2d3 3fbc 0feb 44bc 02de 00bd 4081 e03c
00000130: e061 92bc 7ef0 babc acc1 b43b 210a a5bb
00000140: d378 9f3c 15f1 833b 7922 07bd 75f1 1c3c
00000150: eb7a ca3c cbdc 8abc 4f2c 81bc c8ca cdbc
00000160: 87b5 cb3c 6578 d7bc 529b 1ebc 1144 d3bb
00000170: f089 e43c 760e 8a3c c9ed c3ba 0d30 0f3c
00000180: f02d 9f3c b4da 94bc 803f 5ebc 4368 e0bc
00000190: 9005 cbbc 4c4c 6e3c 2227 80bb b977 ce3c
000001a0: 113c e13c 5f9d dbbc a7eb 11bb d166 8a3b
000001b0: f212 98bc 9190 983c 29ca 343c 3ee0 18bc
000001c0: c72f 2bbc ab7b 67bc 0f77 2dbc 2316 44ba
000001d0: 4efc f63c 807d 9abc 9994 bebb cf0b eabb
000001e0: 758d d1bb 6fd0 f3ba 0ab5 f33c 7fa9 abbc
000001f0: 8404 03bd 264c 99bb 2a91 2d3c cc50 e9bc
00000200: 70b9 023d cf3f c1bc 26b2 d13c c0b1 d93b
00000210: 14ae b7bc 103b dcbc 18ab 60bc 6a13 02bd
00000220: 54b6 acbc 7bb4 79bc 6673 81bc 63c6 54bb
00000230: 729c 8b3c 8bb5 1fbc b39a 59bc 2e2a 073d
00000240: bfb4 c8b9 c223 013c 6183 d23c 446c babc
00000250: ce28 f7bc d60b 503c 72c5 6d3c e264 debb
00000260: 4fbb ce3c ec5c ea3a 1dab ad3c c0ea 033c
00000270: 88c8 943c 8193 7e3c a795 913c b659 9cbc
00000280: 9602 293b daac c5bc 5bdb f8bc f8d7 e5bc
00000290: 5e89 cabc 528e 4ab9 3f3e 25bc 7791 bebc
000002a0: b288 073d 9522 e03c d97f c3bc 89a8 ad3b
000002b0: fe97 3fbc 2d10 0ebc 37d4 04bd a54e b2bb
000002c0: 5edb 523c e89f 473c fa53 4dbc 2a64 17ba
000002d0: 57bd cb3c 9ab7 1e3b 1560 ad3c 114f 5c3a
000002e0: de4d debc 275b 033d 1e4a 6bbc 2e8d 8ebc
000002f0: 31c2 3bba 64f5 113c 0cf1 993c f4cc 473c
00000300: 3fa1 fbbc 1254 553c 4302 17bc 57b0 543a
00000310: 87a4 193c 7a7b 8f3c 49e1 933c 9f04 d7bc
00000320: 5760 7dbc 4aa9 d4bb 0f13 b13c 94e2 a53c
00000330: 1473 b3bc 70ea c7bb 0993 20bc 85eb b8bc
00000340: 2852 a53c 1ebe c2bb e920 c93c 7db2 08bd
00000350: e76f fc3b d7f2 41bc 6a33 073c b700 033d
00000360: 7046 d63b 6347 fe3b d0d8 863c cc82 acbc
00000370: 9899 00bd 34e2 a03c f5ce c8bc 2c2b 413c
00000380: 9e0a 0c3c 44fb 753b 325b 4ebc 41d2 8d3c
00000390: e21e c2bc c4f7 bd3c 2a9f 513c a1ec 58bc
000003a0: a785 b8bc 4b08 3bbc f990 9bbc 1390 853c
000003b0: 1299 8d3c c7f5 01bd e8dd 02bd edb5 ba3b
000003c0: ca90 ddbc 9614 a53c bf09 0bbc 9adf e83c
000003d0: df8b bbbb d4e4 1c3b 50c0 fb3c 53ac 4f3c
000003e0: aadf a63c 22df dc3c 3c07 6b3c 2fd6 e63c
000003f0: 1ca6 00bc fcda 033c 50bb 033c 1447 9c3b
-0.0146408705 -0.0044674617 -0.0006901567 -0.013049569 -0.011861493 -0.02540587 -0.03173228 0.009207617
0.009054701 -0.022602027 -0.009379011 -0.029772801 -0.014301036 -0.0204458 0.0010341394 0.01619966
-0.010666006 -0.011836241 -0.027221717 -0.015769444 -0.003384888 -0.019176038 -0.029799862 -0.025179759
-0.0027832594 -0.0025499805 -0.006031053 0.026098026 0.011264791 0.022725118 0.00051553245 -0.015542753
0.025786377 0.0008615546 0.020337384 -0.0013959646 -0.008759078 -0.0032200136 0.016895048 -0.010771446
-0.024390936 -0.019251665 0.01989802 -0.02875548 -0.032824334 -0.014337456 -0.0025213228 0.009733297
0.017187456 -0.012268997 -0.024684662 0.01006692 0.0012338969 -0.016800452 0.032243297 0.0053173383
-0.019685047 0.0051638605 -0.012968668 0.024519976 -0.02808027 -0.006517618 -0.022258915 0.022074971
0.0070537752 0.03241183 -0.026350904 0.016772738 0.020169957 0.02008612 -0.024759432 -0.0048283595
-0.011708172 -0.012018933 -0.031461723 0.027405381 -0.017868936 -0.022819754 0.0055162515 -0.005036608
0.019466793 0.004026542 -0.03299186 0.009579052 0.024716815 -0.016950985 -0.015768198 -0.025121108
0.024866832 -0.026302526 -0.009680586 -0.006447323 0.027897805 0.016852599 -0.0014948185 0.008739484
0.019431084 -0.018170692 -0.013564944 -0.027393466 -0.024782926 0.014544558 -0.003910915 0.025203573
0.027494462 -0.026808439 -0.0022265704 0.0042236825 -0.018563721 0.018623622 0.011034527 -0.009330807
-0.010448403 -0.014128606 -0.010587468 -0.0007480105 0.030149605 -0.018858671 -0.005816054 -0.007142521
-0.006395037 -0.0018601547 0.029749412 -0.020954845 -0.03198673 -0.004678267 0.010593692 -0.02848091
0.03191513 -0.023589997 0.025597643 0.006643504 -0.022421874 -0.026883632 -0.013712667 -0.031756796
-0.021083035 -0.015240784 -0.015802097 -0.003246688 0.017042372 -0.009747873 -0.013281512 0.03299921
-0.0003828164 0.0078820605 0.025697412 -0.022756703 -0.030170824 0.012698134 0.014512407 -0.0067869285
0.0252358 0.0017880476 0.021199757 0.008051574 0.018162027 0.015538097 0.017771555 -0.019085746
0.0025788895 -0.024130274 -0.030378034 -0.028057083 -0.024723705 -0.0001931724 -0.010085641 -0.023262722
0.033089347 0.02736024 -0.023864673 0.005299632 -0.011693953 -0.008670849 -0.032428946 -0.005441504
0.012869684 0.012184121 -0.012532229 -0.00057751185 0.024870558 0.0024218322 0.02116398 0.0008404116
-0.02713674 0.03206935 -0.014360933 -0.017401304 -0.00071624207 0.008908603 0.018791698 0.012194861
-0.030716537 0.013020532 -0.009216848 0.0008113435 0.009377605 0.017514933 0.01805176 -0.02624732
-0.015464864 -0.0064899074 0.021615533 0.020249642 -0.02190546 -0.006100945 -0.009800681 -0.022573242
0.020180777 -0.005943074 0.024551826 -0.033373345 0.0077037695 -0.011837683 0.008252004 0.031983104
0.0065391585 0.007759975 0.016460806 -0.021058463 -0.03139648 0.019639112 -0.024512747 0.011790078
0.008547453 0.00375338 -0.012594985 0.017312171 -0.023696367 0.023189433 0.012794295 -0.0132400105
-0.022524668 -0.011415551 -0.018990027 0.016304052 0.017284904 -0.031728532 -0.031949908 0.005697957
-0.02704658 0.020151418 -0.00848621 0.028426934 -0.005723461 0.0023940103 0.03073135 0.012675363
0.020370323 0.026961867 0.0143449865 0.028178303 -0.007852104 0.008047815 0.008040264 0.0047692154

fc.0.bias f4 [64]
00000000: 3d73 c63b 7830 733b 90be 98bc 2ca7 af3c
00000010: 641d f3bc 0454 dfbc 3e3e d83c 6b79 5d3b
00000020: 6b86 933c 4912 b13c 6961 e03c 95fc 0fbb
00000030: 3434 f83c 2baa 373c 64c6 07bd 1ae9 5ebc
00000040: 401b b0bc 10da e9bc d557 ceba f4d1 01bd
00000050: fc13 92bc 9556 453c 8420 06bd d682 b9bc
00000060: 7428 87bc 38ef 683c 74ae 0abc ed6c 95bc
00000070: bd2d 033d 1c50 803c 4b46 73bc 8325 b43c
00000080: b043 8f3a 3c26 9a3c ee78 bbbc d27e b5bc
00000090: 7bbb 683c 2bed 35ba 6181 acbc 70a8 993c
000000a0: bf16 223c 5302 b03c ba31 b9bb cc04 ea3c
000000b0: 1341 9e3b 45ed 05bd 4512 173c 7705 0ebc
000000c0: 44af 683c ce1b 273c 4c55 a53c 6a61 d53c
000000d0: d7a9 5d3c 79be bfbb cb69 a9bc 731e df3c
000000e0: cacb debc 59ec f03c 09e2 f43b e34b b43c
000000f0: 8bdd aabc 4b79 96bc af81 f1bc aecb ecbc
0.006056218 0.0037107747 -0.018645555 0.021442018 -0.0296771 -0.027261741 0.026396867 0.0033794295
0.018008431 0.021615164 0.027390199 -0.002197062 0.03029833 0.011210005 -0.033148184 -0.01360538
-0.021497369 -0.028546363 -0.0015742729 -0.031694368 -0.017831795 0.012044569 -0.032745853 -0.022645395
-0.016498782 0.01421719 -0.008464444 -0.018240416 0.03202604 0.0156632 -0.014848302 0.021990543
0.0010930207 0.01881706 -0.022884812 -0.0221552 0.014204855 -0.0006939943 -0.021057786 0.018757075
0.009893118 0.021485483 -0.00565168 0.02856674 0.004829535 -0.03269698 0.009220664 -0.008668295
0.014201943 0.0101995 0.020182274 0.026047427 0.0135292625 -0.0058515635 -0.020680329 0.027236199
-0.027196784 0.029409574 0.0074732346 0.022008842 -0.020857593 -0.018368384 -0.029480783 -0.028905716

fc.3.weight f4 [1, 64]
00000000: 4748 893d 96a4 f73d d3cd a1bd 7c8b b43d
00000010: 2f05 bcbd 95b3 ab3c 4382 b03c fc8c 973c
00000020: 58df c33c 7eaf fd3d 9b07 c93d 7090 143d
00000030: d747 053e 5d89 fb3c 43ff 78bc becc fc3b
00000040: 9056 e0bd d7f3 3fbd 68e5 443d 9d2a 27bd
00000050: 0345 81bd d92b b53d f569 8a3c 8f5f 67bd
00000060: 612b 1e3d f923 30bc 6f87 e03c 9ceb f43d
00000070: d6ea df3d f040 aa3d 77bb 183d 3eed 3b3b
00000080: d8aa 68bd f08b e0bc cc0d 933d a811 b83c
00000090: 41e8 26bd f4b2 8bbd a169 413d 690f 17bc
000000a0: 3da0 9cbb 4293 f03d 195c 91bd c128 a3bd
000000b0: cff3 343d b958 df3b 9b7d 9d3d 850e c73d
000000c0: 27bc 9d3d 529b 25bc e93c 5f3b 9b9f 883d
000000d0: fea7 87bd 3b76 423d 4974 dbbd 60f3 9f3d
000000e0: 723f 8b3d 7d60 85bc 498c c93d 7da8 f13d
000000f0: b051 74bd e380 b43d f1fd c9bd 611d 003e
0.06703239 0.12091939 -0.07900586 0.08815667 -0.09180676 0.020959655 0.021546489 0.018499844
0.02391021 0.12386988 0.09815904 0.03627056 0.13015686 0.030705148 -0.015197578 0.007714837
-0.109540105 -0.046863403 0.04807034 -0.040812124 -0.06311991 0.08846254 0.016896227 -0.056487616
0.038615588 -0.010750764 0.02740833 0.119590014 0.10933463 0.08313167 0.037288155 0.0028675343
-0.056803554 -0.027410477 0.07180366 0.022469357 -0.04074884 -0.06821242 0.047219876 -0.009219983
-0.004779844 0.11746837 -0.07097644 -0.079667576 0.044177826 0.0068159965 0.07689973 0.09719566
0.07701903 -0.010107832 0.0034063405 0.06671067 -0.06623839 0.047476035 -0.10715539 0.07810092
0.067992106 -0.01628136 0.098412104 0.11799715 -0.059648216 0.08813646 -0.098628886 0.12511207

value_head.weight f4 [1, 896]
00000000: dd30 aabc 69e4 53bb 9477 8fbb bd11 fb3c
00000010: eb61 2e3c a119 d13c 93c1 04bd ff9b 073c
00000020: 117e fa3c 8d4f fa3c 3f7c 933c 1919 e03c
00000030: fe8b 49bc b3e0 d5bb 64bb 83bc a8e0 553c
00000040: 0974 87ba d8d1 4f3c 50e3 b5bc f078 6ebb
00000050: 73b7 0bbc 8052 b9bc 33bf 1dbc eff7 e63c
00000060: 6a8a 14bc 8c66 6cbc ec06 ebbc 1596 9e3c
00000070: a042 513c 6b83 08bd 4588 cfbc e8ae 1dbc
00000080: b584 6b3b 14b6 573c ce92 df3c b798 8d3c
00000090: 3279 ab3b a804 05bc d7bd c83b 56d5 e53c
000000a0: 6974 6c3c 2113 adbb 8f4c 5abc 61d2 3ebc
000000b0: c5ba bb3c 1cef f93c af81 95bc aa7f a8bb
000000c0: f344 e1bb f983 bb3c 5e5a d23a 8527 23bc
000000d0: 2578 533b ecad 153b ae31 9c3c 49cd 163d
000000e0: 6955 5bbc 864f fd3c c10a 06bd 8c3b 3ebc
000000f0: 5631 833c 4c89 c23c 91bd 96bc 67a1 e63c
00000100: 4fcb 8f3c 8b30 93bc 53b2 86bc 38e7 ebbc
00000110: a815 433b b281 9f3c 7056 ff3c 0d71 e0bc
00000120: 37d3 5b3c 1d88 b1bc 8ba3 8d3b 279d ac3c
00000130: a016 1f3c 9099 223c 454e b63c f6f9 c5ba
00000140: 8599 02bd 58a5 893b a676 efbc e60c d5bc
00000150: c5cd 1a3c 89b1 d9bb e4af f33c b5de 35bc
00000160: 8978 8abc ade3 fbbc 0744 87bc 82b8 2ebc
00000170: 97fa 483c 7735 acbc f31f e4bc dcd2 413c
00000180: d9ce f5bb e193 17bc 7af8 803c d6dc 90b9
00000190: 890e c5bc 80b7 b5bc ef59 f9bc 924f d13c
000001a0: 284e 843c 98de ec3a e34c a2bc 3e70 d23b
000001b0: b982 d7bb 0693 e83c 6b03 cabc 5c50 c83c
000001c0: e9d2 4c3b a7d5 8dbb 13df f13c b5da e33c
000001d0: efc8 b33b 1bb4 c2bc 3ddf dcba 2e36 d73c
000001e0: 718c bcbc 4aa4 923b a094 2b3c 4cd6 ed3c
000001f0: 01dd 8fbc 6a6b 09bd bd02 b9bc 704c e73c
00000200: ba97 7037 492d 3ab9 c491 85bc 91d2 14bc
00000210: 2742 dd3c 23b9 063d 1bf9 06bd 9306 71bb
00000220: 121d a5bc a1fc 383c b3ae 0b3d e357 98bc
00000230: 701c c2ba 9e5a e9bc f746 f0bc 26e8 d1bb
00000240: f3bd 07bd 5a4b f73c a1fa 1cbb efff 7f3c
00000250: f050 283b 084d b4bc 882f 313c 1441 b3bc
00000260: 6666 55bc 7f43 613c 0155 ba3c 9cd2 a3bb
00000270: 736e fbbc 91c1 2b3c 87ea 9fbc 6791 debc
00000280: 7e14 8c3c 68ae 9d3c 2064 c1b9 be14 7bbc
00000290: a5c4 6f3c cd1e d9bc 9ae2 eabc de53 9b3c
000002a0: 01d9 b8bc 677c d1bc bac3 c6bb 942b 7b3c
000002b0: f91a bf3c 905c b83c b54a f4bc 3743 b5bc
000002c0: 94f6 db3c 5b15 f9bc 4ab2 003b b606 88bc
000002d0: 5aa3 eb3c ab83 0cbc 13b0 7bbb 220c 9e3c
000002e0: 6c18 b03b be9b ae3c 4a65 7c3c f34b 15bc
000002f0: 0d09 d13c 7ad5 bb3c 89d8 d6bc f533 e5ba
00000300: bfd5 eb3b e6d9 c63c dc0b f73c 7470 d6bc
00000310: b145 5e3c da8f 003d f1ee e73c 34a8 eebc
00000320: bbb4 d2bb ef34 dd3b cf84 12bc f702 02bd
00000330: b6b5 1f3c e865 e33c 73a1 163d deeb eebc
00000340: 8996 20bc 6611 073d 9071 05bd e707 aabb
00000350: 6b2e 873c c526 c7bb 1de2 3ebc 186f ee3c
00000360: 09e5 253c b2e0 883c 8f54 b83b ac50 183c
00000370: a51e 573c 79e2 65bc c83a 0ebc a9fd dbbc
00000380: dd35 b5bc 13be 87bb 5602 d2bc b7d5 ac3c
00000390: 28e4 d93c fc53 df3c 9078 3bbc 357d 8dbc
000003a0: aa0e 993c 3b74 3dbb 1cd8 d43c 5e9b 0f3c
000003b0: 9457 b93c 965d 183b ff5d 7bbc 640d 11bc
000003c0: 6c98 083d 3b61 2ebb 888f b03c 645e babc
000003d0: 8675 5a3c 5a0d 8f3c 484c 47bc 8e4b b3bc
000003e0: a137 0bbd 15f2 483c 4d72 863c d23e 143c
000003f0: 6462 ff3c b26c 893c d9bc 643c adba 10bc
-0.020775253 -0.0032332188 -0.0043782685 0.030648107 0.010643463 0.025524916 -0.03241117 0.008276938
0.030577691 0.03055551 0.018003581 0.027355717 -0.012301443 -0.0065270304 -0.016080566 0.0130540505
-0.0010334264 0.012684308 -0.022203118 -0.0036388002 -0.008527624 -0.022622347 -0.009628105 0.028194396
-0.009066204 -0.014428746 -0.028689824 0.019358674 0.012772232 -0.033328455 -0.025333533 -0.00962422
0.0035937254 0.013165969 0.027291682 0.017284734 0.0052329535 -0.008118786 0.0061261463 0.028055828
0.014432051 -0.0052818214 -0.013323917 -0.011646838 0.022916207 0.030509524 -0.018250315 -0.005142172
-0.0068746745 0.022890078 0.001604866 -0.009958153 0.0032267657 0.0022839261 0.019066658 0.03681687
-0.013387063 0.030921709 -0.0327251 -0.011610877 0.016014736 0.023747109 -0.01840094 0.028153135
0.017553 -0.017967483 -0.016442453 -0.028796777 0.0029767547 0.019471023 0.031169146 -0.027397657
0.013417057 -0.02167135 0.0043224744 0.02107103 0.009709984 0.009924307 0.022254119 -0.0015104401
-0.03188469 0.0042006187 -0.02923138 -0.026007127 0.009448473 -0.0066434783 0.029746957 -0.011100461
-0.016903179 -0.030748213 -0.01651193 -0.010664107 0.0122667765 -0.021021588 -0.027847266 0.011830058
-0.007501465 -0.009251566 0.015743483 -0.00027630356 -0.024054782 -0.022182226 -0.030438391 0.025550637
0.016150549 0.0018071709 -0.019812053 0.0064220717 -0.0065768627 0.028390419 -0.024659833 0.02445238
0.0031253642 -0.004328448 0.029525315 0.027814249 0.0054865996 -0.023767522 -0.0016851198 0.026270952
-0.023016186 0.004475151 0.010472447 0.029032849 -0.017561438 -0.033549704 -0.022584314 0.02823469
1.4340441e-05 -0.00017755212 -0.016304858 -0.009083406 0.027009083 0.032891404 -0.03295241 -0.00367776
-0.020155463 0.0112907 0.034102153 -0.018596595 -0.00148095 -0.028485592 -0.029330714 -0.006405848
-0.033140134 0.030187298 -0.0023953097 0.015624984 0.0025683008 -0.022009388 0.010814555 -0.021881618
-0.013024902 0.0137490025 0.022745611 -0.004999472 -0.030692315 0.010483162 -0.019521011 -0.027168943
0.017099615 0.019248202 -0.00036886428 -0.01532477 0.014634286 -0.026503945 -0.028672505 0.01896089
-0.022564413 -0.025572015 -0.006065813 0.015330214 0.023328291 0.022505075 -0.02982078 -0.022126777
0.026850976 -0.03040569 0.0019637519 -0.016604763 0.028764416 -0.008576314 -0.003840451 0.019292895
0.005374005 0.021314498 0.015405009 -0.009112346 0.025517011 0.022928942 -0.026226299 -0.0017486798
0.0071971114 0.024273824 0.030157022 -0.026176669 0.01356642 0.031387188 0.028312178 -0.02913294
-0.006430236 0.006750695 -0.008942797 -0.03174111 0.009747913 0.027758554 0.036775064 -0.029165205
-0.009801515 0.032975577 -0.032579005 -0.0051889303 0.016501626 -0.0060776197 -0.011650589 0.029105708
0.010125407 0.016708706 0.0056253145 0.009296577 0.013129865 -0.014031046 -0.008681007 -0.026854353
-0.02212041 -0.0041425317 -0.02563588 0.021098 0.026598051 0.027261727 -0.011442319 -0.017271617
0.01868375 -0.002890839 0.025981955 0.00876507 0.022624768 0.002324914 -0.015342235 -0.00885329
0.033348486 -0.0026608247 0.021552816 -0.022750087 0.013333684 0.017462421 -0.012164183 -0.021886613
-0.0339886 0.012264748 0.016411925 0.009048181 0.031174846 0.016775463 0.01396104 -0.0088335695
